data/models/fashion/smallmodel/1/checkpoint_epoch_5.pt (torch, 768191 bytes, 16 tensors)

linear1.weight f4 [256, 512]
0	0x3d5ccae0	0.053904414
1	0x3b9264bc	0.004467575
2	0xbbc869cc	-0.0061161276
3	0x3c82efa2	0.015983406
4	0xbd01c938	-0.031686038
5	0x3d3e79e3	0.04650296
6	0x3cdba8ce	0.02681389
7	0x3be05acf	0.0068467627
8	0xbd090c98	-0.033459276
9	0x3d63d49a	0.055622675
10	0xbd257d17	-0.040402498
11	0x3c6d15dc	0.014470544
12	0xbcdc3b8c	-0.026883863
13	0x3cac7db3	0.021056032
14	0x3c9a7449	0.018854277
15	0xbd501bee	-0.050807886
16	0xbcf89a3a	-0.030346978
17	0xbccf8758	-0.025333092
18	0xbd449f81	-0.048003677
19	0x3c283ebb	0.010268862
20	0xbcb77f36	-0.022399526
21	0xbc79f829	-0.01525692
22	0xbcbf6209	-0.023362176
23	0xbb20758f	-0.0024484133
24	0x3d275daf	0.040860828
25	0x3d43f597	0.047841635
26	0xbd72b419	-0.059253786
27	0xbc34d745	-0.011037652
28	0xbd067116	-0.03282269
29	0x3d728bf1	0.05921549
30	0xbc03b408	-0.008038528
31	0x3c601e70	0.013679132
32	0xbd4bbb0f	-0.04973894
33	0xbd907c77	-0.0705499
34	0xbd32ab34	-0.043620303
35	0xbbac8a25	-0.0052654915
36	0x3cd7b142	0.02632964
37	0xbc9c6ce3	-0.01909489
38	0x3cf47def	0.029845206
39	0x3c901543	0.017588263
40	0x3c9da9ac	0.019245945
41	0xbce0a7f3	-0.027423834
42	0x3d5a28a1	0.053261403
43	0xbc9853e2	-0.018594686
44	0x3c7710b5	0.015079667
45	0xbd31a0ac	-0.04336612
46	0x3d5422e8	0.0517911
47	0x3cb3850a	0.021914024
48	0x3c479152	0.012180643
49	0xbbe82fe6	-0.007085788
50	0x3c8fc43a	0.017549623
51	0xbc2319c6	-0.009954875
52	0xbc243510	-0.010022417
53	0xbc6bb8ea	-0.014387349
54	0x3c943d4c	0.018095635
55	0x3d509e21	0.050932053
56	0xbcb4feef	-0.022094218
57	0x3cb22636	0.021746736
58	0xbcd04b03	-0.025426393
59	0xbc9f6dae	-0.019461479
60	0xbd532b26	-0.05155482
61	0xbb8233f9	-0.003973481
62	0x3c85a125	0.016312191
63	0xbcb81ca2	-0.02247459
64	0xbd139aaf	-0.03603619
65	0xbd2bc137	-0.04193231
66	0x3d4482e5	0.047976393
67	0x3b4314f0	0.0029767118
68	0x3c51dbca	0.012808749
69	0xbcdb91b8	-0.026802883
70	0x3c8930ec	0.01674696
71	0x3c01442e	0.00788979
72	0x3d44f7bc	0.04808782
73	0x3c5c6c1a	0.013453508
74	0x3c399422	0.0113268215
75	0xbd1a5b65	-0.037684817
76	0xbb4d886c	-0.0031361831
77	0x3d14345a	0.03618274
78	0x3bc18771	0.0059060385
79	0x3bfc5d94	0.007701585
80	0xbc22c0e2	-0.009933682
81	0x3bdb7cad	0.006698212
82	0xbd1b85fc	-0.037969574
83	0x3cc25010	0.023719817
84	0xbc9416a3	-0.0180772
85	0x3c5bceeb	0.013416032
86	0xbc135b35	-0.008993913
87	0xbcd96caa	-0.026541073
88	0xbd5c0efe	-0.053725235
89	0xbce8395b	-0.028347662
90	0x3d617f91	0.055053297
91	0xbca396a1	-0.019969286
92	0xbd27f94b	-0.04100923
93	0xbc42ea6e	-0.011896713
94	0x3d243dd2	0.04009802
95	0x3c5b1472	0.013371574
96	0xbc65c702	-0.014024498
97	0xbd1e1399	-0.03859291
98	0x3cefc79e	0.02926999
99	0xbb41c2b8	-0.0029565524
100	0x3cc6beeb	0.024260959
101	0xbb419746	-0.002953963
102	0x3cc4876c	0.023990355
103	0x3cae4204	0.021271713
104	0xbb92eaa8	-0.0044835396
105	0x3d13d138	0.0360882
106	0x3b8cb4e2	0.004294024
107	0xbd7e9329	-0.06215206
108	0x3ce8a9a7	0.028401209
109	0x3c933722	0.017970625
110	0x3d81417a	0.06311317
111	0xbcfb5e79	-0.030684697
112	0xbb4f349a	-0.0031617046
113	0xbcb9350d	-0.022608304
114	0x3c6d5cab	0.014487426
115	0x3ca638ac	0.020290695
116	0x3d0b44fa	0.034001328
117	0x3ca013e5	0.019540736
118	0x3c67521b	0.014118697
119	0xba9794da	-0.0011564747
120	0x3cd3bfe0	0.025848329
121	0x3d37a79d	0.044837583
122	0xba6504f3	-0.0008736394
123	0x3c0a38d1	0.008436398
124	0xbce5df3b	-0.028060546
125	0x3d18c7a3	0.037299763
126	0xbd2cdf6e	-0.042205267
127	0xbd4502cb	-0.048098367
128	0x3a000e97	0.00048849866
129	0x3d6ef64f	0.058340367
130	0xbbad7266	-0.0052931784
131	0xbbb15758	-0.0054120235
132	0xbc1deeac	-0.009639423
133	0xbcf78084	-0.030212648
134	0x3be2100c	0.0068988856
135	0x3c60d6a5	0.01372305
136	0xbcc89a03	-0.024487501
137	0xbcca39ff	-0.024685858
138	0x3cae1f32	0.02125511
139	0x3d400e30	0.04688853
140	0x3c9a42fe	0.018830772
141	0xbd15453d	-0.036442984
142	0xbd06b9e7	-0.032892134
143	0x3cfb23f5	0.030656794
144	0x3c8d7593	0.017267978
145	0xbd576da3	-0.052594792
146	0xbbae2307	-0.005314234
147	0xbb43c518	-0.0029872116
148	0xba181fcc	-0.0005803078
149	0x3d24224e	0.040071778
150	0xbd933b0e	-0.07188998
151	0xbc3a47ff	-0.011369704
152	0xbcb4a778	-0.022052512
153	0xbc8d85e8	-0.017275766
154	0xbc8979b0	-0.016781658
155	0x3ce14181	0.027497055
156	0x3cec157d	0.02881884
157	0x3cfd76a4	0.030940361
158	0x3b03d09c	0.0020113355
159	0x3d023eca	0.03179816
160	0x3ba2b625	0.004965561
161	0x3cb30fc5	0.021858105
162	0xbd6c58d0	-0.057701886
163	0x3d0fa37c	0.03506802
164	0xbd00cc7d	-0.031445015
165	0x3ca19c62	0.01972789
166	0x3d8ca745	0.06867842
167	0x3cc32bce	0.023824599
168	0x3cd8c3bf	0.026460527
169	0x3c4f2944	0.012644116
170	0xbcc18f19	-0.023627805
171	0x3b21b422	0.0024674018
172	0xbc531962	-0.01288447
173	0x3c3c41bd	0.011490283
174	0xb9b9629f	-0.00035359428
175	0xbd671a10	-0.05642134
176	0x3c745df4	0.014914978
177	0x3d1f29fc	0.0388584
178	0x3d3d68e4	0.04624261
179	0x3cfefb10	0.031125575
180	0x3d30d0a8	0.04316774
181	0xbd92dbf7	-0.07170861
182	0xbc8b7878	-0.017025217
183	0xbc457e14	-0.012053985
184	0xbcfc3cbe	-0.030790683
185	0x3ce01e15	0.027358094
186	0xbd340cc8	-0.0439575
187	0xbcd8509e	-0.026405629
188	0xbcf866c8	-0.030322447
189	0x3a836003	0.001002312
190	0xbbae42ef	-0.0053180377
191	0xbce5fdb4	-0.028075077
192	0x3d25e538	0.040501803
193	0xbd131342	-0.035907038
194	0x3cf843d1	0.030305775
195	0x3cc21197	0.023690028
196	0x3c8bf8ca	0.017086405
197	0x3c80313f	0.015648482
198	0xbda8049a	-0.08204003
199	0xbcd02279	-0.025407063
200	0x3d06ab0e	0.032877974
201	0xbd2d6ccd	-0.04234009
202	0x3cf62d4c	0.030050896
203	0x3d41fa00	0.04735756
204	0xbcc22758	-0.023700401
205	0x3c199f3e	0.009376345
206	0xbd35c697	-0.044378843
207	0x3c8906ae	0.016726818
208	0xbd03b317	-0.032153215
209	0x3d198a7d	0.03748559
210	0xbd1f562d	-0.038900543
211	0xbc4fc565	-0.01268134
212	0x3cc63b28	0.02419813
213	0x3caa6063	0.020797914
214	0xbd1ec7ae	-0.03876465
215	0xbbbd10ea	-0.0057698386
216	0xbc793908	-0.015211351
217	0xbcfdf1fb	-0.030999174
218	0xbd2c5cc2	-0.04208065
219	0xbcfab585	-0.030604133
220	0x3a978f95	0.0011563177
221	0xbd05ec7c	-0.032696232
222	0xbd469bcb	-0.04848842
223	0x3bba2a20	0.005681291
224	0x3d46ddbd	0.04855131
225	0x3d3f4c0d	0.046703387
226	0x3b810ea0	0.003938511
227	0x3d09f638	0.033682078
228	0xbbf8aec4	-0.007589193
229	0x3d7a981d	0.061180223
230	0x3d0495d7	0.03236946
231	0x3c217d39	0.009856516
232	0x3d092d43	0.03349043
233	0x3c198742	0.009370627
234	0xbc740846	-0.014894551
235	0xbcb65bf3	-0.022260642
236	0x3c3658d5	0.011129578
237	0xbcbb74b3	-0.022882795
238	0xbd65cb34	-0.056101993
239	0x3c91671e	0.017749365
240	0x3d6217ac	0.055198357
241	0x3c6f13a9	0.01459209
242	0x3d150fac	0.0363919
243	0x3cd83009	0.026390092
244	0x3cd566e9	0.026050048
245	0x3c4614d8	0.0120899305
246	0x3d8db216	0.06918733
247	0x3d0a86ea	0.03382007
248	0x3c88694e	0.016651776
249	0x3cca5763	0.024699872
250	0xbccb604c	-0.024826191
251	0xbd15bf3e	-0.036559336
252	0xbd02be19	-0.031919573
253	0xbcc5d3dd	-0.024148876
254	0xbd1c49ab	-0.038156193
255	0x3d653dd4	0.055967167

linear2.weight f4 [128, 256]
0	0xbd47e63c	-0.048803553
1	0x3d646814	0.05576332
2	0xbd48b9ae	-0.049005203
3	0xbd1a2fdb	-0.037643295
4	0x3d0aebbd	0.033916224
5	0x3a8d098d	0.0010760293
6	0x3c7065ed	0.0146727385
7	0xbcc035ba	-0.023463119
8	0xbb658f3e	-0.0035028006
9	0x3c417900	0.011808634
10	0x3d1e36ac	0.038626358
11	0x3d3d8769	0.046271715
12	0xbd88c684	-0.06678489
13	0xbd4e5003	-0.050369274
14	0x3cdce320	0.02696377
15	0x3bef2ec8	0.007299278
16	0x3d7cb98f	0.0617004
17	0xb9f69fef	-0.00047039936
18	0x3cb3e5fa	0.021960247
19	0xbd7c6cda	-0.061627246
20	0xbcf0a9ea	-0.029377896
21	0x3c2b23f9	0.010445588
22	0x3c8ae539	0.016955005
23	0x3d53c9dd	0.051706184
24	0x3d223f07	0.03961089
25	0x3d0853b4	0.03328295
26	0x3c77862b	0.015107672
27	0xbd2624f1	-0.040562574
28	0x3cbcf087	0.023063911
29	0x3d7f79ec	0.062372133
30	0xbc0c26ee	-0.008554203
31	0x3cb9009d	0.0225833
32	0x3d1a548d	0.03767829
33	0x3d012b55	0.031535465
34	0x3d290461	0.04126394
35	0x3d3fc629	0.04681984
36	0xbb70568f	-0.0036672687
37	0x3d490106	0.04907324
38	0x3d719df6	0.058988534
39	0xbd604259	-0.054750774
40	0x3d6811bb	0.056657534
41	0xbd479c01	-0.04873276
42	0xbd8785ca	-0.06617315
43	0xbc8b881b	-0.017032674
44	0xbd999762	-0.07499577
45	0x3d419020	0.04725659
46	0xbc78073c	-0.015138444
47	0x3d2874e5	0.041127104
48	0xbc7eb48d	-0.015545976
49	0x3cd74ae2	0.026280824
50	0xbc9d5268	-0.019204333
51	0xbc707010	-0.014675155
52	0x3d4b5709	0.04964355
53	0x3cada24b	0.021195551
54	0xbd1f76ae	-0.03893154
55	0xbd12385a	-0.035698272
56	0xbce381a4	-0.027771778
57	0x3ca335d2	0.019923124
58	0xbc1fae65	-0.009746169
59	0x3cc0178e	0.023448732
60	0x3c1ba534	0.009499837
61	0x3c559aad	0.013037366
62	0x3d105ff4	0.035247758
63	0xbc852b1a	-0.016255904
64	0xbd29b5c2	-0.041433103
65	0xbcde8956	-0.027165096
66	0x3c65ada9	0.014018455
67	0xbd04f246	-0.032457612
68	0xbd66e606	-0.05637171
69	0x3cb98e4b	0.022650858
70	0x3ce8f2bd	0.02843606
71	0x3d6a0cb3	0.057141017
72	0xbccd491b	-0.025059273
73	0x3c3e1857	0.011602483
74	0x3d2a65ee	0.041601114
75	0xbc3cd289	-0.011524805
76	0xbc9fc513	-0.019503152
77	0xbc81e570	-0.015856475
78	0x3d59ed6e	0.053204946
79	0x3d19bff4	0.037536576
80	0xbc2c6134	-0.010521222
81	0x3d64826a	0.055788435
82	0x3d2abf05	0.041686077
83	0xbc2fda94	-0.010733265
84	0x3d0e5ce9	0.034756575
85	0xbd7f90a3	-0.062393796
86	0x3d431e74	0.047636464
87	0x3c2fae77	0.010722748
88	0xbd280bd5	-0.04102691
89	0xbd00d1f6	-0.031450234
90	0xbcb1322c	-0.02163037
91	0x3d373301	0.044726375
92	0xbd354aa4	-0.044260636
93	0x3d8df241	0.06930972
94	0xbcb0ba54	-0.021573223
95	0xbce2cd0d	-0.027685666
96	0x3d8f2f72	0.06991471
97	0x3d0b6f39	0.034041617
98	0xbd17f1d0	-0.037095845
99	0xbb9caf4f	-0.0047816406
100	0xbd208ace	-0.039194874
101	0x3be297d8	0.006915074
102	0x3c5488cf	0.012972071
103	0xbd0eff0e	-0.034911208
104	0x3c2b817f	0.010467886
105	0xbc997bf7	-0.018735869
106	0xbd274a86	-0.040842555
107	0x3d46691b	0.04844008
108	0x3d6551c1	0.05598617
109	0x3c899f69	0.016799645
110	0x3d6fbbbd	0.05852865
111	0x3c855ba8	0.016279057
112	0x3b1ada30	0.0023628585
113	0xbb5703fb	-0.003280877
114	0xbc2c8c6f	-0.010531529
115	0x3a3abc5d	0.0007123405
116	0x3c812f47	0.015769614
117	0xbcf841de	-0.030304845
118	0x3b7febaf	0.003905039
119	0x3d2c9004	0.04212953
120	0x3d2cf531	0.04222602
121	0xbd8dba03	-0.069202445
122	0xbd305ca5	-0.043057103
123	0xbd864716	-0.06556527
124	0x3a5a73f5	0.0008333319
125	0xbd124f95	-0.035720427
126	0xbc6f709d	-0.014614251
127	0xbcb0bd7d	-0.02157473
128	0xbd3efffb	-0.04663084
129	0x3d3954e7	0.045246985
130	0xbc8b5e88	-0.01701285
131	0x3d5d0b6c	0.05396597
132	0x3cace636	0.021105867
133	0xbcfa3b3d	-0.030545825
134	0x3cd26085	0.02568079
135	0xbcd75924	-0.026287623
136	0xbc5a2c5a	-0.013316238
137	0xbc3e8c4d	-0.01163013
138	0x3d5eff3b	0.054442625
139	0xbcc8629d	-0.024461085
140	0x3d6bdede	0.05758559
141	0x3d564263	0.052309405
142	0x3d1f3317	0.038867082
143	0xbd2278de	-0.03966605
144	0xbd4a7394	-0.04942663
145	0x3bb7aad0	0.0056050792
146	0xbd6990c3	-0.05702282
147	0xbcabba24	-0.020962782
148	0x3d0eae04	0.034833923
149	0xbd42f2ac	-0.04759471
150	0xbc49d378	-0.0123184845
151	0xb88a38f2	-6.59096e-05
152	0x3d43b937	0.047784057
153	0x3d181e2a	0.03713814
154	0xbd809356	-0.06278102
155	0xbd51cea9	-0.051222477
156	0xbd14b28a	-0.03630308
157	0xbd0ad0cc	-0.03389053
158	0x3bbe9e90	0.005817242
159	0x3d4c7f5c	0.049926147
160	0x3d52f96d	0.051507402
161	0x3a344af7	0.0006877626
162	0xbd8764ec	-0.06611046
163	0x3d506d22	0.050885327
164	0x3d9b63ae	0.07587372
165	0xbce4dc72	-0.027937148
166	0xbcb3825e	-0.02191275
167	0xbd181202	-0.03712655
168	0xbc5fe869	-0.013666251
169	0x3d1599a9	0.036523495
170	0xbd6c915b	-0.05775581
171	0x3c576951	0.013147668
172	0xbd1d73a3	-0.038440358
173	0xbd26a66e	-0.040686063
174	0xbd1947b7	-0.03742191
175	0x3c605b7e	0.013693688
176	0xbaa5d080	-0.0012650639
177	0xbd1b42b8	-0.037905425
178	0xbc842a55	-0.016133467
179	0x3ceca602	0.028887752
180	0x39b3d619	0.00034301056
181	0xbc918ad4	-0.017766394
182	0x3b368bb4	0.0027854266
183	0x3d14c167	0.036317255
184	0x3d1ebbcf	0.038753327
185	0x3ce881f3	0.028382277
186	0xbd38e523	-0.045140397
187	0x3d016684	0.031591907
188	0x39b4d97f	0.00034494323
189	0x3cfa3606	0.030543339
190	0x3d136196	0.035981737
191	0x3d0fedfe	0.035139076
192	0xbd18cd9e	-0.037305467
193	0x3cb974b2	0.022638652
194	0x3c79480b	0.01521493
195	0x3d1a31c6	0.037645124
196	0xbd3f3cd6	-0.046688877
197	0x3d5f4ad5	0.054514725
198	0xbd112da7	-0.035443928
199	0x3d0a70cd	0.03379898
200	0x3d80f798	0.06297225
201	0xbd41d82c	-0.0473253
202	0x3cdb6db0	0.026785702
203	0x3d82f467	0.06394272
204	0x3d6950ba	0.056961752
205	0xbd112d15	-0.035443384
206	0x3d0f897d	0.03504323
207	0x3c84ff95	0.016235152
208	0x3c857f8b	0.016296169
209	0xbd445d78	-0.0479407
210	0xbd217fc6	-0.039428495
211	0x3d41b305	0.047289867
212	0xbd30fe6c	-0.043211386
213	0x3c28759c	0.0102819465
214	0x3c713837	0.014722875
215	0xbc8957dc	-0.016765527
216	0x3c1e0437	0.00964456
217	0x3d19ecba	0.037579276
218	0xbcaf8226	-0.021424364
219	0x3d1934ab	0.037403744
220	0x3cb83753	0.022487318
221	0xbd8fbc0c	-0.07018289
222	0xbd713efd	-0.05889796
223	0xbd788968	-0.060677916
224	0xbd42af42	-0.04753042
225	0x3b32f878	0.0027308743
226	0x3ba1ef2e	0.0049418425
227	0x3cdf7e9e	0.027282055
228	0x3d58283b	0.05277274
229	0x3b582d09	0.0032985827
230	0x3cd8bd12	0.026457343
231	0xbd388b64	-0.04505481
232	0xbd14bc82	-0.036312588
233	0xbd2406f1	-0.040045682
234	0x3d25fff7	0.04052731
235	0x3d100c42	0.03516794
236	0xbcccfb7f	-0.025022266
237	0xbd2a3ae8	-0.041560084
238	0x3cd63477	0.026148064
239	0x3d0dad81	0.034589294
240	0x3cc736a1	0.024318041
241	0x3bac6ebc	0.005262224
242	0xbd3e67bf	-0.04648566
243	0xbd94c776	-0.07264607
244	0xbc99be4d	-0.0187675
245	0x3d4f85ad	0.050664593
246	0x3c65cc1a	0.014025712
247	0xbd4ce906	-0.050026916
248	0xbd78a0ff	-0.060700413
249	0x3d34d019	0.04414377
250	0xbbf727aa	-0.00754257
251	0x3d122a4c	0.03568487
252	0xbd4fa1ca	-0.050691403
253	0xbd0592e0	-0.032610774
254	0xbcdca0f9	-0.026932226
255	0xbd18281e	-0.037147634

gender.weight f4 [5, 128]
0	0xbd9b4b68	-0.07582742
1	0xbd958c5c	-0.07302162
2	0xbdd208c5	-0.10255579
3	0xbdb0dc19	-0.0863573
4	0x3cf4c4ca	0.029878993
5	0xbd7ad0b3	-0.061234187
6	0x3beddbcf	0.0072588692
7	0xbdaaf0f0	-0.083467364
8	0xbd259d2e	-0.0404331
9	0x3d652cdf	0.055950996
10	0xbd808663	-0.06275632
11	0xbda6bf24	-0.08141926
12	0x3d8b4ae0	0.06801391
13	0x3ce51e95	0.027968684
14	0x3c8550db	0.016273906
15	0x3cfbd153	0.030739462
16	0x3bcb9159	0.006212395
17	0xbdb78219	-0.08960361
18	0xbb2c05fa	-0.002624868
19	0xbd851cb2	-0.06499614
20	0x3d8ce647	0.068798594
21	0xba991ce4	-0.0011681584
22	0xbdcc267b	-0.09968277
23	0x3c8e91d0	0.017403513
24	0x3d01d25a	0.031694748
25	0x3ccc1383	0.024911648
26	0xbdb66012	-0.08905043
27	0x3d889686	0.06669335
28	0xbd9bcd41	-0.076075085
29	0x3d434a5a	0.04767833
30	0x3b9ce5a3	0.004788117
31	0x3d17c320	0.03705132
32	0xbd36c269	-0.044618998
33	0xbdbf0117	-0.0932638
34	0x3d628387	0.055301215
35	0x3d631f1e	0.055449598
36	0x3d4f5acc	0.0506237
37	0xbdbe63f8	-0.09296411
38	0x3d68249d	0.056675542
39	0x3d24b9e4	0.04021634
40	0x3d03cd81	0.032178406
41	0xbdbf6640	-0.093456745
42	0x3d6a98a7	0.057274487
43	0x3d250d43	0.04029585
44	0xbd12743b	-0.035755377
45	0x3cdf055c	0.027224235
46	0x3d719ef3	0.058989476
47	0x3bec424d	0.007210052
48	0x3d00bfc0	0.031432867
49	0xbcf1cac8	-0.029515639
50	0xbbe36282	-0.0069392333
51	0xbda1278c	-0.07868871
52	0xbd8cc31b	-0.06873151
53	0xbdc43703	-0.09580805
54	0xbdaac109	-0.083376
55	0x3cc70881	0.024296047
56	0x3cbc1797	0.022960467
57	0xbd2aa8c3	-0.04166485
58	0xbd230b37	-0.039805617
59	0xbd7df00b	-0.0619965
60	0x3d1d1356	0.03834852
61	0x3d737d07	0.059445407
62	0x3da27cb4	0.079339415
63	0xbd3c7c86	-0.046017192
64	0xbcac52e3	-0.021035617
65	0x3d80f789	0.062972136
66	0xbd49d5c4	-0.04927613
67	0xbcbecb07	-0.02329017
68	0xbd070598	-0.03296432
69	0x3cb5511a	0.022133399
70	0x3d673259	0.0564445
71	0xbdb49533	-0.0881752
72	0xbdc6eac3	-0.09712746
73	0xbd0b47d7	-0.03400406
74	0xbcae2ed2	-0.02126256
75	0xbd8eae47	-0.069668345
76	0x3d9276e5	0.071515836
77	0x3acdc555	0.0015699068
78	0xbd6541cc	-0.055970952
79	0xbc9fabae	-0.019491043
80	0xbd01991a	-0.03164015
81	0x3d176d9b	0.036969762
82	0xbdb0ff06	-0.08642392
83	0xbcbde725	-0.023181507
84	0x3d915e2a	0.070980385
85	0xbd5718fb	-0.052514058
86	0xbaf0d63e	-0.0018374396
87	0xbdc829a6	-0.09773569
88	0xbd35b0fc	-0.04435824
89	0xba7e9cda	-0.0009712704
90	0x3d86aeef	0.06576335
91	0xbdafb42e	-0.085792884
92	0xbdb4f288	-0.08835322
93	0x3cd5e97c	0.02611231
94	0xbd930bdd	-0.07179997
95	0xbda2c7c3	-0.07948258
96	0xbd92b3e4	-0.07163218
97	0xbdbc89f5	-0.09206001
98	0xbd788347	-0.06067207
99	0xbcf18722	-0.029483382
100	0x3d198c05	0.03748705
101	0xbdc2c60f	-0.09510433
102	0x3d47f172	0.048814245
103	0x3cb895ed	0.022532428
104	0x3d26970c	0.040671393
105	0x3cab9b74	0.02094815
106	0xbc11f0e9	-0.008907535
107	0x3cadc7dc	0.021213464
108	0xbdaf4ee4	-0.08559969
109	0x3d07703e	0.033066027
110	0x3d59f933	0.05321617
111	0x3c95ff86	0.01831032
112	0xbc55e494	-0.013054986
113	0x3d5a03ce	0.053226285
114	0xbdbb4e11	-0.09145749
115	0xbd8ef34b	-0.06979998
116	0xbd672121	-0.05642808
117	0xbcb7a574	-0.022417761
118	0xbdc89b90	-0.09795296
119	0xbda7834b	-0.08179339
120	0xbd207ce0	-0.03918159
121	0xbd73ce97	-0.05952319
122	0xbc52bb1f	-0.012861996
123	0xbd602708	-0.054724723
124	0xbdc364c0	-0.09540701
125	0x3d551c13	0.052028727
126	0x3d49c2ba	0.04925797
127	0xbd297ccb	-0.041378777
128	0x3d849170	0.064730525
129	0xbcc69417	-0.024240537
130	0x3bd70d3f	0.0065628584
131	0xbd671d0e	-0.056424193
132	0x3d1a3864	0.037651435
133	0xbd8b4df9	-0.068019815
134	0xbda29fb2	-0.07940616
135	0xbd729f06	-0.059233688
136	0x3d9e3c2b	0.0772632
137	0x3d8e9c19	0.06963367
138	0xbd33a841	-0.04386163
139	0x3d0b49d5	0.03400596
140	0x3b92a14b	0.004474794
141	0xbc6c799a	-0.014433289
142	0xbcbc3e3e	-0.022978898
143	0x3d11a4a3	0.0355574
144	0x3d61f951	0.055169407
145	0xbdaaf5c3	-0.083476566
146	0x3d9b7af3	0.0759181
147	0xbacee22a	-0.0015783955
148	0x399c2b6d	0.00029786993
149	0xbda873c7	-0.08225208
150	0x3d671fb5	0.056426723
151	0xbc37bf3a	-0.011215026
152	0xbd2877b9	-0.0411298
153	0xbdeeba2e	-0.11656605
154	0xbd84d8e8	-0.06486684
155	0xbd89b660	-0.067242384
156	0xbcba055d	-0.022707636
157	0xbcbe2f51	-0.023215922
158	0x3d9518c9	0.07280118
159	0xbd1505b4	-0.036382392
160	0xbd293467	-0.04130974
161	0xbd68019f	-0.05664217
162	0xbdcedfec	-0.101013035
163	0x3a769270	0.0009405976
164	0x3d14e8f1	0.036354963
165	0xbd050b55	-0.03248151
166	0x3da6f7dd	0.08152745
167	0x3aa87df6	0.0012854922
168	0x3c8b8287	0.017030014
169	0x3c55376b	0.013013701
170	0x3d4e8b8c	0.05042605
171	0xbc8707d4	-0.016483225
172	0xbdbb1d78	-0.0913648
173	0x3d39ffeb	0.045410078
174	0xbd794bdb	-0.060863357
175	0x3cf3538b	0.029702922
176	0x3bbb060f	0.0057075094
177	0xbd5100fb	-0.051026326
178	0x3ccd7e55	0.025084654
179	0xbd27c4f4	-0.040959314
180	0xbd160ca5	-0.036633153
181	0xbcd768b4	-0.026295044
182	0xbd8346f1	-0.064100154
183	0xbd14bb03	-0.03631116
184	0xbc320ffd	-0.01086807
185	0xbd0e76e6	-0.03478136
186	0x3d2562d7	0.040377464
187	0xbd990e6e	-0.07473455
188	0xbd0db1a1	-0.03459323
189	0x3d535958	0.051598877
190	0x3d984443	0.07434895
191	0xbd644d5b	-0.055737834
192	0x3cfe1d7c	0.031019919
193	0xbdae6cd4	-0.08516851
194	0x3d1bc63d	0.03803085
195	0xbd37dc53	-0.044887852
196	0xbcfec842	-0.03110135
197	0x3ce63128	0.028099611
198	0x3d69a359	0.057040546
199	0x3c2d94f5	0.010594596
200	0xbc9a0e70	-0.018805712
201	0xbcf9664c	-0.030444287
202	0x3d935c71	0.07195366
203	0x3d9f4ecc	0.07778701
204	0x3c51a640	0.012795985
205	0xbd978f92	-0.07400431
206	0xbdb9c7ef	-0.090713374
207	0xbdafd42f	-0.08585393
208	0x3d6974ce	0.05699616
209	0x3d76edc6	0.060285352
210	0x3d4e1b75	0.050319154
211	0xbd0d1aec	-0.034449503
212	0xbc416640	-0.011804163
213	0xbc48125e	-0.01221141
214	0xbdae16bf	-0.08500432
215	0x3be85ef3	0.007091397
216	0xbd6a6ae2	-0.057230838
217	0xbd2b61b7	-0.041841235
218	0xbd923cc8	-0.07140499
219	0xbd1dbb30	-0.038508594
220	0xbca95da8	-0.020674542
221	0xbd1e719f	-0.038682576
222	0x3d97acfd	0.07406042
223	0xb9952360	-0.0002844585
224	0x3aedf255	0.0018153886
225	0xbcf960d6	-0.030441683
226	0xbc2704fb	-0.0101940585
227	0xbd595a9a	-0.05306492
228	0xbda8c9aa	-0.08241589
229	0xbc9305f9	-0.017947184
230	0x3d368f81	0.04457045
231	0xbd050e4c	-0.032484338
232	0xbcd09546	-0.025461804
233	0xbd1ef8ef	-0.03881162
234	0x3c12de6f	0.008964165
235	0xbd928306	-0.07153897
236	0x3ac65906	0.0015132732
237	0xbcacebc6	-0.02110852
238	0xbd8f34d8	-0.06992501
239	0xbbfa5ff7	-0.0076408344
240	0xbdbc253b	-0.09186789
241	0x3b902cd9	0.0043998775
242	0x3c73b3cc	0.01487441
243	0x3d129f26	0.035796307
244	0xbd534d14	-0.05158718
245	0xbd97b7de	-0.07408117
246	0xbd6a81a6	-0.05725255
247	0x3d7b545e	0.061359756
248	0x3cca05df	0.024661003
249	0xbd399796	-0.04531058
250	0xbd9859a2	-0.07438971
251	0x3d049090	0.032364428
252	0x3d69707b	0.056992035
253	0xbda9decf	-0.082944505
254	0x3cb63252	0.022240791
255	0x3d7e852d	0.062138725

gender.bias f4 [5]
0	0x3bab69fb	0.0052311397
1	0xbd3c18cf	-0.045922097
2	0xbd54e8b5	-0.05197974
3	0x3d0a2cc1	0.033734087
4	0x3dbd93d2	0.0925671

masterCategory.weight f4 [6, 128]
0	0xbd7a57e6	-0.061118983
1	0x3cb01edc	0.02149909
2	0x3d3214f3	0.04347701
3	0xbcdad404	-0.026712425
4	0x3a6a3dc7	0.0008935597
5	0xbc8859a4	-0.016644306
6	0x3d03c0ba	0.03216622
7	0x3aebf19c	0.0018001082
8	0xbc812b1d	-0.015767628
9	0x3d8c3465	0.06845931
10	0x3d461c53	0.048366856
11	0x3d6645f0	0.05621904
12	0xbd7383a0	-0.0594517
13	0x3d91673a	0.07099767
14	0xbb801bbf	-0.0039095576
15	0xbd2388a2	-0.039925225
16	0x3d8f5ad0	0.06999743
17	0x3d04d4e8	0.032429606
18	0xbba910ff	-0.005159497
19	0xbd4ea1f7	-0.05044743
20	0xbd877cfa	-0.06615634
21	0xbcd81cd5	-0.026380936
22	0xbc2050e5	-0.009784912
23	0xbc3e636e	-0.011620386
24	0xba034f53	-0.00050090736
25	0x3da24d8e	0.07924949
26	0xbd145367	-0.03621235
27	0x3d9bd010	0.07608044
28	0x3c9c5e02	0.019087795
29	0x3c4c4453	0.012467462
30	0xbccbf0df	-0.02489513
31	0xbcb35b09	-0.021893995
32	0x3da3c72b	0.07996973
33	0x3b5810e1	0.0032969045
34	0xbd282391	-0.041049544
35	0xbd12b476	-0.035816632
36	0xbd8b8cb2	-0.06813945
37	0xbd026424	-0.031833783
38	0xbd1c06fe	-0.038092606
39	0xbd5607f3	-0.052253675
40	0x3ba9855e	0.0051733693
41	0xbb1126c2	-0.0022148346
42	0x3d0cf597	0.0344139
43	0xbc074c0e	-0.008257879
44	0x3dce91f2	0.100864306
45	0xbd644401	-0.055728916
46	0xbc16eef6	-0.009212246
47	0xbd011519	-0.03151426
48	0x3aa0a30b	0.0012255622
49	0x3d451439	0.04811499
50	0xbc0fb0df	-0.008770197
51	0xbcad3bab	-0.021146616
52	0xbcf66b3c	-0.03008043
53	0xbcd8fa97	-0.026486678
54	0x3d88b109	0.06674392
55	0xbc43849a	-0.01193347
56	0xbd6fbe84	-0.0585313
57	0x3d4a0a93	0.04932649
58	0xbda4b92f	-0.080431335
59	0x3d1de149	0.038544927
60	0x3d637e4b	0.055540364
61	0x3d8e2039	0.0693974
62	0xbd842f47	-0.0645433
63	0xbc27d6ce	-0.0102440845
64	0xbcbe71c0	-0.0232476
65	0x3ccf7fd2	0.025329504
66	0x3dce3685	0.100689925
67	0x3dbd1bc6	0.09233813
68	0xbd13645d	-0.035984386
69	0x3d99aa24	0.07503155
70	0xbcd0860b	-0.025454542
71	0xbd40672d	-0.046973396
72	0x3ddbc583	0.10731032
73	0x3d07f04e	0.033188157
74	0xbd9e02fd	-0.07715414
75	0x3d6afbfb	0.057369214
76	0xbd5a585e	-0.05330693
77	0x3d95e9d4	0.0731999
78	0x3daedd55	0.085383095
79	0x3d8364fb	0.06415745
80	0xbd34b382	-0.044116504
81	0x3db87be1	0.09008003
82	0xbd2bcecc	-0.041945264
83	0x3c7b3306	0.015331989
84	0xbcf7e862	-0.030262176
85	0x3d6f1f32	0.05837936
86	0x3dc24d1a	0.09487362
87	0xbddc38b5	-0.107530035
88	0xbd772ba5	-0.060344357
89	0x3daad8bb	0.08342119
90	0x3dbd0593	0.09229579
91	0x3d5989db	0.053109985
92	0xbd4e450a	-0.05035881
93	0xbd862215	-0.065494694
94	0xbcd0da40	-0.025494695
95	0x3d5bf151	0.053696934
96	0xbd99e499	-0.07514305
97	0x3d12c307	0.035830524
98	0xbc48e9ed	-0.0122628035
99	0xbd89b40a	-0.06723793
100	0x3d6f74c7	0.058460977
101	0x3daed4bb	0.08536669
102	0xbc2dc89d	-0.010606912
103	0xbc2ddcc1	-0.010611714
104	0x3d5e410e	0.05426126
105	0xbcc7d66c	-0.024394237
106	0xbcea5708	-0.028605953
107	0xbda90fbb	-0.082549535
108	0xbd2108c7	-0.03931501
109	0x3c7ffb08	0.015623815
110	0x3c9f61f7	0.019455893
111	0xbd6e5dd8	-0.058194965
112	0x3dd8d7fb	0.1058807
113	0x3ce47f37	0.027892692
114	0xbd8e6aa1	-0.069539316
115	0xbc467f87	-0.012115366
116	0xbd333e34	-0.043760493
117	0x3dbc750b	0.09202012
118	0xbd0c1362	-0.034198172
119	0xbd69f69a	-0.057119943
120	0xbd240052	-0.040039368
121	0x3da62f48	0.08114487
122	0x3d4e959f	0.05043566
123	0xbd1fa84b	-0.038978856
124	0x3dbcdcc4	0.09221795
125	0xbda05c97	-0.0783016
126	0x3d1c4847	0.038154867
127	0x3d50e078	0.05099532
128	0xbd5dd939	-0.054162238
129	0xbd70c719	-0.058783624
130	0x3cb90c75	0.022588948
131	0xbd887923	-0.0666373
132	0xbc392515	-0.011300345
133	0x3d987406	0.07444005
134	0xbbc03919	-0.0058661816
135	0x3d303626	0.04302039
136	0x3d9d2fbb	0.076751195
137	0xbd0c7fb5	-0.03430148
138	0x3d71ccf7	0.05903336
139	0xbd75e6ce	-0.060034566
140	0xbd7d22d3	-0.06180079
141	0x3c032a47	0.008005685
142	0x3d85d679	0.06535048
143	0xbd99375c	-0.07481262
144	0xbd848553	-0.06470742
145	0xbad3c965	-0.0016158043
146	0xbd72e485	-0.059299964
147	0x3b7df7a4	0.0038752342
148	0x3d327522	0.043568738
149	0xbd6cb319	-0.05778799
150	0x3c46b756	0.012128672
151	0x3d65abec	0.05607216
152	0xbc05f0e3	-0.008175108
153	0xbdc138f0	-0.09434688
154	0x3d898267	0.067143254
155	0xbcf35f37	-0.029708488
156	0xbbca4186	-0.006172362
157	0x3d9cde8f	0.07659637
158	0xbb67ecdb	-0.003538898
159	0x3d92f9d1	0.07176555
160	0xbde39edf	-0.11114287
161	0xbdb3c0f3	-0.087770365
162	0x3dd10416	0.102058575
163	0x3c600a6a	0.013674358
164	0xbd2f1b55	-0.042750675
165	0x3db6d4a9	0.089272805
166	0xbd738e8a	-0.059462108
167	0xbc9b9029	-0.01898964
168	0x3db69a61	0.08916164
169	0xbdd7530e	-0.10513888
170	0x3dd15786	0.10221772
171	0xba1f78c3	-0.00060833636
172	0xbd5f9192	-0.054582186
173	0x3daf801d	0.085693575
174	0xbd09c2f3	-0.033633184
175	0xbd362094	-0.044464663
176	0xbd873e7f	-0.06603717
177	0x3c96cbdd	0.018407756
178	0xbda7c176	-0.081911966
179	0x3df1b82a	0.11802705
180	0xbd7f7f4c	-0.06237726
181	0xbd3be9ea	-0.045877375
182	0x3d36107f	0.044449326
183	0x3db4550d	0.08805285
184	0x3d57e397	0.05270728
185	0x3d8f1306	0.0698605
186	0xbd216053	-0.039398503
187	0xbd7ba01b	-0.061431985
188	0x3ceda5cc	0.029009722
189	0x3d5d84f2	0.054081865
190	0x3e07ba88	0.1325475
191	0x3cce8521	0.025209965
192	0x3d30f68f	0.043203887
193	0xbdb6653d	-0.089060284
194	0xbbfe4a7a	-0.007760343
195	0xbd7e62d0	-0.062105954
196	0xbd1116d0	-0.035422146
197	0xbd30bca8	-0.043148667
198	0xbdb68d87	-0.08913713
199	0xbd6de430	-0.058078945
200	0x3d281d7a	0.041043736
201	0x3cd8b68f	0.026454238
202	0xbd66d37f	-0.056354042
203	0xbd7395c5	-0.059469003
204	0xbc629202	-0.013828756
205	0x3cf84f1a	0.030311156
206	0xbcb31854	-0.021862186
207	0xbd255d7a	-0.04037235
208	0x3d9818d0	0.074266076
209	0x3db96468	0.09052354
210	0xbd8e5663	-0.06950071
211	0x3d8eeeaf	0.06979119
212	0xbaf0ee66	-0.0018381595
213	0xbd8dd4ff	-0.069253914
214	0xbd34852f	-0.044072326
215	0x3d816c8b	0.06319531
216	0x3d637e47	0.05554035
217	0x3db87014	0.09005752
218	0x3d246ea4	0.040144578
219	0xbc8752f4	-0.016519047
220	0x3d3a7855	0.045524914
221	0xbcd8534b	-0.026406905
222	0x3d9be97c	0.07612893
223	0x3d7c2f70	0.061568677
224	0x3dbcc78a	0.092177466
225	0x3dc4bb10	0.09605992
226	0x3d8837e0	0.06651282
227	0x3dbee7bc	0.093215436
228	0xbdb043f3	-0.0860671
229	0xbd31c596	-0.043401323
230	0x3daf76cb	0.0856758
231	0x3d1d5b37	0.038417067
232	0x3d375c04	0.044765487
233	0x3d9e1829	0.07719452
234	0x3d5ddfa7	0.05416837
235	0xbda1d510	-0.079019666
236	0xbcf223b3	-0.029558038
237	0x3c5078fc	0.012724157
238	0x3d52059b	0.051274877
239	0x3d11e64f	0.03562003
240	0xbd84a4f2	-0.06476773
241	0x3d8d53c0	0.0690074
242	0x3d8801e1	0.066409834
243	0x3db64928	0.08900672
244	0xbd733a3f	-0.05938172
245	0xbc4ae7e3	-0.012384388
246	0x3ba7e1d5	0.005123357
247	0x3cf69eb9	0.030104982
248	0x3bc022f0	0.00586354
249	0xbdb50db9	-0.08840508
250	0xba69e2c0	-0.0008922033
251	0x3dcd3e0c	0.100216
252	0xbd8d2ad4	-0.068929344
253	0xbd7a3b98	-0.06109199
254	0x3c95f3b8	0.01830469
255	0xbca10193	-0.019654071

masterCategory.bias f4 [6]
0	0x3d60cbc2	0.05488182
1	0x3d905393	0.070471905
2	0x3d50f9e8	0.05101958
3	0x3c69cd35	0.014270117
4	0xbd2c3a63	-0.04204787
5	0xbd814842	-0.0631261

subCategory.weight f4 [37, 128]
0	0xbd5166ce	-0.051123433
1	0xbe0d2007	-0.13781749
2	0xbd95d50b	-0.07316025
3	0x3c15e5b9	0.009149008
4	0x3bccca66	0.0062497137
5	0x3abf9e00	0.0014619231
6	0xbde846ef	-0.113416545
7	0x3ca14886	0.019687902
8	0x3d0b0765	0.0339426
9	0xbd257820	-0.040397763
10	0xbc71c774	-0.014757026
11	0xbca0863d	-0.01959526
12	0x3d343836	0.04399892
13	0xbbdd40cf	-0.0067521106
14	0x3c52c964	0.012865398
15	0xbc51c01b	-0.012802149
16	0xbc831a36	-0.01600371
17	0xbd07221d	-0.032991517
18	0xbbe0ec59	-0.0068641123
19	0x3ca0ca1b	0.019627621
20	0xbc9ad65c	-0.018901043
21	0xbe07dfa0	-0.132689
22	0xbda72003	-0.081604026
23	0xbd8a4b89	-0.067526884
24	0xbd3f06c6	-0.04663732
25	0xbaa26dcc	-0.0012392341
26	0x3cab1611	0.020884546
27	0xbd5ca6d2	-0.05387003
28	0x3cb42dea	0.02199455
29	0xbd38c524	-0.045109883
30	0xbdb848ec	-0.08998284
31	0xbcd604af	-0.02612528
32	0xbd52c605	-0.051458377
33	0x3c667670	0.014066324
34	0xbc0249af	-0.007952138
35	0xbd366fbb	-0.04454015
36	0x3d65d257	0.0561088
37	0xbafefa6e	-0.0019453296
38	0x3d8bc8c4	0.068254024
39	0xbdeadc98	-0.11467856
40	0xbd73cfd9	-0.05952439
41	0xbd3d3b51	-0.046199147
42	0xbc854b55	-0.016271273
43	0xbc22701f	-0.009914427
44	0x3d330b3d	0.04371189
45	0x3d97223c	0.073795766
46	0xbcdad456	-0.026712578
47	0xbd8f0175	-0.069827
48	0xbd5cc4e0	-0.053898692
49	0xba9d3ff3	-0.0011997208
50	0x3c15fc69	0.009154418
51	0x3c7823ab	0.015145223
52	0x3d639475	0.0555615
53	0xbda812c4	-0.08206704
54	0xbd830194	-0.063967854
55	0xbc1b5071	-0.009479628
56	0xbcf7e707	-0.03026153
57	0x3d2a6cf5	0.041607816
58	0xbd2d0692	-0.042242594
59	0xbc911929	-0.017712193
60	0xbe010af0	-0.12601829
61	0x3d145f80	0.03622389
62	0xbdda808e	-0.10669051
63	0x3d9da9bc	0.0769839
64	0x3cbcb159	0.023033785
65	0xbda96d1b	-0.08272763
66	0xbd1661d0	-0.036714375
67	0xbd9062cb	-0.07050093
68	0xbc949bcb	-0.018140694
69	0xbd80dbf6	-0.06291954
70	0xbdf4582a	-0.119308785
71	0xbd1b245b	-0.03787647
72	0xbd7b7b3d	-0.061396826
73	0xbbe7471c	-0.0070580374
74	0x3b1e49ca	0.0024152868
75	0xbd7f6a2f	-0.062357124
76	0xbdba1419	-0.090858646
77	0xbda8ed60	-0.08248401
78	0xbcd4fc97	-0.02599935
79	0x3c9ec9d9	0.019383358
80	0x3d202865	0.039101023
81	0xbddb3de9	-0.10705168
82	0x3d6f8b4a	0.058482446
83	0xbdd84edb	-0.105619155
84	0x3c14c5d2	0.009080367
85	0xbd151a68	-0.036402136
86	0xbd781bdb	-0.06057344
87	0xbddff3ec	-0.10935196
88	0x3d9f99d0	0.07793009
89	0xbd8fad7c	-0.070155114
90	0x3d5fc1e5	0.05462827
91	0xbd96c2e5	-0.07361392
92	0xbc886dac	-0.016653858
93	0xbd6c751e	-0.05772888
94	0xbd8d1200	-0.06888199
95	0xbdbae9d8	-0.091266334
96	0xbdcd4419	-0.10022754
97	0xbcd2575c	-0.025676422
98	0xbd9896dd	-0.0745065
99	0x3d4db228	0.05021873
100	0x3bcc384f	0.0062322984
101	0xbdccaff7	-0.099945
102	0x3d9c2227	0.076237015
103	0xbd66fbbd	-0.05639242
104	0xbdecaa02	-0.11555864
105	0xbd1a2325	-0.037631173
106	0xbd9bbd31	-0.07604445
107	0x3cf1ee01	0.029532434
108	0xbd84bf07	-0.06481748
109	0xbc95003c	-0.018188588
110	0xbc72d51a	-0.014821315
111	0xbd96c5ab	-0.07361921
112	0x3d0b5138	0.034013003
113	0x3d19b786	0.037528537
114	0x3d6323e8	0.055454165
115	0xbdda266f	-0.10651862
116	0x3d334511	0.04376704
117	0x3ce52b12	0.02797464
118	0xbcd929f3	-0.02650926
119	0xbd8b5c67	-0.06804734
120	0x3c08169f	0.008306175
121	0xbd9fa70a	-0.07795532
122	0x3d2e400c	0.04254155
123	0xbc903abb	-0.01760613
124	0xbd94efd7	-0.07272308
125	0xbd3499c1	-0.044091944
126	0xbd0ef934	-0.034905627
127	0xbd3181c5	-0.04333665
128	0x3ca40532	0.020022009
129	0x3d688af0	0.056773126
130	0xbb32d334	-0.0027286531
131	0xbda8636b	-0.082220875
132	0xbcea61fd	-0.028611178
133	0xbd929f0f	-0.07159244
134	0x3d81e048	0.063416064
135	0xbdaed5e5	-0.08536891
136	0xbd0a8c97	-0.033825483
137	0x3d9cdc85	0.07659248
138	0xbc81d9de	-0.015850957
139	0xbc92ea6c	-0.017934047
140	0x3d4d6871	0.05014843
141	0x3d6afb13	0.05736835
142	0x3c672ece	0.01411028
143	0x3ccf17e4	0.025279947
144	0x3ce6b5ea	0.028162915
145	0xbde11687	-0.10990625
146	0x3d8a452a	0.06751473
147	0xbdbaeaee	-0.091268405
148	0xbc126508	-0.008935221
149	0x3d280fc9	0.04103068
150	0x3d8174dc	0.06321117
151	0x3d818456	0.06324069
152	0xbdb3f8f7	-0.08787721
153	0xbc155515	-0.009114523
154	0xbc0c6f39	-0.008571439
155	0xbdcbd3bb	-0.09952494
156	0xbcfb7e61	-0.03069991
157	0x3d06d4c2	0.032917745
158	0xbde14c21	-0.110008486
159	0xbcfd397a	-0.030911196
160	0xbc6116b7	-0.013738326
161	0xbda683b8	-0.08130592
162	0xbcce6236	-0.025193315
163	0xbd8e86c6	-0.069593
164	0x3daf4e02	0.08559801
165	0xbd956012	-0.072937146
166	0xbc31a1d6	-0.010841807
167	0xbd26a5d6	-0.040685497
168	0x3d033f0b	0.032042544
169	0x3b1b8c67	0.002373481
170	0x3d8e4625	0.06946973
171	0xbda88b32	-0.082296744
172	0x3d27bf7b	0.040954094
173	0x3d7d08d1	0.061775986
174	0xbd28ff51	-0.041259114
175	0xbdb9ca1c	-0.090717524
176	0xbdb832b6	-0.08994047
177	0xbc04d33f	-0.008107006
178	0xbd67f2f2	-0.056628175
179	0xbdb5d6d5	-0.088788666
180	0x3d08308a	0.033249415
181	0x3d229432	0.03969211
182	0xbdb02be8	-0.086021245
183	0x3ccbf3c8	0.024896517
184	0x3d000a56	0.031259857
185	0xbd453714	-0.04814823
186	0x3d375553	0.044759106
187	0xbde794d5	-0.11307684
188	0xbd94c3f4	-0.072639376
189	0xbd3d6d27	-0.046246674
190	0x3d080589	0.033208404
191	0xbd07a647	-0.03311756
192	0x3b911255	0.004427234
193	0xbd52d98d	-0.051477004
194	0xbdb14254	-0.08655229
195	0xbc4bf452	-0.012448387
196	0x3d17427c	0.03692864
197	0xbd9ee0b7	-0.07757705
198	0xbd5b97c9	-0.05361155
199	0xbdafda0a	-0.085865095
200	0xbdc6d066	-0.097077176
201	0xbd8bd0a7	-0.06826907
202	0xbbb3b2a9	-0.0054839444
203	0xbd5be2a3	-0.053682934
204	0x3baa353f	0.0051943357
205	0x3c86a060	0.016433895
206	0xbd0945e2	-0.03351391
207	0x3d724a1f	0.05915272
208	0x3d52240c	0.05130391
209	0xbdb835da	-0.08994646
210	0xbd81a247	-0.0632978
211	0xbd272ff1	-0.040817205
212	0xbdb11af4	-0.08647719
213	0xbcd0ef1c	-0.025504641
214	0x3cc899a8	0.024487332
215	0x3d6c6e9a	0.057722665
216	0xbd21f97f	-0.03954458
217	0xbd5f142f	-0.054462608
218	0xbcda7ae5	-0.026669929
219	0x3d9e4500	0.077280045
220	0x3d1d6c28	0.038433224
221	0xbd6787a0	-0.056525826
222	0x3c6f9eec	0.014625292
223	0x3c162e66	0.009166336
224	0x3cf62b39	0.030049907
225	0x3d25ec98	0.040508837
226	0xbd02059c	-0.03174363
227	0x3cea6bf2	0.028615925
228	0x3bff4e71	0.0077913334
229	0xbda0d147	-0.078524165
230	0x3d9c86ed	0.076429226
231	0x3c87bd6a	0.016569812
232	0x3d80c6f5	0.06287948
233	0xba9d637b	-0.0012007797
234	0x3d816d6c	0.06319699
235	0xbd7529e5	-0.059854407
236	0x3d5b6b4f	0.053569134
237	0xbcc6b6aa	-0.024257023
238	0xba5049ea	-0.00079455844
239	0x3d3ef261	0.04661787
240	0xbd983b1a	-0.07433148
241	0xbd45c3c3	-0.048282396
242	0x3c512068	0.012764074
243	0x3c892078	0.016739115
244	0xbdc5ff31	-0.096678145
245	0x3cd8ecc3	0.026480084
246	0x3d632814	0.055458143
247	0x3cbb4c8c	0.022863649
248	0x3cbd97bf	0.023143647
249	0xbde45a64	-0.11150053
250	0xbd8b5098	-0.068024814
251	0x3cc148e0	0.02359432
252	0xbb30a70b	-0.0026955034
253	0x3d849b98	0.0647499
254	0xbd01f680	-0.03172922
255	0xbce63d5d	-0.028105432

subCategory.bias f4 [37]
0	0x3c9bd90b	0.019024393
1	0x3d949ac4	0.07256082
2	0x3db1822a	0.08667405
3	0x3c94d9d8	0.018170282
4	0xbd49a291	-0.0492273
5	0x3d3f6274	0.04672475
6	0x3c1b4a87	0.009478218
7	0xbdd7ec96	-0.10543172
8	0xbc798234	-0.015228797
9	0x3a9bc985	0.0011885619
10	0x3bd7d3df	0.0065865363
11	0xbdaf33ad	-0.08554778
12	0xbd5894ba	-0.05287621
13	0xbddc0a78	-0.10744184
14	0xbb5860ab	-0.0033016603
15	0x3d71515e	0.05891549
16	0x3c0dda63	0.0086580245
17	0x3d4334f4	0.047657922
18	0xbda52ab9	-0.08064789
19	0x3cfd3050	0.030906826
20	0xbd5076d5	-0.050894577
21	0xbd0f3cd8	-0.034970134
22	0xbbe6d324	-0.007044213
23	0x3d32f4e0	0.043690562
24	0x3cf5cc12	0.030004535
25	0xbc8811b4	-0.016610004
26	0xbd0c4130	-0.034241855
27	0xbd71aeb8	-0.059004515
28	0x3c5dd2f3	0.013539064
29	0xbd5609cf	-0.052255448
30	0xbd4ec290	-0.050478518
31	0xbcf2650e	-0.029589202
32	0xbde863ce	-0.11347161
33	0x3d4e4bf7	0.050365414
34	0x3d45648c	0.048191592
35	0xbb6f566b	-0.0036520015
36	0xbdc35110	-0.09536946

articleType.weight f4 [103, 128]
0	0x3d067f9b	0.032836538
1	0x3c075703	0.008260491
2	0xbde33bdd	-0.110954024
3	0xbd8003a3	-0.06250694
4	0x3d9a73dd	0.075416304
5	0xbd3124c8	-0.043247968
6	0x3d121b6c	0.035670683
7	0xbd955d3a	-0.07293172
8	0xbd361eb2	-0.044462867
9	0x3d8a552a	0.06754525
10	0xbd1077af	-0.03527039
11	0x3cc86a4b	0.024464747
12	0x3d4b2165	0.049592394
13	0xbdc178d8	-0.09446877
14	0x3d34ad2e	0.04411047
15	0x3d4c7cca	0.049923696
16	0x3d3500c1	0.044190172
17	0xbde95584	-0.11393264
18	0xbc6dee95	-0.014522214
19	0xbcd8e5dd	-0.026476795
20	0xbdbe97b6	-0.0930628
21	0xbc1e7e36	-0.009673646
22	0x3c36f115	0.011165877
23	0xbd6cc797	-0.05780753
24	0xbd864eef	-0.06558024
25	0xbc82f39f	-0.015985308
26	0x3cb4af19	0.02205615
27	0xbd842697	-0.06452673
28	0x3c4db4e2	0.012555333
29	0xbdb13760	-0.0865314
30	0xbc617946	-0.013761824
31	0xbc08b9e9	-0.008345106
32	0xbdc1f7ca	-0.0947109
33	0xbd1639fe	-0.0366764
34	0xbd514793	-0.05109365
35	0xbd6f8f02	-0.058485992
36	0xbcf849e1	-0.030308666
37	0x3c1d6c40	0.009608328
38	0xbd762102	-0.060090072
39	0xbd5a3950	-0.053277314
40	0x3d134900	0.03595829
41	0xbc7aecf1	-0.01531528
42	0xbd113d21	-0.035458688
43	0xbdf0d58e	-0.11759482
44	0xbc58a518	-0.013222955
45	0x3c954fb5	0.018226484
46	0xbddef4ba	-0.10886522
47	0xbdfddaef	-0.12395274
48	0x3c33ae31	0.010966823
49	0x3d3df18c	0.046372935
50	0x3d0ef5c9	0.034902368
51	0xbddb380f	-0.10704052
52	0xbd98cfe1	-0.07461525
53	0xbdfa2947	-0.12214904
54	0xbdf3d9a9	-0.1190675
55	0xbc3eb70f	-0.011640324
56	0xbd4332be	-0.047655813
57	0xbda9238e	-0.08258735
58	0xbdd15d87	-0.10222917
59	0xbc384800	-0.011247635
60	0x3b89f72e	0.0042103743
61	0xbd2ed284	-0.042681232
62	0xbc17756a	-0.009244302
63	0x3be18f80	0.0068835616
64	0xbb156a9f	-0.0022799147
65	0x3ca38773	0.019962048
66	0x3c494ddc	0.0122866295
67	0x3d176d36	0.036969386
68	0x3c8aaa05	0.016926775
69	0xbdc6a14c	-0.09698734
70	0xbd4b048d	-0.049564887
71	0xbdf816b2	-0.12113704
72	0x39075416	0.00012905928
73	0x3d09ecd1	0.03367311
74	0x3d78bfc0	0.060729742
75	0x3d16a7b5	0.03678103
76	0x3d2bebf7	0.04197308
77	0xbd177522	-0.03697694
78	0x3d0aaa92	0.033854075
79	0xbc3a4a89	-0.01137031
80	0xbcfb477e	-0.030673739
81	0xbc58f959	-0.013243043
82	0xbcd781be	-0.026306983
83	0xbddfa04d	-0.10919247
84	0xbd9c4dce	-0.076320276
85	0xbdccb73e	-0.09995888
86	0xbda76910	-0.08174336
87	0xbd0fec25	-0.035137314
88	0xbd85638c	-0.06513128
89	0xbd75b426	-0.059986256
90	0xbddfca10	-0.10927212
91	0x3c992b1c	0.018697314
92	0x3bce2a55	0.0062916675
93	0xbe0210d9	-0.1270174
94	0xbd3a9598	-0.04555282
95	0xbde69019	-0.11257953
96	0xbdb2d94b	-0.087328516
97	0x3d51b488	0.05119756
98	0xbddbff6a	-0.10742076
99	0xbda5ec73	-0.0810174
100	0xbca60cee	-0.020269837
101	0xbdd2861a	-0.10279484
102	0xbdbef946	-0.09324889
103	0xbe039c03	-0.12852482
104	0x3cbfb324	0.02340085
105	0x3d2e47c0	0.042548895
106	0xbd260c22	-0.040538915
107	0xbce29fa7	-0.027664019
108	0xbddaf018	-0.106903255
109	0x3d136d4d	0.03599291
110	0xbd49af39	-0.04923937
111	0xbd0f4131	-0.03497428
112	0x3d491b32	0.0490982
113	0xbdcda0bd	-0.10040424
114	0xbc06be1b	-0.008224036
115	0xbcb4e915	-0.022083798
116	0xbd7f5fad	-0.062347103
117	0xbd0d3508	-0.034474403
118	0xbdca8b32	-0.09889831
119	0x3b5a2bdb	0.00332903
120	0x3c894c61	0.016760053
121	0xbdc63fcd	-0.09680138
122	0xbbec7a3d	-0.0072167204
123	0xbda8508c	-0.08218488
124	0xbda4ff87	-0.080565505
125	0x3c0c208a	0.00855268
126	0x3c94c471	0.018160077
127	0x3c8d83e4	0.017274804
128	0xbdf7d1e9	-0.12100584
129	0xbd8994d5	-0.067178406
130	0x3cc61589	0.02418019
131	0xbda9779d	-0.082747675
132	0xbcd1e335	-0.025621036
133	0x3d789320	0.060687184
134	0xbdd8fec0	-0.10595465
135	0xbdac69d0	-0.0841862
136	0xbc4ecdb3	-0.012622285
137	0xbd335cde	-0.043789737
138	0x3c4a455b	0.012345637
139	0xbd8fa7f1	-0.07014454
140	0xbd032169	-0.032014284
141	0xbd0bac86	-0.034100078
142	0xbcd476bc	-0.025935523
143	0xbccfa588	-0.025347486
144	0xbd7f621a	-0.062349416
145	0xbda002c5	-0.07813028
146	0xbd8f486d	-0.06996236
147	0xbc70894e	-0.0146811735
148	0xbdba5074	-0.090973765
149	0xbdb0a023	-0.08624294
150	0x3cb955a8	0.022623852
151	0x3c563d83	0.013076189
152	0x3b4f3251	0.0031615684
153	0xbc60a9b5	-0.013712336
154	0xbd8b1adc	-0.067922324
155	0xbe0339bd	-0.12814994
156	0x3cfcf2eb	0.030877551
157	0xbdb3abb5	-0.08772985
158	0x3c494c35	0.012286236
159	0x3b8d580c	0.0043134745
160	0xbc36eea8	-0.0111652985
161	0xbc96471a	-0.01834445
162	0xbd9beefb	-0.07613941
163	0xbcfd5869	-0.030925946
164	0x3ca1e52c	0.019762598
165	0xbcaf480b	-0.021396657
166	0x3ce164d7	0.027513904
167	0xbd794638	-0.06085798
168	0xbd08a84e	-0.033363633
169	0x3c2bd301	0.010487319
170	0xbd3b2ab4	-0.04569502
171	0xbdf439af	-0.11925065
172	0xbd989428	-0.074501336
173	0x3d224818	0.039619535
174	0xbb2e463e	-0.002659216
175	0x3c8b7eca	0.017028231
176	0xbc556218	-0.013023876
177	0xbc84f69b	-0.016230872
178	0xbdc042e8	-0.09387761
179	0xbc5b5c72	-0.01338874
180	0xbd8750de	-0.06607221
181	0xbc9280aa	-0.017883617
182	0x398cd007	0.00026857873
183	0xbd0623fa	-0.032749154
184	0x3d0cf35d	0.034411777
185	0xbd7d6ff1	-0.061874334
186	0xbd2c7c68	-0.04211083
187	0x3cd44646	0.025912415
188	0xbdb1d06e	-0.08682333
189	0xbb6969f8	-0.003561614
190	0xbdb46b01	-0.08809472
191	0x3b487a7e	0.003059059
192	0x3ca9e7f5	0.020740489
193	0xbd94e8dc	-0.07270977
194	0xbdb89b57	-0.09014004
195	0x3d13894c	0.03601961
196	0xbdc336c0	-0.09531927
197	0xbd85793e	-0.06517266
198	0xbd677ec3	-0.056517374
199	0xbdcccc5c	-0.09999916
200	0x3c7196f4	0.014745463
201	0xbd05bab3	-0.032648753
202	0x3d2efdaa	0.04272238
203	0x3d81d7a5	0.06339959
204	0x3c81a913	0.015827691
205	0xbdf2955d	-0.11844895
206	0x3c5b09f2	0.01336907
207	0x3d8e148b	0.06937512
208	0x3da7bb7f	0.08190059
209	0xbda76cb9	-0.08175034
210	0xbc6349ff	-0.0138726225
211	0xbd831e9f	-0.06402325
212	0xbdd5078c	-0.1040183
213	0xbd74665b	-0.059667926
214	0x3d5b6825	0.053566117
215	0xbce20167	-0.02758856
216	0xbab78746	-0.0014002107
217	0x3ca5d66e	0.02024385
218	0xbdda81f4	-0.10669318
219	0x3ce8ae52	0.028403435
220	0xbdd78739	-0.105238385
221	0xbda68681	-0.08131123
222	0x3c6822a6	0.014168417
223	0xbdb59546	-0.08866362
224	0xbd1814bc	-0.03712915
225	0x3d50ea9d	0.051004995
226	0xbd832e60	-0.0640533
227	0x3cd4e011	0.02598575
228	0xbddcc8ef	-0.107805125
229	0xbd244232	-0.04010219
230	0x3c421a10	0.011847034
231	0xbd349d87	-0.044095542
232	0xbdb465f0	-0.088085055
233	0xbdcce730	-0.10005033
234	0xbd6d534c	-0.057940766
235	0x3baf7f70	0.005355768
236	0xbd43d711	-0.047812525
237	0xbcf40c14	-0.029790916
238	0xbd945f7d	-0.072447754
239	0x3be9005f	0.00711064
240	0xbc516096	-0.012779376
241	0xbce8bf6c	-0.02841159
242	0x3d010a96	0.031504236
243	0xbc7d8c90	-0.015475407
244	0xbde58817	-0.11207598
245	0xbda9f47d	-0.082985856
246	0xbd629c4b	-0.055324834
247	0xbb986b4e	-0.0046514636
248	0xbd305927	-0.043053772
249	0xbcfcd174	-0.030861594
250	0xbd24b738	-0.040213794
251	0xbdc7fb11	-0.09764684
252	0xbdedcc1a	-0.11611195
253	0x3d0d30fa	0.034470536
254	0xbb807454	-0.0039201174
255	0x3d8b2583	0.06794264

articleType.bias f4 [103]
0	0xbd66aaf5	-0.05631538
1	0xbd5dfa9b	-0.054194074
2	0xbd667610	-0.056264937
3	0xbd4477df	-0.04796588
4	0xbb94721e	-0.0045302054
5	0xbc99c08c	-0.018768571
6	0xbd395a92	-0.04525239
7	0xbdb32273	-0.08746805
8	0x3cf08e99	0.02936487
9	0xbd08871d	-0.03333198
10	0x3d6ee6b5	0.058325488
11	0xbd8e8bdc	-0.0696027
12	0x3bbceae4	0.005765306
13	0xbdee12f3	-0.11624708
14	0x3cfd5b5e	0.030927356
15	0xbcd37453	-0.025812304
16	0xbdae4585	-0.085093535
17	0x3d83d9d1	0.064380296
18	0xbc35cb98	-0.011095904
19	0xbde9cb13	-0.114156865
20	0x3d41cb9d	0.04731332
21	0x3ceca528	0.028887346
22	0xbd0292ac	-0.03187816
23	0xbce7e5a7	-0.028307749
24	0x3cb8d130	0.022560686
25	0x3cdfe844	0.027332433
26	0x3b7ab262	0.0038253297
27	0x3d605cc9	0.054775987
28	0xbdee6e9c	-0.11642191
29	0x3be8501a	0.007089627
30	0x3d78bd27	0.060727265
31	0xbd3d4720	-0.04621041
32	0x3ae8c589	0.0017759065
33	0xbdbabce2	-0.09118058
34	0xbd5dac7f	-0.054119583
35	0xbd97cf7c	-0.074126214
36	0xbd1e0c89	-0.038586173
37	0xbc9b2e0b	-0.018942853
38	0x3a0404fe	0.0005036144
39	0xbd4ee916	-0.050515257
40	0x3c3eb4a2	0.011639746
41	0x3d5b78f1	0.053582136
42	0x3d917d66	0.07103996
43	0x3ca7b94c	0.020474099
44	0xbb989d19	-0.0046573994
45	0x3bb7440f	0.00559283
46	0xbd23a7fc	-0.039955124
47	0xbcd5e777	-0.026111348
48	0xbd11e0d7	-0.035614815
49	0xbdb5a73e	-0.088697895
50	0x3cf9cc8c	0.030493043
51	0xbdb5e525	-0.088815965
52	0xbd50f89c	-0.051018342
53	0x3c3dae0d	0.0115771415
54	0x3daa21cc	0.083072275
55	0xbdcf162b	-0.1011165
56	0x3cc06e4d	0.023490096
57	0xbdc8ee4c	-0.098110765
58	0xbd25c34d	-0.040469456
59	0xbcc8baa1	-0.024503054
60	0xbccdb84b	-0.025112292
61	0xbd9e3957	-0.077257805
62	0xbd370fc5	-0.044692773
63	0x3d81edaa	0.06344159
64	0xbd8c28bd	-0.06843708
65	0xbb9bbadf	-0.0047525014
66	0x3d302c6e	0.04301112
67	0x3c6e5324	0.014546189
68	0x3d68b035	0.05680867
69	0xbc89a283	-0.016801124
70	0xbda1a924	-0.07893589
71	0xbd436182	-0.047700413
72	0x3c916e25	0.017752716
73	0xbda4197e	-0.08012675
74	0xbd878dc2	-0.06618835
75	0x3c127405	0.008938794
76	0xbd70c4c1	-0.05878139
77	0xbd385292	-0.04500062
78	0x3d2070c0	0.039170027
79	0x3cf311a5	0.0296715
80	0x3da9adf8	0.08285135
81	0xbdda900d	-0.10672007
82	0xbdba58a1	-0.09098936
83	0xbd989430	-0.074501395
84	0xbd3d1f46	-0.046172403
85	0xbd2769a9	-0.04087225
86	0xbcb8de04	-0.022566803
87	0xbd83c9c5	-0.06434969
88	0xbc965868	-0.018352702
89	0xbd893357	-0.066992454
90	0xbd6e5920	-0.058190465
91	0x3d9f1731	0.07768095
92	0x3cd4a33c	0.025956742
93	0xbd72f67a	-0.05931709
94	0xbd7d4c1f	-0.061840173
95	0xbdc1c920	-0.0946219
96	0x3d9e84aa	0.077401474
97	0xbd02d3c6	-0.031940244
98	0x3d1ea4c4	0.03873135
99	0x3d81f258	0.063450515
100	0x3d756d9a	0.059918977
101	0xbd44988f	-0.047997054
102	0xbc0b9c64	-0.008521173
