data/models/fashion/smallmodel/1/checkpoint_epoch_20.pt (torch, 768191 bytes, 16 tensors)

linear1.weight f4 [256, 512]
0.060168166 -0.07009022 0.018949326 -0.031395044 0.10126271 -0.07853205 0.03606772 0.012831041
-0.024875576 0.020950114 0.049443923 -0.059287004 0.035235036 -0.08991394 -0.010707066 0.00921579
-0.001735435 0.0071514742 -0.0129544595 -0.032791734 0.031962972 -0.016191183 -0.026572207 0.020347849
0.01270215 -0.04355328 -0.03230502 -0.034966797 -0.00369367 0.013306149 -0.056944564 -0.056507424
-0.039661184 -0.086719245 -0.08550816 0.016344026 -0.0424803 -0.004423385 0.004954089 0.009687637
0.044196673 -0.0471577 0.080125056 -0.021779848 0.020539949 -0.011121587 0.016590128 -0.023528902
-0.08965387 0.0011530499 0.0594332 0.028985364 -0.015558088 -0.040002808 0.026954036 0.01608834
0.02927486 0.020931333 0.038935576 -0.01629242 -0.002777735 0.0019504821 0.022152146 -0.030050185
-0.025851693 -0.022098629 0.038505398 -0.021855056 0.06518949 0.017838337 0.017981904 -0.03523644
0.0091285305 -0.06046621 0.09619337 0.037678294 -0.02040048 -0.049118754 0.071640894 -0.0069041336
0.026821833 -0.033668675 0.018770956 0.0060790656 -0.022430528 0.012604944 0.084479816 -0.0327583
-0.017121559 0.049966052 0.033338565 -0.034363877 -0.016870996 0.04125968 0.06077318 0.024463052
0.0057096533 -0.05015735 0.017942797 -0.009067779 0.09328642 0.057632968 -0.021804772 -0.010707689
-0.026858453 -0.04272424 -0.03526504 -0.0006257779 0.07421488 -0.07210643 0.059850395 -0.013662596
0.10739861 0.0261666 0.06926433 -0.051358502 -0.0041396203 -0.07402879 -0.007844328 0.006932747
-0.050680712 -0.0006264235 0.03255626 -0.07002904 0.022538908 0.03585 -0.012230263 0.0012430059
0.03290037 0.031485375 -0.0006457554 -0.05992043 0.0052160844 0.0020154866 0.0031083045 0.07924656
-0.054249596 -0.03667168 -0.0074892566 -0.050369047 -0.020168584 0.019431835 0.025245748 -0.0019487469
0.04082603 0.002775763 -0.00663348 -0.012677621 -0.0074902573 0.110484056 -0.08868465 0.023688983
-0.031462282 0.021873035 0.11289505 0.0061675785 -0.015732253 -0.041494343 -0.07428778 -0.047533043
-0.014664045 0.030230848 -0.042037535 0.06997005 0.0804722 0.029433336 0.008733484 0.044012763
-0.033330426 0.040289816 0.044645675 0.034216326 -0.11859205 0.02098148 -0.044586167 -0.0206304
-0.025620792 0.08025909 -6.69368e-05 0.021771682 -0.00925034 -0.01531523 0.043806307 0.10718448
0.04267674 -0.021587253 0.0015031238 0.045570552 0.024561394 -0.04022798 -0.0013403767 0.009672328
0.057497647 -0.01123904 -0.008300707 -0.042938035 -0.0024584883 -0.055914167 0.003471647 -0.016802493
0.024703624 -0.0054937536 0.026221251 -0.0371234 -0.006981253 -0.11082 -0.029791648 0.01738151
-0.071143165 0.08762639 0.021179942 -0.04095413 0.017545108 -0.07139864 0.03910558 0.001512394
-0.029493617 -0.039294787 -0.042765457 -0.067239776 -0.05424574 -0.078626096 0.035181243 -0.0018715196
-0.010906417 0.026958598 -0.007938895 -0.04785803 -0.04974963 0.078697 0.050881974 0.022689799
0.034249503 -0.005575433 -0.030492553 -0.049081113 0.0087449 -0.0052571 -0.05015654 0.03575234
0.034760546 0.0074486826 -0.033386223 -0.00430668 0.014357559 -0.009277886 0.052235547 -0.038908005
-0.078892544 0.0013243087 -0.018036915 -0.03141181 -0.012125303 0.013359392 -0.02160021 0.0074876063
00000000: e572 763d 768b 8fbd 9e3b 9b3c 1798 00bd
00000010: d362 cf3d 69d5 a0bd bfbb 133d 4939 523c
00000020: ddc7 cbbc 939f ab3c b685 4a3d eed6 72bd
00000030: 9d52 103d cd24 b8bd b16c 2fbc d3fd 163c
00000040: 8977 e3ba ea56 ea3b f13e 54bc a050 06bd
00000050: 9beb 023d 5fa3 84bc f5ad d9bc 88b0 a63c
00000060: ae1c 503c ed64 32bd 4552 04bd 5839 0fbd
00000070: 8011 72bb 0902 5a3c b43e 69bd 5474 67bd
00000080: c473 22bd dc99 b1bd e71e afbd e8e3 853c
00000090: d3ff 2dbd 0bf2 90bb e955 a23b e5b8 1e3c
000000a0: 9207 353d 6f28 41bd 9b18 a43d a76b b2bc
000000b0: 6543 a83c 5137 36bc 05e8 873c afbf c0bc
000000c0: 739c b7bd ef21 973a 3a70 733d b772 ed3c
000000d0: 5ae7 7ebc fcd9 23bd b6ce dc3c b2cb 833c
000000e0: d5d1 ef3c 3078 ab3c e97a 1f3d ae77 85bc
000000f0: a90a 36bb 52a7 ff3a 6b78 b53c ce2b f6bc
00000100: eec6 d3bc 2f08 b5bc d6b7 1d3d 6009 b3bc
00000110: 1182 853d b421 923c c94e 933c 1654 10bd
00000120: d58f 153c 6bab 77bd 0801 c53d 8e54 1a3d
00000130: e81e a7bc bf30 49bd 76b8 923d 123c e2bb
00000140: 76b9 db3c 2ae8 09bd 8cc5 993c e632 c73b
00000150: 3ac0 b7bc f884 4e3c c103 ad3d 912d 06bd
00000160: 8342 8cbc 34a9 4c3d 058e 083d 23c1 0cbd
00000170: 0b35 8abc e9ff 283d 4ced 783d bd66 c83c
00000180: 0b18 bb3b cb71 4dbd c6fc 923c 0691 14bc
00000190: f30c bf3d 8c10 6c3d ec9f b2bc 4e6f 2fbc
000001a0: 4206 dcbc 9dff 2ebd 1372 10bd 3e0b 24ba
000001b0: f9fd 973d 89ac 93bd b025 753d 15d9 5fbc
000001c0: cdf3 db3d 565b d63c 75da 8d3d 4b5d 52bd
000001d0: a7a5 87bb 689c 97bd 7f85 00bc 192c e33b
000001e0: 9496 4fbd 9236 24ba b659 053d 636b 8fbd
000001f0: 84a3 b83c 73d7 123d 7161 48bc 5bec a23a
00000200: 8ac2 063d cff6 003d e947 29ba 206f 75bd
00000210: b0eb aa3b 4116 043b b2b4 4b3b 054c a23d
00000220: d334 5ebd 0b35 16bd 7068 f5bb c64f 4ebd
00000230: 9638 a5bc 832f 9f3c 2cd0 ce3c 186d ffba
00000240: 3239 273d 93e9 353b aa5d d9bb ccb5 4fbc
00000250: d570 f5bb 7745 e23d 4ca0 b5bd 660f c23c
00000260: 98de 00bd 142f b33c 8535 e73d 6619 ca3b
00000270: ede0 80bc f9f5 29bd 3124 98bd 02b2 42bd
00000280: 7641 70bc afa6 f73c 8d2f 2cbd 754c 8f3d
00000290: 9cce a43d 2e1e f13c e316 0f3c ba46 343d
000002a0: 7c85 08bd ef06 253d 62de 363d 6b26 0c3d
000002b0: 64e0 f2bd 5ae1 ab3c fc9f 36bd 1601 a9bc
000002c0: b2e2 d1bc e15e a43d 6c60 8cb8 875a b23c
000002d0: bd8e 17bc bbec 7abc 3e6e 333d 8983 db3d
000002e0: cecd 2e3d c0d7 b0bc 7704 c53a 30a8 3a3d
000002f0: fa34 c93c 18c6 24bd 94af afba af78 1e3c
00000300: a782 6b3d f323 38bc b0ff 07bc cbdf 2fbd
00000310: 971e 21bb 4106 65bd 9284 633b 62a5 89bc
00000320: 415f ca3c f204 b4bb f3cd d63c b50e 18bd
00000330: ffc2 e4bb 99f5 e2bd 9d0d f4bc ab63 8e3c
00000340: 82b3 91bd 7775 b33d 8f81 ad3c 85bf 27bd
00000350: c2ba 8f3c 7339 92bd 2c2d 203d 863b c63a
00000360: 999c f1bc 92f3 20bd d52a 2fbd 02b5 89bd
00000370: c830 5ebd b806 a1bd 351a 103d c74d f5ba
00000380: d4b0 32bc 47d8 dc3c 2412 02bc c806 44bd
00000390: 45c6 4bbd e52b a13d 9e69 503d f5df b93c
000003a0: 3549 0c3d 1fb2 b6bb 85cb f9bc 4709 49bd
000003b0: c546 0f3c c043 acbb f270 4dbd 0c71 123d
000003c0: 1361 0e3d 1414 f43b febf 08bd 0d1f 8dbb
000003d0: f83b 6b3c 4602 18bc f1f4 553d 005e 1fbd
000003e0: 6a92 a1bd 6d94 ad3a 27c2 93bc aca9 00bd
000003f0: 35a9 46bc 5ae1 5a3c ecf2 b0bc 985a f53b

linear2.weight f4 [128, 256]
0.08137513 -0.02723077 0.06962378 -0.065727465 -0.053508613 -0.019308599 0.050426934 0.041184038
0.05154393 -0.067437485 0.04715587 0.14360845 -0.0971228 0.040273983 -0.030583644 0.05251266
0.02404588 0.0041878438 0.046607833 0.022949448 0.11267778 -0.005369112 0.056580767 0.0025825908
-0.0074301427 -0.048025098 0.002284745 -0.06280348 0.075414225 0.034877453 -0.016260905 0.042299375
-0.021593241 0.045673434 -0.04849971 0.028487608 -0.033709865 -0.0521084 0.03749791 0.08810838
0.025679838 0.069120206 -0.0339477 0.040810905 0.05715293 -0.103942156 0.04312457 0.054953016
0.0005356893 0.014631486 -0.02508842 -0.08121928 -0.0029317418 0.017743913 0.07314223 -0.023138043
-0.05545051 -0.06410695 0.06565171 0.043831352 0.05178579 -0.017247787 0.025089972 0.009313308
0.09946102 -0.07868625 0.07884898 -0.035088435 -0.011954973 0.03220678 -0.0009684121 0.009996896
0.056743823 0.040753707 0.014854749 0.014479883 -0.038702957 -0.08860184 -0.024552954 0.023844969
-0.0042916415 -0.046911042 -0.024916409 0.082345076 -0.029539613 -0.01893527 -0.0069626006 0.06132576
0.01088009 -0.08524211 0.014634526 0.021605311 0.081847474 -0.08518326 0.014415962 0.02481513
-0.034318652 -0.0025003369 -0.0330173 0.044549316 -0.0040647723 0.08170472 -0.07019336 -0.049431086
-0.04209646 0.056930073 0.06963905 0.044066876 -0.017684225 0.09979809 0.123502284 -0.04374044
0.008664495 0.04669803 0.01589469 -0.030920617 -0.05468586 0.01174829 -0.023372745 0.013679281
0.011047802 0.03525613 -0.07954239 -0.009921656 -0.016152503 -0.024971643 -0.06672641 -0.049786795
0.0081549175 0.07681139 -0.05600115 0.047870055 -0.02294905 0.021294167 -0.017092828 0.05179259
0.016182134 0.0218998 0.03791414 -0.032459833 -0.04002857 0.049444746 -0.056274176 0.012928141
-0.050134096 0.061193183 0.042277362 -0.07198785 0.0040172413 0.05914545 -0.025684614 -0.06544774
-0.0012050587 0.07895789 0.073870525 0.08846213 -0.0142953405 -0.049783368 -0.0028757995 -0.049476646
-0.039297387 0.031329382 -0.010919316 0.016606636 -0.012113851 -0.014399972 0.025124272 0.065564565
-0.025852198 0.059517827 -0.0346806 -0.032039806 -0.037192468 -0.0055928016 -0.06253837 0.0753232
0.013252709 0.108295165 0.073171996 0.025786389 -0.014055064 0.04885782 0.12196094 0.079470694
0.058728598 -0.06717181 0.043252345 0.055027846 0.06853666 0.0421359 -0.090229005 -0.0066959537
0.06861398 0.03204461 0.04359905 0.015765924 0.055618055 -0.010323301 -0.005635684 -0.015027882
-0.035801083 0.04861697 -0.039285645 -0.0057541803 -0.10854395 0.075548135 0.047619034 0.0042279586
0.022316473 0.05651748 0.013033255 0.016318465 0.030761987 -0.014305179 0.055847142 0.016778382
-0.01742288 0.039617278 -0.016731925 -0.0077986834 0.037549254 -0.056281608 0.055039108 0.022770213
-0.059480052 0.08371405 -0.007552521 0.025938073 -0.10927723 -0.014459345 0.053418797 0.012819432
0.009382348 0.08421228 0.06734754 -0.040189333 0.06412292 0.042013858 0.023959834 -0.079483055
0.0025186378 0.113110475 0.077128634 -0.04788233 0.10378379 0.049669195 0.045342438 0.11752323
0.031173348 -0.020776812 -0.051398546 -0.07226849 -0.04502392 0.04140097 0.053615723 -0.062238466
00000000: 01a8 a63d 1013 dfbc ea96 8e3d 1f9c 86bd
00000010: d92b 5bbd 112d 9ebc 798c 4e3d 98b0 283d
00000020: ba1f 533d aa1c 8abd 8326 413d 180e 133e
00000030: 52e8 c6bd 55f6 243d 8d8a fabc 8417 573d
00000040: defb c43c 2e3a 893b dbe7 3e3d 7b00 bc3c
00000050: 9cc3 e63d 60ef afbb 3cc1 673d af40 293b
00000060: 8e78 f3bb f7b5 44bd a9bb 153b 1c9f 80bd
00000070: c672 9a3d a9db 0e3d 9735 85bc 1c42 2d3d
00000080: 4fe4 b0bc 1114 3b3d a2a7 46bd d85e e93c
00000090: 5b13 0abd 9e6f 55bd 6997 193d 2b72 b43d
000000a0: 865e d23c e58e 8d3d be0c 0bbd 5629 273d
000000b0: 3119 6a3d a0df d4bd 64a3 303d 6a16 613d
000000c0: 806d 0c3a e6b8 6f3c 3b86 cdbc 4b56 a6bd
000000d0: 7722 40bb af5b 913c 98cb 953d fe8b bdbc
000000e0: 1320 63bd 814a 83bd 6774 863d 8188 333d
000000f0: 561d 543d 3b4b 8dbc 7c89 cd3c d896 183c
00000100: 38b2 cb3d 4226 a1bd 937b a13d e4b8 0fbd
00000110: cbde 43bc 42eb 033d 09dd 7dba 05ca 233c
00000120: 366c 683d 5ced 263d 5561 733c 083d 6d3c
00000130: fe86 1ebd e274 b5bd 4723 c9bc 8656 c33c
00000140: e6a0 8cbb cb25 40bd 7f1d ccbc 89a4 a83d
00000150: 0ffd f1bc 241e 9bbc 8726 e4bb b830 7b3d
00000160: 6842 323c 6a93 aebd a7c5 6f3c 9ffd b03c
00000170: a69f a73d 9074 aebd ed30 6c3c 1949 cb3c
00000180: b791 0cbd b1dc 23bb 263d 07bd 5879 363d
00000190: c831 85bb ce54 a73d 89c1 8fbd 4078 4abd
000001a0: 566d 2cbd 822f 693d eb9e 8e3d 787f 343d
000001b0: 82de 90bc f162 cc3d c4ee fc3d 2d29 33bd
000001c0: 87f5 0d3c 6f46 3f3d 9535 823c 3c4d fdbc
000001d0: 48fe 5fbd e67b 403c 3378 bfbc 101f 603c
000001e0: d701 353c bb68 103d 1fe7 a2bd 718e 22bc
000001f0: 4152 84bc 5591 ccbc dba7 88bd 3ded 4bbd
00000200: 349c 053c 4a4f 9d3d 7661 65bd 6413 443d
00000210: a5ff bbbc 1b71 ae3c 4206 8cbc 7824 543d
00000220: 6590 843c 3667 b33c db4b 1b3d 9af4 04bd
00000230: fff4 23bd 9386 4a3d c07f 66bd 8ed0 533c
00000240: 6959 4dbd b4a5 7a3d 072b 2d3d 5e6e 93bd
00000250: 10a3 833b 8042 723d 8a68 d2bc 7709 86bd
00000260: 0ff3 9dba adb4 a13d 6e49 973d a22b b53d
00000270: 0137 6abc a5e9 4bbd e977 3cbb 06a8 4abd
00000280: 4cf6 20bd 3d53 003d eee6 32bc a40a 883c
00000290: 2c79 46bc dced 6bbc 6bd1 cd3c b746 863d
000002a0: fdc7 d3bc f7c8 733d 3f0d 0ebd 2c3c 03bd
000002b0: 2157 18bd d243 b7bb 1e14 80bd 0d43 9a3d
000002c0: e421 593c dbc9 dd3d 33db 953d fa3d d33c
000002d0: 3647 66bc 231f 483d a8c6 f93d 88c1 a23d
000002e0: 668d 703d 6091 89bd 5f29 313d e164 613d
000002f0: f35c 8c3d b296 2c3d fcc9 b8bd bb69 dbbb
00000300: 7d85 8c3d 3541 033d eb94 323d 8a27 813c
00000310: c2cf 633d 1023 29bc 8bab b8bb 8137 76bc
00000320: 28a4 12bd 9722 473d fce9 20bd 908d bcbb
00000330: 4a4c debd fbb8 9a3d 2d0c 433d b08a 8a3b
00000340: 09d1 b63c e07e 673d 6f89 553c 4dae 853c
00000350: 9000 fc3c 4560 6abc f9bf 643d d172 893c
00000360: 6dba 8ebc ba45 223d 6411 89bc 198c ffbb
00000370: 3fcd 193d 8b87 66bd b070 613d 9988 ba3c
00000380: 5ba1 73bd 4672 ab3d 237b f7bb 157c d43c
00000390: becc dfbd e3e6 6cbc abcd 5a3d 9808 523c
000003a0: 6bb8 193c 7d77 ac3d 82ed 893d 929d 24bd
000003b0: e152 833d b916 2c3d 6a47 c43c 03c8 a2bd
000003c0: bb0f 253b 77a6 e73d 9ef5 9d3d 4320 44bd
000003d0: 988c d43d ed71 4b3d feb8 393d 05b0 f03d
000003e0: 405f ff3c 2234 aabc 4887 52bd 8101 94bd
000003f0: 006b 38bd 1094 293d 299c 5b3d c3ed 7ebd

gender.weight f4 [5, 128]
-0.078247614 0.05761922 -0.029579181 0.095793806 -0.030866314 0.014948278 0.06976771 -0.07715981
-0.05875188 -0.020568406 0.0139230145 -0.039790742 0.051111273 -0.08763097 -0.06686906 -0.018493079
0.080658205 -0.06140168 0.041643865 0.015801223 -0.024060117 -0.008661928 0.06498787 0.012757028
-0.01724727 -0.10311493 0.0456287 0.005111649 -0.023714475 -0.024041276 -0.019993141 0.026336618
0.05876367 0.08738514 0.09125339 0.06416844 -0.021933597 -0.00038445115 0.058073144 0.044959873
0.05953218 -0.05769285 -0.102556586 0.05518705 -0.07341048 0.026291063 -0.07769322 -0.022755867
-0.00022971073 -0.04471753 0.018505748 -0.13813272 -0.058217663 -0.0524379 -0.009567544 -0.03611368
-0.08502999 0.005197126 -0.015691096 0.072066955 -0.06530954 0.07606732 0.0721766 -0.09967783
-0.076317 -0.08217668 0.01598547 0.002635267 -0.04194461 -0.023454724 -0.07375639 -0.06968113
0.0102210855 -0.020512043 0.024737097 -0.03141384 0.057883658 0.008195085 0.081565246 -0.003784405
-0.019270085 -0.002127979 -0.016052425 -0.022718474 -0.08261163 -0.06858584 -0.09942564 0.08029903
0.03934295 -0.00018640335 -0.054614756 -0.07756363 0.02323916 -0.057354484 -0.04656882 0.034031462
-0.065476045 -0.06556068 -0.06895764 -0.056291156 -0.050733283 -0.07594613 0.060034197 -0.11924684
-0.108536705 -0.018443517 0.0089583555 0.023776082 -0.043401446 0.04776017 0.06792584 0.022228602
0.08989015 -0.056251455 -0.020171393 -0.06963816 -0.0059065116 0.020878324 -0.051028438 -0.056446463
-0.029999614 -0.041185297 -0.04607817 -0.062366396 0.028323539 -0.04773093 0.07951379 -0.06784739
0.07758765 0.017040975 0.01696616 -0.06996627 -0.049294937 -0.05131456 0.0009001268 0.020637976
0.04243158 0.08817482 0.042114083 -0.00878118 0.03020364 0.008209032 -0.05408865 -0.06851194
-0.0018436209 0.018976005 -0.024900045 -0.029388895 -0.10244617 -0.061826732 0.04665638 -0.014188352
-0.042687796 -0.07777734 0.03758747 -0.08652363 0.03558652 -0.07065294 -0.06306286 -0.017808918
0.050865125 -0.07316255 -0.050271567 0.046284813 -0.11526076 0.037051618 0.038206007 -0.021112079
0.0025276819 -0.077132076 0.08947269 -0.058547605 0.034251988 0.0025411989 -0.049302865 -0.07660376
-0.095376454 0.027294777 0.02865904 -0.10591134 -0.041741032 -0.0006678313 -0.055629466 -0.016364304
0.03939734 -0.055621296 -0.06625702 0.081368044 -0.08657419 0.0015926914 -0.041694127 -0.004292487
-0.05114024 0.02189578 -0.04607915 -0.0399051 -0.050229233 0.03947776 -0.0052750288 0.10297721
0.041423246 0.010398242 0.008724894 -0.05815618 0.03225423 -0.0020043897 -0.07626147 -0.02764354
0.06298317 -0.06882929 -0.052010674 0.023060473 -0.06796951 0.012814424 -0.08921569 0.0104784975
0.028208084 -0.01965577 0.029196527 0.028689312 0.0022647185 0.009039808 0.038346544 0.024305008
-0.0009432858 -0.01425338 0.077454485 0.015553506 0.070077814 -0.095164485 -0.058448546 -0.12803236
0.008224448 0.074132465 0.061575186 -0.06281381 0.060407177 -0.15831041 -0.08970086 0.036019452
0.059624054 0.024773164 -0.025214039 -0.05227648 -0.098437704 0.038285352 -0.03485077 0.07653801
-0.020238597 0.019963745 0.03434746 -0.011196409 -0.0073912917 -0.092804104 -0.010365302 -0.0481539
00000000: 4940 a0bd 2202 6c3d 0a50 f2bc 8b2f c43d
00000010: 5adb fcbc 9fe9 743c 60e2 8e3d f605 9ebd
00000020: d0a5 70bd 137f a8bc 5b1d 643c 9efb 22bd
00000030: 0e5a 513d de77 b3bd a5f2 88bd cc7e 97bc
00000040: 2130 a53d 5480 7bbd c292 2a3d 9171 813c
00000050: b919 c5bc c2ea 0dbc 5c18 853d db02 513c
00000060: 264a 8dbc ec2d d3bd 29e5 3a3d 9f7f a73b
00000070: dc44 c2bc 36f2 c4bc a8c8 a3bc e4bf d73c
00000080: 2db2 703d fbf6 b23d 0fe3 ba3d be6a 833d
00000090: 16ae b3bc 2990 c9b9 1bde 6d3d d827 383d
000000a0: 04d8 733d 564f 6cbd 3009 d2bd d10b 623d
000000b0: 3c58 96bd 5b60 d73c 9f1d 9fbd 836a babc
000000c0: 81de 70b9 bb29 37bd 5e99 973c aa72 0dbe
000000d0: a575 6ebd 20c9 56bd 30c1 1cbc f0eb 13bd
000000e0: 3424 aebd a74c aa3b 9d8a 80bc d797 933d
000000f0: 02c1 85bd 2fc9 9b3d 53d1 933d e423 ccbd
00000100: 164c 9cbd 3f4c a8bd f6f3 823c 72b4 2c3b
00000110: 1dce 2bbd 1f24 c0bc 970d 97bd fbb4 8ebd
00000120: 5776 273c df08 a8bc 74a5 ca3c ccab 00bd
00000130: 6a17 6d3d ae44 063c ae0b a73d c803 78bb
00000140: 4cdc 9dbc 9075 0bbb 6080 83bc 181c babc
00000150: 4930 a9bd bc76 8cbd ac9f cbbd d173 a43d
00000160: 1326 213d 4575 43b9 b9b3 5fbd aed9 9ebd
00000170: 0d60 be3c 89ec 6abd f2be 3ebd 9364 0b3d
00000180: 4e18 86bd ae44 86bd aa39 8dbd 8e91 66bd
00000190: b4cd 4fbd a589 9bbd 6be6 753d b037 f4bd
000001a0: 7e48 debd dc16 97bc 11c6 123c 0fc6 c23c
000001b0: b7c5 31bd 2ba0 433d b41c 8b3d c218 b63c
000001c0: 5418 b83d ed67 66bd 7a3e a5bc 749e 8ebd
000001d0: 698b c1bb 0509 ab3c 3203 51bd 6834 67bd
000001e0: c0c1 f5bc eab1 28bd 77bc 3cbd e873 7fbd
000001f0: c406 e83c 8281 43bd 20d8 a23d 93f3 8abd
00000200: 46e6 9e3d 8499 8b3c 9efc 8a3c 7a4a 8fbd
00000210: 7de9 49bd 372f 52bd 7df6 6b3a f910 a93c
00000220: bdcc 2d3d 0095 b43d d17f 2c3d f0de 0fbc
00000230: a06d f73c 2d7f 063c 0f8c 5dbd fd4f 8cbd
00000240: a7a5 f1ba 9173 9b3c 2efb cbbc fbc0 f0bc
00000250: 4ccf d1bd 073e 7dbd c31a 3f3d 4376 68bc
00000260: 66d9 2ebd ba49 9fbd 52f5 193d 4d33 b1bd
00000270: 2cc3 113d 7db2 90bd 1a27 81bd 02e4 91bc
00000280: f357 503d 3fd6 95bd 8fe9 4dbd 2595 3d3d
00000290: d50d ecbd 70c3 173d e77d 1c3d 3df3 acbc
000002a0: 77a7 253b 6cf7 9dbd 753d b73d 9dcf 6fbd
000002b0: d04b 0c3d 3e8a 263b cdf1 49bd 6fe2 9cbd
000002c0: bb54 c3bd 4c99 df3c 5dc6 ea3c 0be8 d8bd
000002d0: a5f8 2abd 6611 2fba b9db 63bd 6f0e 86bc
000002e0: 1b5f 213d 28d3 63bd c3b1 87bd 4aa4 a63d
000002f0: cf4d b1bd dbc1 d03a 76c7 2abd fea7 8cbb
00000300: 6e78 51bd c75e b33c 7ebd 3cbd 8873 23bd
00000310: 2bbd 4dbd 6fb3 213d 26da acbb b7e5 d23d
00000320: 6cab 293d 635d 2a3c dcf2 0e3c 2d35 6ebd
00000330: 031d 043d 145c 03bb f92e 9cbd b574 e2bc
00000340: 52fd 803d 5ff6 8cbd 2509 55bd 51e9 bc3c
00000350: 9933 8bbd 97f3 513c b7b6 b6bd 01ae 2b3c
00000360: a414 e73c 2305 a1bc 8e2d ef3c d905 eb3c
00000370: ac6b 143b b41b 143c 4411 1d3d 4c1b c73c
00000380: d746 77ba 0287 69bc 75a0 9e3d 22d4 7e3c
00000390: f584 8f3d 99e5 c2bd be67 6fbd ea1a 03be
000003a0: d6bf 063c c3d2 973d 4336 7c3d 87a4 80bd
000003b0: 846d 773d 201c 22be 16b5 b7bd 2289 133d
000003c0: 5a38 743d 17f1 ca3c ac8d cebc dd1f 56bd
000003d0: b599 c9bd 1ad1 1c3d aebf 0ebd f6bf 9c3d
000003e0: 6acb a5bc 028b a33c ecaf 0c3d 2571 37bc
000003f0: a632 f2bb 1410 bebd 3ad3 29bc 063d 45bd

gender.bias f4 [5]
0.004220793 0.010821862 0.005850953 0.022076212 0.027460111
00000000: 944e 8a3b 2e4e 313c 5ab9 bf3b 2cd9 b43c
00000010: 07f4 e03c

masterCategory.weight f4 [6, 128]
0.058258895 0.04550532 -0.09881214 0.045989268 -0.100530185 0.004231562 0.003980091 0.09766793
0.10873117 -0.048733894 -0.049411498 0.00606483 0.018962003 0.0023398227 -0.018819228 -0.05607161
0.018837268 0.06979967 0.10903245 -0.08306051 0.044299096 0.07155675 -0.03677221 -0.038594574
0.021304537 0.11763905 0.05576632 0.032817297 -0.014956435 -0.0033464853 -0.05473252 -0.080214165
-0.0111435745 0.070733644 0.073877126 0.0039390936 -0.053488288 0.12419018 -0.009976669 0.012693029
-0.071041435 -0.0076917843 -0.10182987 0.04651644 0.115197554 -0.07400802 0.06869418 -0.08118665
-0.026948424 0.002298368 0.07939656 -0.06441405 0.008160666 -0.057858452 -0.056754585 0.054031722
0.009107468 0.0045189545 0.1001705 -0.06450611 -0.007136535 -0.047060065 0.07435893 -0.0026027658
0.056090374 0.08297752 -0.03481635 0.010599868 -0.01563936 -0.04744275 0.04953032 -0.06513796
-0.04782746 -0.000654571 -0.029563801 -0.038998924 0.041037433 -0.077732146 0.004284114 -0.06985673
0.027960569 0.12926611 0.077069715 0.031498387 -0.036209695 0.068231784 -0.039611224 -0.0117776245
-0.017146945 -0.045875657 0.13080812 0.0051777735 0.011658435 -0.043869827 0.042101994 0.016783847
0.044099025 0.07156534 -0.09537521 0.06204415 -0.06579008 -0.040947493 0.07908303 0.04569687
0.09504308 -0.04880783 0.08009653 -0.04656811 0.1079747 0.08833823 0.00946455 0.09292067
-0.0054186857 -0.020407114 0.12309266 0.06539246 -0.047356192 0.08882266 -0.020468637 0.032423384
0.028694412 0.093106054 -0.04962405 -0.03217991 -0.06645031 -0.032470413 0.022602433 -0.029946169
-0.014223044 -0.051493704 0.119809896 0.092055075 -0.0042209164 -0.029601913 0.025378754 -0.0021714475
0.04662596 0.043602385 -0.06475976 -0.07432213 0.122697435 -0.073589385 0.10275316 -0.011513407
-0.041528948 0.006541023 -0.06405981 0.047246072 -0.039129123 0.07620332 0.026020283 -0.024519255
0.057703003 -0.06618073 0.12924844 0.08137893 -0.09601677 -0.016090633 0.100381814 0.042398423
0.040372938 -0.10150636 -0.026440237 -0.058464043 0.012740607 -0.020023013 -0.022333803 0.10290944
0.0064524626 -0.074828036 0.03166784 0.05641959 -0.01373161 0.07982184 -0.112664394 0.07976563
0.049104337 0.02730633 0.02615207 -0.048239958 -0.16555835 0.09096032 -0.043606173 -0.014347946
-0.009858942 -0.009867947 -0.049922127 0.016780457 -0.024269128 -0.08054519 0.0022799382 -0.0736968
-0.010252985 -0.03895019 -0.03133289 -0.047427494 -0.09976445 -0.06824635 0.0026866938 -0.026456827
0.05269375 -0.056611203 0.08978995 -0.13518743 -0.10370768 0.053994182 0.08364242 -0.010574352
-0.03805412 -0.068044744 0.076871745 0.010797773 0.00010508339 0.010006105 -0.07385851 0.098821916
0.096998505 -0.06985972 0.090707175 -0.053990524 0.006700025 0.050850566 0.07219015 -0.0966477
-0.024258263 -0.14109762 0.044653267 0.034711298 0.010271078 0.026381258 -0.027289804 -0.021189038
-0.026927577 0.07200619 -0.0034547918 0.10099259 -0.10501755 -0.0061803134 0.05205476 -0.021663114
0.11583614 0.031084852 0.08771549 -0.077886924 -0.057459474 0.0993186 0.111192234 0.030408451
0.05533964 -0.06583591 0.07794816 0.08359608 -0.0010797881 0.09074609 -0.0567883 -0.12504515
00000000: e1a0 6e3d c963 3a3d 055e cabd 3e5f 3c3d
00000010: c5e2 cdbd eaa8 8a3b 6c6b 823b 2006 c83d
00000020: 73ae de3d 319d 47bd b663 4abd 7bbb c63b
00000030: 3456 9b3c b657 193b c82a 9abc 58ab 65bd
00000040: 9d50 9a3c 21f3 8e3d 684c df3d a11b aabd
00000050: f872 353d 588c 923d 759e 16bd 5815 1ebd
00000060: da86 ae3c beec f03d 3a6b 643d 6e6b 063d
00000070: d60b 75bc b550 5bbb 352f 60bd 5347 a4bd
00000080: 8a93 36bc cddc 903d e44c 973d 8313 813b
00000090: 8916 5bbd 6c57 fe3d 2f75 23bc 6cf6 4f3c
000000a0: 2c7e 91bd 5d0b fcbb 2e8c d0bd 0688 3e3d
000000b0: b2ec eb3d 8491 97bd 89af 8c3d 3045 a6bd
000000c0: f1c2 dcbc 37a0 163b aa9a a23d 83eb 83bd
000000d0: 50b4 053c fcfc 6cbd 7f77 68bd 5e50 5d3d
000000e0: 7d37 153c bd13 943b 3126 cd3d c81b 84bd
000000f0: 98d9 e9bb 0ec2 40bd 7f49 983d 2a93 2abb
00000100: 05bf 653d 1ef0 a93d 979b 0ebd 12ab 2d3c
00000110: 1d1e 80bc 5453 42bd 4ee0 4a3d 0d67 85bd
00000120: bae6 43bd 8497 2bba c92f f2bc 56bd 1fbd
00000130: de16 283d 0832 9fbd c161 8c3b 0c11 8fbd
00000140: 900d e53c 565e 043e bad6 9d3d 7404 013d
00000150: 9e50 14bd 1bbd 8b3d 613f 22bd f0f6 40bc
00000160: c077 8cbc 1de8 3bbd 90f2 053e 50aa a93b
00000170: 0503 3f3c d9b0 33bd 2473 2c3d 477e 893c
00000180: 2ea1 343d d990 923d 1454 c3bd 0222 7e3d
00000190: f3bc 86bd 8fb8 27bd 49f6 a13d a42c 3b3d
000001a0: f2a5 c23d b8ea 47bd a609 a43d 34be 3ebd
000001b0: d721 dd3d adea b43d 3311 1b3c 314d be3d
000001c0: 3b8f b1bb d22c a7bc 0118 fc3d 7bec 853d
000001d0: 91f8 41bd a8e8 b53d d8ad a7bc 62ce 043d
000001e0: 8b10 eb3c 63ae be3d 9642 4bbd 15cf 03bd
000001f0: 1a17 88bd b2ff 04bd bd28 b93c ab51 f5bc
00000200: c507 69bc 10eb 52bd e45e f53d 5f87 bc3d
00000210: 9d4f 8abb b67f f2bc 1be7 cf3c d84e 0ebb
00000220: ddfa 3e3d 6a98 323d c4a0 84bd 3336 98bd
00000230: cb48 fb3d 08b6 96bd 4070 d23d bba2 3cbc
00000240: 421a 2abd 1456 d63b ca31 83bd 1985 413d
00000250: dc45 20bd 7c10 9c3d 7d28 d53c 9bdc c8bc
00000260: fc59 6c3d c389 87bd b459 043e ffa9 a63d
00000270: 71a4 c4bd 81d0 83bc fb94 cd3d f8a9 2d3d
00000280: 185e 253d 91e2 cfbd 3299 d8bc fe77 6fbd
00000290: fbbd 503c 4d07 a4bc 61f5 b6bc 2fc2 d23d
000002a0: 2e6f d33b 713f 99bd 23b6 013d 3a18 673d
000002b0: 8cfa 60bc a279 a33d 97bc e6bd 2a5c a33d
000002c0: a121 493d 86b1 df3c de3c d63c 4397 45bd
000002d0: 2188 29be 6749 ba3d 639c 32bd a613 6bbc
000002e0: 6687 21bc 2bad 21bc 257b 4cbd 2b77 893c
000002f0: 0dd0 c6bc e0f4 a4bd 046b 153b 59ee 96bd
00000300: 23fc 27bc 3c8a 1fbd eb56 00bd 5543 42bd
00000310: 4e51 ccbd bec4 8bbd 3e13 303b fdbb d8bc
00000320: 67d5 573d 26e1 67bd cbe3 b73d 936e 0abe
00000330: b164 d4bd 0129 5d3d b84c ab3d 0c40 2dbc
00000340: a3de 1bbd 0b5b 8bbd ef6e 9d3d 24e9 303c
00000350: 3760 dc38 a5f0 233c 2143 97bd 2563 ca3d
00000360: 27a7 c63d 9d12 8fbd afc4 b93d 2b25 5dbd
00000370: e28b db3b af48 503d 6ed8 933d 3bef c5bd
00000380: 44b9 c6bc e57b 10be 58e6 363d 6f2d 0e3d
00000390: 0648 283c 821d d83c de8e dfbc a294 adbc
000003a0: 3997 dcbc fb77 933d ca69 62bb 34d5 ce3d
000003b0: 7113 d7bd 3a84 cabb 5f37 553d d876 b1bc
000003c0: 803b ed3d a9a5 fe3c 2ea4 b33d 2e83 9fbd
000003d0: a05a 6bbd 8d67 cb3d c1b8 e33d 251b f93c
000003e0: d1ab 623d fad4 86bd 49a3 9f3d 6c34 ab3d
000003f0: ad87 8dba 16d9 b93d d99a 68bd d60b 00be

masterCategory.bias f4 [6]
-0.064647675 0.064282626 -0.024974177 -0.07445695 -0.010736705 -0.052297533
00000000: 0066 84bd 9ca6 833d a596 ccbc e37c 98bd
00000010: 01e9 2fbc f035 56bd

subCategory.weight f4 [37, 128]
-0.016608803 0.048342034 -0.12400154 -0.050651398 0.040093776 0.017741324 -0.05576363 -0.13086647
-0.037231553 -0.1081711 -0.017851198 -0.03641145 -0.049092554 0.01744073 0.017720142 0.048645657
0.09392729 0.044209123 -0.066712216 -0.09294831 -0.08506697 -0.085103706 0.07979626 0.008046684
-0.032846436 0.0027481865 -0.047548838 -0.04131097 -0.05981299 -0.09599928 0.0066766413 0.06049861
0.038600724 0.0001689931 0.05992603 0.0700761 0.048890356 0.0072234734 -0.05061473 0.053159174
0.08700774 -0.07394746 -0.105736464 -0.105734795 0.03428936 0.013076623 -0.01704634 0.05878645
0.005935678 -0.025242502 0.03132036 -0.08857878 -0.021221127 0.06659726 -0.091370605 -0.09683162
0.0669094 -0.12201511 0.018045211 0.0885795 -0.06266367 -0.09830665 0.0734996 -0.021825336
-0.03753321 0.018192394 0.068728864 0.00235752 -0.01930651 0.035674546 -0.060089655 -0.14066668
0.0073556644 -0.0059359036 -0.104870446 -0.08858907 -0.0066506774 0.023799894 -0.017396452 -0.05199671
-0.012019184 -0.071607545 0.06885823 -0.06128286 0.027064383 0.012807129 0.03494113 -0.038574763
-0.09599979 -0.060374193 -0.060201343 -0.016683608 -0.063396804 -0.04878261 0.059946053 -0.051235437
0.028635293 0.096057445 0.046236563 0.0883536 -0.09024892 -0.08980952 0.07720407 -0.111966014
0.004143692 -0.017766306 0.06467173 -0.11612678 -0.01296079 0.0020873218 -0.0803441 -0.043530036
-0.076286316 -0.08553749 0.06986666 -0.07025793 0.009002167 -0.18494904 0.021624774 -0.013921318
0.08966352 -0.017952975 -0.030558556 -0.13395682 -0.10943943 -0.04792088 -0.036224782 0.091649726
0.07632841 0.0594709 -0.040676177 -0.024844853 -0.014826046 -0.09261239 -0.09096465 0.0026758984
-0.07684391 -0.011245084 -0.06543442 -0.10944415 -0.06888027 -0.087760665 0.009080639 0.0060038273
0.019690458 -0.031870205 0.057054695 0.023783173 -0.014209789 0.031196797 -0.0054254574 -0.056054015
0.09119214 -0.17486745 0.026918897 -0.0920305 -0.088196 -0.0059250044 -0.008485791 -0.16331589
0.036979593 -0.13482596 -0.13906077 0.034069274 -0.08971927 -0.116401576 -0.054868065 -0.053587336
0.045189492 0.052915778 0.071351066 -0.033156592 0.05200726 -0.049978904 -0.08363695 0.06561176
0.023672137 0.023832316 0.041098457 -0.13346687 -0.07270783 -0.0037898973 0.014700454 -0.0041092513
-0.07718509 0.0499143 -0.09724963 -0.02832043 0.013217415 -0.000918839 -0.03419276 0.059913054
0.011990145 -0.04849771 -0.0049072956 -0.07931889 0.012213603 -0.041710258 -0.0067070983 0.065370426
0.0037066047 0.015065875 -0.066700056 -0.098720476 0.0030042108 -0.08477986 0.02337362 -0.04433539
0.049344953 0.030683035 -0.037236873 0.010555408 0.0002556455 -0.08347235 -0.017578807 -0.06453927
-0.016437165 0.0323839 0.017607108 -0.015172561 0.0064368425 0.045785684 0.058623817 -0.008047553
0.021105425 -0.11409282 0.042558264 0.0561991 -0.008898162 -0.024904734 -0.035740938 -0.03572767
0.04674734 -0.050435957 -0.021848189 0.08265547 0.023926508 -0.005663429 0.0022756301 0.062264364
0.084115416 -0.050062947 0.028758476 -0.08614877 -0.09720873 0.043814186 -0.06327065 0.09193844
-0.026982779 0.028864682 0.046316467 0.07373497 0.07325811 0.054304454 -0.12804721 -0.122047976
00000000: 2f0f 88bc 4c02 463d 85f4 fdbd d777 4fbd
00000010: 5f39 243d 4156 913c 6768 64bd dc01 06be
00000020: 1d80 18bd cf88 ddbd ad3c 92bc 2c24 15bd
00000030: 4615 49bd dddf 8e3c d529 913c ab40 473d
00000040: f35c c03d a014 353d 6aa0 88bd af5b bebd
00000050: 9737 aebd da4a aebd 396c a33d 3dd6 033c
00000060: fc89 06bd eb1a 343b 92c2 42bd b135 29bd
00000070: 77fe 74bd 459b c4bd bac7 da3b 64cd 773d
00000080: cb1b 1e3d bd33 3139 ff74 753d 0f84 8f3d
00000090: 4141 483d e3b2 ec3b 6451 4fbd 6fbd 593d
000000a0: 1d31 b23d c471 97bd 5c8c d8bd 7c8b d8bd
000000b0: 0073 0c3d 553f 563c c4a4 8bbc 10ca 703d
000000c0: 1380 c23b 5dc9 cebc c749 003d cb68 b5bd
000000d0: eed7 adbc 2564 883d 8320 bbbd a84f c6bd
000000e0: cc07 893d 0fe3 f9bd 8dd3 933c 2b69 b53d
000000f0: cf55 80bd ff54 c9bd f586 963d 0ccb b2bc
00000100: 6cbc 19bd 3708 953c b8c1 8c3d 9f80 1a3b
00000110: b028 9ebc 791f 123d 9220 76bd ed0a 10be
00000120: c907 f13b f881 c2bb 51c6 d6bd 306e b5bd
00000130: eded d9bb fff7 c23c 0183 8ebc 81fa 54bd
00000140: 1dec 44bc faa6 92bd 8b05 8d3d bc03 7bbd
00000150: 20b6 dd3c fed4 513c 6e1e 0f3d 9200 1ebd
00000160: 8a9b c4bd ee4a 77bd af95 76bd 10ac 88bc
00000170: 2fd6 81bd 46d0 47bd fe89 753d 40dc 51bd
00000180: 9094 ea3c c4b9 c43d 8d62 3d3d bbf2 b43d
00000190: 6dd4 b8bd 0eee b7bd 2b1d 9e3d 704e e5bd
000001a0: cfc7 873b a58a 91bc 9d72 843d e1d3 edbd
000001b0: 7e59 54bc 73cb 083b 738b a4bd 8d4c 32bd
000001c0: 003c 9cbd 482e afbd 4016 8f3d 64e3 8fbd
000001d0: d37d 133c 4863 3dbe 7026 b13c 3d16 64bc
000001e0: 82a1 b73d 1e12 93bc f055 fabc fa2b 09be
000001f0: c821 e0bd af48 44bd 7060 14bd dab2 bb3d
00000200: 1252 9c3d c297 733d 109c 26bd 6f87 cbbc
00000210: f2e8 72bc 91ab bdbd ad4b babd 205e 2f3b
00000220: 5760 9dbd 4d3d 38bc 7b02 86bd 4124 e0bd
00000230: 1911 8dbd ddbb b3bd f6c6 143c c1bb c43b
00000240: e24d a13c 558a 02bd 2fb2 693d eed4 c23c
00000250: 2dd0 68bc 6d90 ff3c 09c8 b1bb e598 65bd
00000260: f2c2 ba3d 7410 33be 0585 dc3c 7d7a bcbd
00000270: 1ba0 b4bd 8a26 c2bb fd07 0bbc 483c 27be
00000280: ea77 173d d10f 0abe f265 0ebe 398c 0b3d
00000290: bdbe b7bd f363 eebd 56bd 60bd 657e 5bbd
000002a0: 9e18 393d 37be 583d 8220 923d 35cf 07bd
000002b0: 9105 553d aeb6 4cbd d949 abbd 755f 863d
000002c0: 12ec c13c fd3b c33c db56 283d 8aab 08be
000002d0: d8e7 94bd ed5f 78bb 2cda 703c e6a6 86bb
000002e0: 3713 9ebd f072 4c3d d02a c7bd 3f00 e8bc
000002f0: db8d 583c 3ede 70ba b50d 0cbd 6467 753d
00000300: 5072 443c 89a5 46bd 61cd a0bb f171 a2bd
00000310: 901b 483c 60d8 2abd 38c7 dbbb eee0 853d
00000320: 82ea 723b dcd6 763c 0a9a 88bd f62d cabd
00000330: 4be2 443b 10a1 adbd 097a bf3c 0799 35bd
00000340: ef1d 4a3d fd5a fb3c b185 18bd 97f0 2c3c
00000350: 2808 8639 8df3 aabd 6e01 90bc 2a2d 84bd
00000360: 3ca7 86bc fba4 043d c83c 903c 5596 78bc
00000370: 26ec d23b c589 3b3d 871f 703d e2d9 03bc
00000380: 49e5 ac3c 7fa9 e9bd 9351 2e3d 0731 663d
00000390: 99c9 11bc 0305 ccbc 1765 12bd 2d57 12bd
000003a0: 247a 3f3d ef95 4ebd f9fa b2bc 4547 a93d
000003b0: 8601 c43c 4994 b9bb bd22 153b eb08 7f3d
000003c0: b444 ac3d ce0e 4dbd e596 eb3c c46e b0bd
000003d0: 5f15 c7bd 8176 333d 0b94 81bd 394a bc3d
000003e0: fd0a ddbc a075 ec3c 56b6 3d3d 5c02 973d
000003f0: 5908 963d 596e 5e3d cf1e 03be 4af4 f9bd

subCategory.bias f4 [37]
0.022891637 0.025713287 -0.033428438 -0.05617748 -0.013526096 0.03532528 -0.07001874 0.044956855
0.06602448 0.042141516 0.082186416 0.0079072025 -0.013608881 -0.051169895 0.0050451504 0.0036679038
0.009400236 0.042847954 0.04507418 -0.015463576 -0.0255879 0.04098179 0.028437512 -0.01912545
-0.049466398 -0.028701343 -0.010392524 0.00047546855 0.055571984 0.012510638 -0.05360093 -0.07539646
-0.02140059 0.06634445 -0.051565573 0.08720383 0.029168671
00000000: 3e87 bb3c aca4 d23c 42ec 08bd 5b1a 66bd
00000010: 8f9c 5dbc 3eb1 103d fc65 8fbd ae24 383d
00000020: d837 873d 959c 2c3d 5a51 a83d 368d 013c
00000030: c9f7 5ebc 8697 51bd ca51 a53b 3761 703b
00000040: 7303 1a3c 5681 2f3d b49f 383d f05a 7dbc
00000050: b79d d1bc 85dc 273d c9f5 e83c faac 9cbc
00000060: 479d 4abd 141f ebbc 6845 2abc 4f48 f939
00000070: 739f 633d 6bf9 4c3c a68c 5bbd 7669 9abd
00000080: 4a50 afbc 99df 873d 6c36 53bd ec97 b23d
00000090: 23f3 ee3c

articleType.weight f4 [103, 128]
-0.07949404 0.018472137 -0.12798628 -0.08946989 -0.053450245 -0.047872055 -0.029863046 -0.12569001
0.08981439 -0.096708775 0.079142496 0.08125876 -0.056592356 0.033073384 -0.02648117 -0.07656348
0.06924743 -0.023845764 -0.012080802 -0.10621399 -0.07591843 -0.0012591043 -0.050494093 -0.05131984
0.018015884 -0.021392746 0.0754931 -0.024440931 -0.08625281 -0.060190238 -0.09010613 0.11757818
0.039776567 -0.08067285 -0.04962735 0.0768388 0.040284894 0.08906024 -0.009953747 0.061282337
-0.039088845 -0.0228361 0.0035284432 -0.011534845 0.011927973 -0.12547298 -0.020193676 0.04005984
-0.07835428 -0.070212714 -0.059571378 -0.025178626 -0.03975019 -0.048751086 -0.03027224 -0.16116992
-0.016698956 -0.113708235 -0.00477887 0.019227931 -0.029028483 -0.0017276166 0.056683976 0.07717246
-0.023731036 0.053200025 -0.0014409947 0.10121394 -0.06685642 0.099640615 0.024049345 -0.14026622
-0.14204626 -0.019228064 -0.10532285 -0.07234241 -0.03361227 0.003959379 0.03524071 -0.021165472
0.043840226 -0.026091103 0.049084596 0.0059648613 0.008920847 0.102878824 0.00853671 0.05865584
-0.13364759 0.05621947 -0.07890962 -0.08335541 0.0062312805 0.058344472 0.008627143 0.068436705
0.0012262593 -0.0443838 -0.012138132 -0.046253208 -0.121358454 -0.033706207 0.1169503 -0.0048943716
0.028287573 -0.039976653 0.06669701 -0.14316057 0.007830409 0.058089238 -0.029773217 -0.04225515
-0.014647027 0.017810479 0.036593128 -0.0557802 0.07764076 -0.15364248 -0.005724009 0.055429045
-0.07875151 -0.037940238 -0.083681315 -0.14873894 -0.0386759 -0.115240306 -0.030102761 -0.002238988
-0.11098273 -0.07179142 -0.014838523 -0.031002793 -0.047937095 -0.091091596 -0.06186534 0.03941698
-0.102729306 -0.14642546 -0.06639456 -0.052875247 -0.13984932 0.00957431 -0.085374236 -0.044471014
-0.0050753164 -0.03900613 -0.13122143 0.04382919 -0.020165995 -0.030314619 -0.09658133 -0.06100042
-0.03252881 -0.0113321375 -0.056294303 -0.096889324 -0.051631402 0.050663255 -0.076411545 -0.07356842
0.031392734 0.04210682 -0.10746856 0.039456163 -0.0860893 0.0015933253 -0.09052367 -0.011308776
-0.006756557 -0.04351355 0.05266504 -0.026567025 -0.064240456 -0.110532664 -0.056249574 0.042308927
-0.015747838 0.0006296788 0.0127927335 0.009811186 -0.03983901 -0.12470145 -0.066595934 -0.024969852
-0.04433366 0.005436267 -0.020734947 -0.05884534 -0.122222394 0.02307303 0.0020031277 -0.100538075
-0.015562435 -0.11667426 -0.047983244 -0.068036474 -0.12921306 -0.022546813 0.020286875 -0.04037493
-0.046938553 0.017596636 -0.108634636 -0.0723794 -0.0761057 -0.06483796 -0.044893235 0.013127701
0.00087876216 -0.041819934 0.0041750423 0.033102315 -0.033025365 0.022694994 -0.12535445 -0.06635632
-0.09268095 -0.059605435 -0.01740449 -0.05919524 -0.030243762 -0.062117945 -0.08117479 -0.121265255
-0.047362436 -0.12235214 -0.06735473 -0.07351047 0.013088458 -0.103983834 -0.0049655326 -0.049659308
-0.12114685 -0.1272946 -0.014706294 0.029998101 0.017007878 -0.12314346 0.036875382 -0.099367954
-0.06271447 -0.026768953 -0.013312228 -0.10790855 -0.044774786 -0.07012254 0.0061788466 -0.018129528
-0.005499747 0.017744793 -0.112325825 -0.0020587784 -0.0758583 -0.1037526 -0.051393718 -0.094724916
00000000: c5cd a2bd e152 973c d60e 03be fd3b b7bd
00000010: a5ee 5abd 7d15 44bd 59a3 f4bc e2b4 00be
00000020: 9bf0 b73d 400f c6bd 7615 a23d fe6a a63d
00000030: 63cd 67bd f577 073d 0aef d8bc 50cd 9cbd
00000040: 99d1 8d3d 3158 c3bc 8eee 45bc b886 d9bd
00000050: 1f7b 9bbd 8808 a5ba e5d2 4ebd c134 52bd
00000060: 0c96 933c d73f afbc 209c 9a3d 5938 c8bc
00000070: 50a5 b0bd 0a8a 76bd 9089 b8bd d4cc f03d
00000080: c1ec 223d cf37 a5bd 0c46 4bbd a95d 9d3d
00000090: c601 253d 3765 b63d 0a15 23bc 3003 7b3d
000000a0: a01b 20bd c612 bbbc 743d 673b a6fc 3cbc
000000b0: 8b6d 433c fd7b 00be 356d a5bc c915 243d
000000c0: 3578 a0bd afcb 8fbd 1e01 74bd 6843 cebc
000000d0: 18d1 22bd 38af 47bd 7dfd f7bc ba09 25be
000000e0: 40cc 88bc dddf e8bd 1198 9cbb e583 9d3c
000000f0: 24cd edbc 3271 e2ba 752d 683d 980c 9e3d
00000100: 9767 c2bc 45e8 593d c2df bcba 4149 cf3d
00000110: 05ec 88bd 6110 cc3d 2203 c53c f3a1 0fbe
00000120: 9374 11be 2c84 9dbc 82b3 d7bd 4228 94bd
00000130: 05ad 09bd aebd 813b 9058 103d 3663 adbc
00000140: cf91 333d 02bd d5bc ee0c 493d e274 c33b
00000150: bf28 123c 22b2 d23d 8fdd 0b3c 1b41 703d
00000160: eada 08be 6346 663d 5e9b a1bd 3eb6 aabd
00000170: c52f cc3b 9dfa 6e3d dc58 0d3c 8b28 8c3d
00000180: 6fba a03a cacb 35bd 04df 46bc 0174 3dbd
00000190: c88a f8bd 850f 0abd a483 ef3d f760 a0bb
000001a0: 57bb e73c 8fbe 23bd 7198 883d af98 12be
000001b0: 1e4b 003c fbee 6d3d f6e6 f3bc bc13 2dbd
000001c0: 15fa 6fbc 48e7 913c ade2 153d c779 64bd
000001d0: 1e02 9f3d 7454 1dbe 7890 bbbb 9109 633d
000001e0: 7948 a1bd 3967 1bbd 1c61 abbd 054f 18be
000001f0: 9f6a 1ebd 1c03 ecbd 119a f6bc fcbb 12bb
00000200: ea4a e3bd 6107 93bd 471d 73bc 92f9 fdbc
00000210: b059 44bd 3b8e babd 8366 7dbd b373 213d
00000220: be63 d2bd 8ef0 15be dff9 87bd b793 58bd
00000230: a934 0fbe 91dd 1c3c b0d8 aebd 3d27 36bd
00000240: d74e a6bb e4c4 1fbd e95e 06be 3d86 333d
00000250: 2833 a5bc 5d56 f8bc 6fcc c5bd 94db 79bd
00000260: ee3c 05bd 6eaa 39bc db94 66bd e96d c6bd
00000270: 737b 53bd 4684 4f3d a87d 9cbd 0aab 96bd
00000280: ab95 003d 3378 2c3d 7a18 dcbd c99c 213d
00000290: 964f b0bd 20d7 d03a 7964 b9bd 7248 39bc
000002a0: 1c66 ddbb 443b 32bd 4cb7 573d 17a3 d9bc
000002b0: 8090 83bd f35e e2bd f465 66bd 204c 2d3d
000002c0: 9c01 81bc 0711 253a 9d98 513c 19bf 203c
000002d0: 3b2e 23bd 7963 ffbd 7363 88bd 938d ccbc
000002e0: 3697 35bd b622 b23b 56dc a9bc d007 71bd
000002f0: bc4f fabd a703 bd3c e846 033b e8e6 cdbd
00000300: 95f9 7ebc eaf2 eebd 148a 44bd b556 8bbd
00000310: 6e50 04be 18b4 b8bc a930 a63c 2f60 25bd
00000320: a442 40bd d226 903c d67b debd a73b 94bd
00000330: 4edd 9bbd c4c9 84bd f8e1 37bd 9215 573c
00000340: bb5c 663a 614b 2bbd cbce 883b 4b96 073d
00000350: 9b45 07bd daea b93c eb5c 00be d3e5 87bd
00000360: 83cf bdbd d424 74bd dc93 8ebc b576 72bd
00000370: c4c1 f7bc 636f 7ebd f83e a6bd eb59 f8bd
00000380: 1dff 41bd c293 fabd 47f1 89bd a88c 96bd
00000390: f970 563c 7af5 d4bd e8b5 a2bb 8f67 4bbd
000003a0: d71b f8bd 8459 02be abf2 70bc 94be f53c
000003b0: 1b54 8b3c a332 fcbd a40a 173d 6d81 cbbd
000003c0: 7270 80bd 904a dbbc 881b 5abc 28ff dcbd
000003d0: c465 37bd 689c 8fbd ec77 ca3b 6084 94bc
000003e0: 3937 b4bb 875d 913c 150b e6bd 92ec 06bb
000003f0: 995b 9bbd 3e7c d4bd 3882 52bd 23ff c1bd

articleType.bias f4 [103]
0.085450776 0.052603763 0.027611455 -0.020521626 -0.065309346 -0.028404543 0.06431715 -0.09220907
-0.10198637 0.0040472616 -0.0626736 0.037429936 -0.091191955 -0.01837218 -0.04851522 0.08550244
0.077164784 0.0012176603 0.011618822 0.0042594797 0.0628253 0.021933857 -0.033623204 -0.06019461
-0.011221609 0.045753468 -0.009257187 -0.11061204 -0.10974177 0.029895086 -0.0733763 0.008069706
0.0077777966 -0.040692188 -0.07174426 0.026776623 -0.007862832 0.08861601 -0.0030121307 -0.029040374
-0.027062742 0.030782858 -0.005859286 -0.117188744 -0.0074992925 -0.031367105 -0.057791945 0.0801199
-0.018403132 -0.08750205 -0.061832096 -0.021376513 0.09426303 0.05066585 -0.009581537 0.054767735
0.02252571 0.007902707 -0.036763906 -0.02728667 -0.12544088 -0.01984926 -0.055004075 -0.06950232
-0.07856454 -0.112512946 0.067909755 0.033332516 -0.0054118875 -0.044074345 0.036340706 -0.08357792
0.02685942 -0.0057826643 0.035846006 0.016947059 -0.060722902 0.06099498 0.005868218 0.014592879
0.09421747 0.021273881 -0.059282452 0.06899038 0.017131967 -0.0748061 -0.036778223 0.023611832
-0.019032493 -0.013092978 0.070991874 0.030695137 0.00014365227 -0.08267791 0.05192311 0.051768344
0.015426031 -0.06828029 -0.093096584 -0.1033483 0.0747801 0.056172483 -0.02867997
00000000: d100 af3d 0b77 573d 6b31 e23c f81c a8bc
00000010: e8c0 85bd a5b0 e8bc b6b8 833d 1cd8 bcbd
00000020: 3bde d0bd e49e 843b 045b 80bd 2250 193d
00000030: d9c2 babd 4181 96bc e5b7 46bd e71b af3d
00000040: 9208 9e3d e699 9f3a df5c 3e3c 1b93 8b3b
00000050: 8daa 803d a2ae b33c 7cb8 09bd a08e 76bd
00000060: d7da 37bc fd67 3b3d 75ab 17bc 9188 e2bd
00000070: 4bc0 e0bd 8ae6 f43c 5046 96bd cd36 043c
00000080: e3dc fe3b daac 26bd a8ee 92bd a65a db3c
00000090: 1cd3 00bc 507c b53d 2b67 45bb 14e6 edbc
000000a0: afb2 ddbc 552c fc3c 41ff bfbb a700 f0bd
000000b0: a0bc f5bb cb7a 00bd 3fb7 6cbd e715 a43d
000000c0: 2ac2 96bc 4634 b3bd a743 7dbd cc1d afbc
000000d0: fa0c c13d ff86 4f3d e1fb 1cbc 2254 603d
000000e0: d687 b83c 5b7a 013c c095 16bd 4b88 dfbc
000000f0: 9373 00be ea9a a2bc f44b 61bd 3b57 8ebd
00000100: 72e6 a0bd 306d e6bd 4514 8b3d ad87 083d
00000110: 3456 b1bb 4d87 34bd fed9 143d e72a abbd
00000120: 4908 dc3c 817c bdbb 43d3 123d 8fd4 8a3c
00000130: 94b8 78bd dfd5 793d 2e4a c03b f916 6f3c
00000140: 17f5 c03d 9046 ae3c 28d2 72bd d44a 8d3d
00000150: 5758 8c3c f133 99bd c3a4 16bd 9a6d c13c
00000160: 08ea 9bbc ee83 56bc 3064 913d 5e74 fb3c
00000170: 5da1 1639 0953 a9bd 54ad 543d 0b0b 543d
00000180: 77bd 7c3c 89d6 8bbd 6ca9 bebd 46a8 d3bd
00000190: 4f26 993d 1e15 663d 42f2 eabc

baseColour.weight f4 [46, 128]
0.051377323 -0.045778785 -0.02253893 -0.0143628875 0.05281475 -0.0034686697 0.07984336 -0.052641906
0.006538535 -0.0563554 -0.0977718 -0.064748086 0.0040444527 0.09913413 -0.08890607 0.07235425
0.064081214 -0.07113151 0.030137485 -0.04004145 -0.12422567 -0.049982198 -0.020124756 -0.00630214
0.07495052 0.017130759 -0.032696173 -0.04915202 0.026751064 -0.07729041 -0.09117612 -0.08630464
0.050549608 -0.08188788 0.05293083 0.08084012 -0.034344696 0.05756046 0.041672524 0.030900106
-0.034650993 0.07393718 0.09364726 0.0013981591 0.051139895 -0.12841642 -0.0043910732 0.06054293
0.033840362 0.06946795 0.055220053 -0.08244119 -0.108706646 0.06832432 0.0042524333 0.027992062
0.075126775 -0.071866095 -0.07392972 -0.07942815 -0.04700086 -0.009521205 -0.055127583 0.05061394
0.020200342 -0.043649618 -0.09066405 -0.039608497 -0.026041454 -0.008307733 -0.02844655 0.039178424
-0.015645286 0.041518465 -0.06406183 0.05499611 -0.019514263 0.036423106 -0.0295661 0.05039755
-0.008099815 0.04135888 -0.07175106 -0.01737259 -0.016847085 0.07352727 -0.08415182 -0.049889784
-0.055272292 -0.00039778824 -0.03773 0.011637442 -0.031984616 0.015625913 -0.03326149 0.073619254
-0.06561863 0.025842516 0.05630453 -0.034521047 -0.027320236 -0.06607371 0.09172278 -0.06177927
-0.043812573 0.036373988 0.020572845 -0.08799028 -0.021499403 -0.12952648 0.07411551 0.062350437
0.07161463 0.005546834 -0.0129506765 -0.03855555 -0.07979289 -0.10673828 0.07579667 0.094594866
-0.03073242 -0.081349604 -0.03221622 0.01260564 -0.074080184 -0.08820136 0.026373403 0.04174601
0.02298686 0.037457645 -0.016950304 0.04152499 -0.06708727 0.043099664 0.04125172 -0.06906199
0.010477692 -0.0050412524 -0.019371253 0.037351314 0.042324673 0.068121195 0.052947193 0.08205813
-0.07930094 -0.07517737 -0.0053000287 0.086883865 -0.0059257327 -0.09913489 0.058313854 -0.02954776
-0.074335165 0.088046946 0.004662509 0.10604559 0.0251704 0.032532755 -0.0025291126 0.09393639
0.07602447 0.023620667 -0.10845958 0.017941749 0.12020976 0.096915536 -0.012685338 0.00043152168
-0.0034065077 0.0009159454 -0.011434914 0.0068569616 0.09238896 -0.06279295 0.07107385 -0.07534536
0.02772978 0.076769605 0.08096052 0.025084341 -0.026492402 0.105684094 0.04303393 -0.082075916
-0.111933164 -0.06158509 0.020826045 0.0025782164 -0.038484164 -0.070060566 0.01852111 -0.10334633
-0.08459949 -0.009998474 -0.024572527 0.087414086 0.026901715 0.034936547 -0.048437476 -0.08363125
0.064059995 -0.07232425 -0.030481793 -0.0565686 -0.051059864 0.009571558 0.028483931 -0.042795125
-0.027201468 -0.051993556 0.027884314 -0.058035363 -0.05096839 0.014421471 0.040043313 0.07767182
-0.031547617 -0.025162645 0.043235086 -0.042122304 -0.006660233 -0.0074403957 0.04163687 -0.039718147
0.04268816 -0.074794866 -0.037199747 0.029771412 -0.00541765 -0.010302195 0.032330785 -0.023379171
0.106379315 0.06517227 0.03520628 -0.002074456 0.09103526 0.0915483 -0.06818319 -0.06672989
0.026828352 -0.05527444 0.03530941 0.06359021 0.062704496 -0.08682632 0.114142716 -0.06895277
0.022407789 -0.01458446 0.054999497 0.017094983 -0.05056677 0.008761667 0.07093991 0.019839445
00000000: 0771 523d 8982 3bbd 90a3 b8bc 5152 6bbc
00000010: 4754 583d 9f52 63bb ea84 a33d 0a9f 57bd
00000020: 3541 d63b ebd4 66bd 953c c8bd a59a 84bd
00000030: 5487 843b d606 cb3d 6314 b6bd 772e 943d
00000040: 033d 833d 66ad 91bd e3e2 f63c 8102 24bd
00000050: 076a febd 22ba 4cbd acdc a4bc 2f82 cebb
00000060: a97f 993d ce55 8c3c 6cec 05bd a153 49bd
00000070: 0c25 db3c 6f4a 9ebd 8cba babd 7dc0 b0bd
00000080: 1b0d 4f3d d5b4 a7bd ffcd 583d 818f a53d
00000090: 06ad 0cbd 84c4 6b3d cfb0 2a3d 3822 fd3c
000000a0: 33ee 0dbd 606c 973d 22ca bf3d 6f42 b73a
000000b0: 1178 513d 987f 03be fee2 8fbb ddfb 773d
000000c0: 319c 0a3d 3645 8e3d 6c2e 623d edd6 a8bd
000000d0: 97a1 debd 9fed 8b3d ff57 8b3b 9c4f e53c
000000e0: 11dc 993d 882e 93bd 7768 97bd 3aab a2bd
000000f0: f983 40bd d4fe 1bbc 76cd 61bd 9050 4f3d
00000100: 307b a53c f1c9 32bd 13ae b9bd 853c 22bd
00000110: e354 d5bc 281d 08bc bd08 e9bc 8e79 203d
00000120: 8b2a 80bc 440f 2a3d d932 83bd 9a43 613d
00000130: 60dc 9fbc 6530 153d 9b34 f2bc a96d 4e3d
00000140: 16b5 04bc ee67 293d 38f2 92bd f650 8ebc
00000150: e602 8abc 7795 963d ca57 acbd 3b59 4cbd
00000160: 3365 62bd 3c8e d0b9 c68a 1abd f8aa 3e3c
00000170: 4d02 03bd ea01 803c 333d 08bd b1c5 963d
00000180: 0f63 86bd afb3 d33c 949f 663d f165 0dbd
00000190: b0ce dfbc a751 87bd 27d9 bb3d 430c 7dbd
000001a0: d074 33bd e4fc 143d 6288 a83c 3f34 b4bd
000001b0: 841f b0bc 97a2 04be dfc9 973d 2c63 7f3d
000001c0: b1aa 923d 37c2 b53b 132f 54bc 6dec 1dbd
000001d0: 746a a3bd 9999 dabd 493b 9b3d f4ba c13d
000001e0: 8ec2 fbbc 9f9a a6bd 28f5 03bd e387 4e3c
000001f0: 5ab7 97bd eaa2 b4bd 090d d83c ddfd 2a3d
00000200: f04e bc3c 306d 193d 5ddb 8abc 1c16 2a3d
00000210: 0d65 89bd 4689 303d 90f7 283d 5f70 8dbd
00000220: a0aa 2b3c 1731 a5bb 76b0 9ebc b1fd 183d
00000230: a35c 2d3d 2083 8b3d 28df 583d 180e a83d
00000240: 8868 a2bd 98f6 99bd ddab adbb 2bf0 b13d
00000250: a62c c2bb 3c07 cbbd 82da 6e3d 250e f2bc
00000260: 093d 98bd f551 b43d f6c7 983b 6e2e d93d
00000270: 2832 ce3c 1141 053d 78bf 25bb b961 c03d
00000280: b8b2 9b3d 2180 c13c 0e20 debd 93fa 923c
00000290: 8930 f63d a77b c63d 2ad6 4fbc dc3d e239
000002a0: b73f 5fbb 0e1c 703a 8159 3bbc 5db0 e03b
000002b0: 6c36 bd3d 9799 80bd 2b8f 913d ab4e 9abd
000002c0: 9029 e33c 6239 9d3d a1ce a53d ad7d cd3c
000002d0: 9806 d9bc e770 d83d 5944 303d 6b17 a8bd
000002e0: 373d e5bd a640 7cbd 629b aa3c 4bf7 283b
000002f0: 92a1 1dbd ea7b 8fbd 95b9 973c 3ea7 d3bd
00000300: 7f42 adbd a4d0 23bc 534c c9bc 2806 b33d
00000310: fc60 dc3c a019 0f3d 6066 46bd dc46 abbd
00000320: e331 833d bd1e 94bd f4b4 f9bc 7ab4 67bd
00000330: 2624 51bd 06d2 1c3c 2257 e93c f149 2fbd
00000340: 9dd5 debc 32f7 54bd a56d e43c 7db6 6dbd
00000350: 3bc4 50bd 0948 6c3c 7504 243d 6712 9f3d
00000360: 1338 01bd e421 cebc 4617 313d 7088 2cbd
00000370: 153e dabb 90ce f3bb 6c8b 2a3d 7faf 22bd
00000380: c8d9 2e3d 0d2e 99bd c35e 18bd 2de3 f33c
00000390: 8b86 b1bb 8aca 28bc 496d 043d ad85 bfbc
000003a0: 66dd d93d 0a79 853d 7634 103d 99f3 07bb
000003b0: b270 ba3d ad7d bb3d a1a3 8bbd aea9 88bd
000003c0: 22c7 db3c 7467 62bd 9aa0 103d 963b 823d
000003d0: 376b 803d ffd1 b1bd a8c3 e93d 1c37 8dbd
000003e0: 8a90 b73c a9f3 6ebc 2747 613d c70a 8c3c
000003f0: 1a1f 4fbd 188d 0f3c f248 913d 5586 a23c

baseColour.bias f4 [46]
0.02829921 0.081807755 0.040793642 -0.014429983 0.0023155666 -0.10991242 -0.0008023777 -0.0587371
-0.055985328 -0.0934021 0.020264542 -0.043577228 0.05570322 0.05544873 -0.008415092 0.022182595
-0.055985313 0.026780713 -0.11475223 0.06879344 0.013728641 -0.06312718 0.034102812 0.025685614
-0.08011139 -0.0789315 -0.11283024 0.04910836 -0.070595995 -0.052897196 0.027721241 -0.013663581
-0.034549978 -0.05983843 0.074260525 -0.07003949 -0.031869378 -0.056993835 0.034162946 -0.056942664
0.04214738 -0.09323692 0.07343545 -0.013134029 0.070890315 0.057712626
00000000: bfd3 e73c d38a a73d 3c17 273d bc6b 6cbc
00000010: c3c0 173b c319 e1bd a856 52ba 5096 70bd
00000020: df50 65bd 9a49 bfbd d301 a63c 097e 32bd
00000030: 0f29 643d 351e 633d 74df 09bc 46b8 b53c
00000040: db50 65bd 3a63 db3c 3803 ebbd 93e3 8c3d
00000050: 18ee 603c d348 81bd 64af 0b3d a36a d23c
00000060: 7111 a4bd d7a6 a1bd 8a13 e7bd d925 493d
00000070: a294 90bd bbaa 58bd a817 e33c 36dd 5fbc
00000080: 4784 0dbd 2419 75bd e715 983d dd70 8fbd
00000090: 7789 02bd 5e72 69bd 72ee 0b3d b63c 69bd
000000a0: bba2 2c3d 00f3 bebd 5365 963d 1c30 57bc
000000b0: f12e 913d 1364 6c3d
