data/models/fashion/smallmodel/1/checkpoint_epoch_10.pt (torch, 768191 bytes, 16 tensors)

linear1.weight f4 [256, 512]
0	0x3cdbb387	0.026819004
1	0xbd78511b	-0.060624223
2	0x3d0436e0	0.032278895
3	0xbc8944bf	-0.016756414
4	0x3b690bba	0.0035559968
5	0xbbcea74b	-0.006306564
6	0x3d0c71cc	0.034288213
7	0xbcaf852f	-0.021425812
8	0x3cb968dd	0.02263301
9	0x39a27f3e	0.0003099385
10	0x3b06138e	0.0020458433
11	0xbcbd3a47	-0.023099078
12	0xbce0cc89	-0.02744128
13	0xbce7c0ac	-0.028290115
14	0x3c0737cb	0.008253048
15	0xbc2628fc	-0.010141607
16	0xbcd7a800	-0.026325226
17	0x3d311fa9	0.043243084
18	0x3cd3754a	0.025812764
19	0xbd80beb3	-0.06286373
20	0xbc02d4de	-0.007985322
21	0x3d095624	0.033529416
22	0xbbf69c0c	-0.0075259265
23	0x3d486547	0.04892471
24	0x3b821dbd	0.0039708302
25	0x3c17945b	0.009251679
26	0x3d0f0262	0.03491438
27	0xb9b6fc04	-0.0003490151
28	0xbb9121fc	-0.0044291
29	0xbbc80fdf	-0.0061054076
30	0xbc05989f	-0.0081540635
31	0xbbf1b954	-0.007376829
32	0xbd1824b9	-0.037144396
33	0xbd14921d	-0.036272157
34	0x3d122d01	0.03568745
35	0xbd1327ed	-0.035926748
36	0xbd26456a	-0.040593542
37	0xbd1550fa	-0.03645418
38	0x3cc6ac04	0.024251945
39	0xbc966905	-0.018360624
40	0x3cef8fde	0.029243406
41	0xbd365ea3	-0.044523846
42	0xbca827a1	-0.020526709
43	0xbd8c758a	-0.06858356
44	0x3cf6e2fc	0.030137531
45	0x3b298e2c	0.0025872095
46	0x3b9aadd7	0.0047204304
47	0x3bdffaed	0.0068353326
48	0xbd248465	-0.040165324
49	0xbc2a34d3	-0.010388571
50	0xbd4b283c	-0.049598917
51	0xbd22c258	-0.039736122
52	0xbd1e2f4b	-0.03861932
53	0x3d16474d	0.03668909
54	0x3d1fc022	0.03900159
55	0xbcff4720	-0.031161845
56	0x3c6e9186	0.014561063
57	0x3b1dd870	0.0024085306
58	0x3ae4f0c4	0.0017466773
59	0x3c227262	0.009914966
60	0x3c1cc1d7	0.009567699
61	0x3cc0ef05	0.023551473
62	0xbbebb0ef	-0.007192723
63	0xbcc6e009	-0.02427675
64	0x3b9f466e	0.004860691
65	0x3cec6c8b	0.028860351
66	0xbb871e1b	-0.004123462
67	0x3d39fce4	0.04540719
68	0x3c851cbf	0.016249059
69	0xbcdac034	-0.026702978
70	0x3bbb59d8	0.0057174973
71	0xbca3cc9b	-0.019995024
72	0x3c578a42	0.013155522
73	0xbcd9f27b	-0.026604882
74	0xbd6336c9	-0.05547217
75	0xbd4c735b	-0.0499147
76	0xbd70b0a6	-0.058762215
77	0xbc09dd75	-0.008414616
78	0xbd0e1784	-0.034690395
79	0x3ba66e84	0.0050790925
80	0x3ce9265f	0.02846068
81	0xbcccdb4a	-0.025006909
82	0xbc948085	-0.01812769
83	0x3c5eec60	0.013606161
84	0xbcf6e042	-0.030136231
85	0xbd1955db	-0.037435394
86	0x3c78fed8	0.015197478
87	0x3d444759	0.047919605
88	0x3d122696	0.03568133
89	0x3d18f597	0.037343588
90	0xbca02253	-0.019547617
91	0x3d820200	0.06348038
92	0x3cebf8c9	0.028805153
93	0xbcfbe2a6	-0.030747723
94	0xbcbe4d81	-0.023230316
95	0xbd884d8d	-0.06655417
96	0x3c02f09f	0.007991939
97	0xbd3ab41e	-0.04558193
98	0xb9b420ed	-0.00034356807
99	0xbcc05126	-0.023476195
100	0xbca5c239	-0.020234214
101	0xbbef276d	-0.007298401
102	0x3b29b44c	0.0025894819
103	0xbd40b740	-0.04704976
104	0xba264229	-0.0006342256
105	0x3ca0d6d1	0.019633682
106	0xbc736eb4	-0.014857937
107	0x3d4b5a49	0.04964665
108	0x3b5fc44d	0.0034144104
109	0x3c65826d	0.014008147
110	0xbc64f72f	-0.013974949
111	0x3cdb6435	0.02678118
112	0xbbbc77af	-0.005751572
113	0xbc689d15	-0.0141976075
114	0x3d0feb84	0.035136715
115	0x3c1d6b92	0.009608166
116	0x3c680440	0.0141611695
117	0xbc4b8936	-0.01242285
118	0xbcc9aedf	-0.024619518
119	0x3d63a28a	0.05557493
120	0xbd45eaf9	-0.04831979
121	0xb9f6e175	-0.00047088755
122	0x3bb0dffd	0.0053977952
123	0x3d0beacf	0.034159478
124	0xbcd86930	-0.026417345
125	0x3ceee54c	0.029162072
126	0xbc2a26a1	-0.010385186
127	0x3ae7eb27	0.0017693982
128	0xbd35afa2	-0.04435695
129	0x3cdda377	0.027055485
130	0x39e05c32	0.000427933
131	0xbcf67f42	-0.030089978
132	0xbba31eab	-0.004978021
133	0xbcf79eac	-0.030227028
134	0xbd09c1dc	-0.033632144
135	0xbc870afb	-0.016484728
136	0xbc577b0d	-0.013151896
137	0xbd30fdb0	-0.043210685
138	0xbc6d566d	-0.014485938
139	0xbc1ae57c	-0.009454127
140	0x3d0d5146	0.034501337
141	0x3b9ef9d2	0.0048515582
142	0x3b56d254	0.0032779174
143	0x3bc0adc4	0.0058800895
144	0x3d334ce4	0.0437745
145	0x3d7491dd	0.05970942
146	0x3d4d32f3	0.050097417
147	0xbd866a54	-0.06563249
148	0x3cc2937a	0.023751963
149	0xbcc800a5	-0.02441437
150	0x3c75219a	0.0149616245
151	0xbd377244	-0.044786707
152	0xbc9db54b	-0.019251486
153	0xbadecde7	-0.001699862
154	0xbd3c7a4f	-0.04601508
155	0xbc1029b9	-0.00879901
156	0x3c867b90	0.016416341
157	0x3c8fcde5	0.017554233
158	0x3b93a853	0.00450615
159	0xbd1a799e	-0.03771364
160	0x3d340d87	0.043958213
161	0x3d1dd8e5	0.038536925
162	0xbbf16488	-0.0073667206
163	0xbc97b5b7	-0.018519266
164	0x3c0b7741	0.008512319
165	0x3c52fc63	0.0128775565
166	0x3caac01c	0.020843558
167	0xbd4287e4	-0.047492877
168	0x3a75f51e	0.00093825336
169	0xbc48a01b	-0.012245203
170	0xbd6c7b12	-0.057734556
171	0xbbb2527a	-0.005441961
172	0x3d26be67	0.040708926
173	0xbc5cb1ed	-0.013470155
174	0x3b678352	0.0035326076
175	0x3cfb14b6	0.030649524
176	0xbd4213e2	-0.047382243
177	0xbc724a40	-0.01478821
178	0xbc26a39b	-0.0101708425
179	0x3d198769	0.037482653
180	0xbd46cef7	-0.04853722
181	0xbc8dbdff	-0.017302511
182	0x3c5fa161	0.013649316
183	0xbd3ba616	-0.04581269
184	0x3cffa1ef	0.031205146
185	0xba05e0ab	-0.00051070255
186	0xbd51598e	-0.051110797
187	0x3c999500	0.018747807
188	0xbcdee211	-0.027207406
189	0x3cc5def8	0.024154171
190	0xbc6d5f36	-0.014488032
191	0x3c5036aa	0.012708345
192	0x3d14d5d3	0.03633673
193	0x3d4b5edb	0.049651008
194	0xbd48a7a4	-0.048988
195	0xbd10b8b2	-0.03533239
196	0xbcd330ae	-0.025780048
197	0xbb59cf20	-0.0033235028
198	0xbbf490a6	-0.0074635325
199	0x3d1a4954	0.037667587
200	0x3d0c6a28	0.034280926
201	0xbcaa98f6	-0.02082489
202	0xbced162e	-0.02894124
203	0x3ad0a48e	0.0015918182
204	0x3bbe9a29	0.005816717
205	0xbc06ee93	-0.008235591
206	0xbc233023	-0.009960207
207	0x3cc4e563	0.024035161
208	0x3c7fb27e	0.015606521
209	0xbd2a885b	-0.041633945
210	0x3d8b6a1e	0.068073496
211	0xbd2e11e2	-0.042497523
212	0x3b864b36	0.0040983213
213	0xbb3a538d	-0.0028431148
214	0xbd03bb28	-0.032160908
215	0xbbf28109	-0.007400636
216	0xbc9bd3d9	-0.019021915
217	0xbd04e12d	-0.032441307
218	0x3cd9672c	0.026538454
219	0x3d9e18f9	0.07719607
220	0xbb464373	-0.0030252605
221	0x3c82b40c	0.015954994
222	0x3cf09b9d	0.029371077
223	0x3d4d8d39	0.05018351
224	0xbc42d839	-0.011892372
225	0x3cc22095	0.023697177
226	0x3d171f06	0.03689482
227	0x3d0c8a8f	0.034311827
228	0x3c09f401	0.0084199915
229	0x3cce331d	0.025170857
230	0xbcc92ac0	-0.024556518
231	0xbd45e79c	-0.048316583
232	0xbceb102c	-0.028694235
233	0xbd6e9f93	-0.05825765
234	0x3d46d672	0.048544355
235	0x3d3473b3	0.044055652
236	0x3a5c4a23	0.0008403381
237	0x3cd3d946	0.02586044
238	0x3b9b5e25	0.0047414475
239	0xbb466835	-0.0030274515
240	0xbcd1ef60	-0.025626838
241	0xbbed9d04	-0.0072513837
242	0x3d02939b	0.03187905
243	0x3bf113f7	0.0073571163
244	0x3c1a1217	0.009403727
245	0x3c05af8c	0.008159529
246	0xbc91c243	-0.017792827
247	0xbd17e846	-0.037086748
248	0xbbc8291b	-0.006108416
249	0x3c973db1	0.018462034
250	0x3d36bc52	0.04461319
251	0xbca52c3b	-0.020162692
252	0x3cc5f162	0.024162952
253	0x3ce8a0d5	0.028397003
254	0xbc5181cd	-0.012787295
255	0xbcfbc989	-0.030735748

linear2.weight f4 [128, 256]
0	0x3d4da99c	0.05021058
1	0xbe10874a	-0.14114109
2	0x3d6842f6	0.056704484
3	0xbd111ccd	-0.035427857
4	0x3db2074f	0.086928
5	0xbe044c2c	-0.12919682
6	0x3c0a8d3d	0.008456525
7	0x3dc80a0f	0.097675435
8	0xbde70644	-0.11280492
9	0x3d18b275	0.037279565
10	0x3d34f833	0.044182014
11	0x3e132b4b	0.14371984
12	0xba24f8e3	-0.00062931905
13	0x3d218c63	0.039440524
14	0xbe04b00c	-0.12957782
15	0xbe879de1	-0.2648764
16	0xbc49a9d8	-0.01230856
17	0xbe93f719	-0.28899458
18	0xbc7b0a05	-0.015322213
19	0x3da59519	0.08085079
20	0xbe165cf4	-0.14683896
21	0xbe8493b9	-0.25893953
22	0x3e1df7ef	0.1542661
23	0xbd85be72	-0.06530465
24	0x3dcf61ab	0.101260506
25	0x3c5797e4	0.013158772
26	0xbed040d3	-0.40674457
27	0x3e7a35bd	0.24434562
28	0xbc308441	-0.010773719
29	0xbd337294	-0.043810442
30	0xba70f343	-0.0009191522
31	0xbdf3cde0	-0.11904502
32	0x3e529409	0.20564283
33	0x3df7610b	0.12079056
34	0xbd8fcf09	-0.07021911
35	0xbe366975	-0.17813666
36	0xbbcc97d4	-0.0062436853
37	0x3d5ec58d	0.054387618
38	0x3e7d7c0d	0.24754353
39	0x3d0e4766	0.03473606
40	0x3dd78084	0.10522559
41	0xbd0fb3dc	-0.035083637
42	0x3e285578	0.16438854
43	0xbe4cbeee	-0.19994709
44	0xbb633bc8	-0.0034673084
45	0x3d17f08c	0.037094638
46	0x3d5bc9f6	0.0536594
47	0x3c0f1b41	0.008734525
48	0xbd3ebcc1	-0.04656673
49	0xbcc3fb67	-0.023923589
50	0xbc87eb57	-0.016591711
51	0x3e07e211	0.13269831
52	0x3d367423	0.04454435
53	0x3d7338f5	0.05938049
54	0xbe41cd42	-0.18925956
55	0x3d828524	0.06373051
56	0xbe57fcc4	-0.21092516
57	0x3d0c96f9	0.034323666
58	0xbd61bfbe	-0.0551145
59	0x3d9b4ce6	0.075830266
60	0x3dc384d8	0.09546822
61	0xbd92f33d	-0.071753
62	0xbdbcb025	-0.092132844
63	0x3d1c5a94	0.03817232
64	0xbe513af8	-0.20432651
65	0x3da9f343	0.082983516
66	0xbd934cbb	-0.071923696
67	0xbda120f1	-0.07867611
68	0x3df918d3	0.12162938
69	0x3d98c86c	0.074601024
70	0x3e013a2f	0.12619852
71	0x3e823c12	0.25436455
72	0xbde5e72d	-0.11225734
73	0xbd24f013	-0.040268015
74	0xbd43b7b3	-0.04778261
75	0x3c9ac90c	0.018894695
76	0xbe240f4e	-0.16021463
77	0x3dbb28d7	0.09138649
78	0xbce8d7f3	-0.028423285
79	0x3e62a90c	0.22134799
80	0x3e25c60b	0.16188829
81	0xbd328a68	-0.043589026
82	0x3e00dbe0	0.12583876
83	0xbc8de25f	-0.017319856
84	0x3dd34c98	0.103173435
85	0x3e426a05	0.18985756
86	0x3d784096	0.06060847
87	0xbd131c0a	-0.035915412
88	0x3ddcd385	0.10782532
89	0x3cc519bb	0.02406012
90	0x3d41a5b1	0.047277156
91	0xbe0591bc	-0.13043875
92	0x3dae096f	0.08497893
93	0xbde21802	-0.110397354
94	0x3dbc7d6b	0.09203609
95	0x3e6f1285	0.23346908
96	0xbdfbdfc2	-0.12298538
97	0x3d8bfddb	0.068355285
98	0x3e108408	0.14112866
99	0x3df813a3	0.121131204
100	0xbd8b9074	-0.068146616
101	0x3dfb48ca	0.12269743
102	0x3e00fbcb	0.12596051
103	0xbe8a0241	-0.26954845
104	0xbdc44539	-0.09583516
105	0xbe1c873b	-0.15285961
106	0x3c1f574b	0.009725402
107	0x3bceb8f0	0.0063086674
108	0xbe6a5c0d	-0.22886677
109	0x3d210588	0.039311916
110	0xbda4904b	-0.08035334
111	0xbc074d5b	-0.008258189
112	0x3cc94202	0.024567608
113	0x3d7b8e40	0.061414957
114	0x3cb95530	0.022623628
115	0xbd7e4ff2	-0.06208796
116	0xbe18ec20	-0.14933825
117	0x3ce18e3d	0.027533645
118	0xbd8944e6	-0.067025945
119	0x3e21a345	0.15784939
120	0x3cac5297	0.021035476
121	0x3bf5ada8	0.007497508
122	0x3e26fb9a	0.16306916
123	0xbc3986b8	-0.011323623
124	0xbe2fc491	-0.17164828
125	0x3dbe4ba2	0.092917696
126	0xbe81c9ef	-0.25349376
127	0x3c9fd0a3	0.019508665
128	0x3e0382c3	0.1284285
129	0x3e06c1ea	0.1315991
130	0xbe04b16b	-0.12958305
131	0xbd0ab7f7	-0.03386685
132	0x3dee95cc	0.11649665
133	0xbc7815de	-0.015141932
134	0xbd16404f	-0.036682423
135	0x3d70ec40	0.058819056
136	0xbc5faa0e	-0.013651384
137	0xbd209141	-0.039201025
138	0x3d8cf840	0.068832874
139	0xbdc7faa1	-0.097646005
140	0x3c3aee11	0.0114092985
141	0xbd6a843c	-0.057255015
142	0xbd1a4655	-0.03766473
143	0x3dfbf97f	0.12303447
144	0xbd67e835	-0.056617934
145	0x3ccd5a2b	0.02506741
146	0xbdf77297	-0.12082403
147	0xbe0f8c27	-0.14018308
148	0xbe1856c0	-0.14876842
149	0x3d17f2b1	0.037096683
150	0xbe61b1d2	-0.2204049
151	0xbca70437	-0.020387752
152	0x3e226503	0.15858845
153	0x3de512d9	0.111852355
154	0x3cdb2da1	0.026755156
155	0x3d6723ae	0.05643051
156	0x3cfb7eb2	0.030700061
157	0xbd7cff42	-0.06176687
158	0xbd252ebb	-0.04032777
159	0x3c82ac61	0.015951337
160	0x3d0c04a1	0.034184102
161	0x3c821f6e	0.015884127
162	0x3e08ff8f	0.13378738
163	0xbdcb2d75	-0.099207796
164	0x3d84ec31	0.064903624
165	0xbe050581	-0.12990381
166	0x3dc2bf68	0.09509164
167	0x3e045121	0.12921573
168	0xbe3075bb	-0.1723241
169	0xbe569383	-0.20954709
170	0x3dddae0b	0.10824212
171	0xbdceefa7	-0.10104304
172	0x3daf4a4f	0.08559095
173	0xbe1fa5eb	-0.15590636
174	0x3e04ecc3	0.12980942
175	0xbd9a0c17	-0.07521837
176	0xbb26bb2f	-0.002544116
177	0xbafeff03	-0.0019454662
178	0x3e0fa883	0.14029126
179	0xbde09230	-0.10965383
180	0x3af3fe43	0.0018615205
181	0xbe177634	-0.14791185
182	0x3d731084	0.059341922
183	0x3e178f8f	0.14800857
184	0x3dd01f37	0.10162204
185	0xbe97cf7e	-0.2965049
186	0xbdc5beea	-0.096555546
187	0xbb98a186	-0.004657927
188	0xbde10b1a	-0.109884456
189	0x3daa1da7	0.08306437
190	0x3d06e011	0.03292853
191	0x3d8df1c9	0.069308825
192	0x39d79b12	0.00041123532
193	0xbd2ac0c3	-0.04168774
194	0x3c8fe2ce	0.017564204
195	0xbe05e12d	-0.13074179
196	0xbd8d3b09	-0.06896026
197	0xba91b8fb	-0.001111775
198	0xbce37970	-0.027767867
199	0x3e145e11	0.14489008
200	0x3dc43d6b	0.09582027
201	0x3e58768f	0.21138977
202	0x3d54c05b	0.051941257
203	0xbe177753	-0.14791612
204	0xbd6b6267	-0.05746689
205	0xbd846723	-0.06464984
206	0x3ce555a5	0.02799494
207	0xbd40e05e	-0.047088973
208	0x3d58f629	0.05296913
209	0xbd451751	-0.04811794
210	0xbc4ca18b	-0.012489687
211	0xbe4d0c84	-0.20024306
212	0xbd905426	-0.070473
213	0xbb852f8f	-0.0040645073
214	0xbda41082	-0.08010961
215	0x3d8d561f	0.06901192
216	0x3cbb39ca	0.022854704
217	0xbe3dc6f3	-0.18532924
218	0xbdcb2a14	-0.09920135
219	0x3de275cb	0.110576235
220	0x3b913b07	0.0044320854
221	0xbd971147	-0.07376342
222	0xbe516af1	-0.20450951
223	0xbd81dc68	-0.06340867
224	0x3b718812	0.0036854786
225	0x3d9532a4	0.072850496
226	0x3d68c12b	0.056824844
227	0x3c86cbbe	0.016454574
228	0xbe0828a9	-0.1329676
229	0xbd2dda92	-0.042444773
230	0xbda4429d	-0.08020518
231	0x3d545e7d	0.051847924
232	0x3db40eb3	0.08791866
233	0xbdaa3694	-0.08311191
234	0x3d3e68e5	0.046486754
235	0x3e8c5c62	0.27414232
236	0x3d8b2b50	0.067953706
237	0x3deeaccf	0.116540544
238	0xbd89a3bd	-0.06720684
239	0x3cb8469a	0.022494603
240	0x3bf6c7d9	0.007531148
241	0xbe7c8166	-0.24658737
242	0x3dbde105	0.09271435
243	0xbe0936a6	-0.13399753
244	0x3d85d825	0.06535367
245	0xbd484b7e	-0.04890012
246	0x3d7720ea	0.060334124
247	0xbc63f19a	-0.013912583
248	0x3cbb62e3	0.022874301
249	0x3e26cb76	0.16288552
250	0x3cc77e2a	0.024352152
251	0x3c4ac522	0.012376102
252	0x3e01786e	0.12643597
253	0xbd48740e	-0.048938803
254	0x3dbc238d	0.09186468
255	0x3d859f45	0.06524519

gender.weight f4 [5, 128]
0	0xbda393f2	-0.07987203
1	0xbbc3f786	-0.005980435
2	0x3cd584ef	0.026064364
3	0xbd2727ed	-0.04080956
4	0xbcc2edb9	-0.023794996
5	0x3d36d7b0	0.04463929
6	0xbd9bbd75	-0.076044954
7	0x3dffebcd	0.12496147
8	0xbda492eb	-0.08035835
9	0xbdb42145	-0.08795408
10	0x3d31413d	0.043275107
11	0xbdb75daa	-0.08953412
12	0x3d892e9a	0.06698342
13	0xbddaedca	-0.10689886
14	0x3dbb5003	0.091461204
15	0xbe23b75c	-0.15987915
16	0xbe2b9f7c	-0.16760057
17	0xbe0ea47e	-0.13929936
18	0xbe3d2e1b	-0.18474619
19	0x3dd6c075	0.10485927
20	0xbe58d37b	-0.21174423
21	0x3d1670df	0.036728736
22	0xbe057407	-0.13032542
23	0x3d6bafae	0.057540588
24	0xbddcbdf4	-0.10778418
25	0xbd999155	-0.07498423
26	0xbe03d7a0	-0.12875223
27	0xbd778a29	-0.060434494
28	0x3ddd32b6	0.10800688
29	0xbd05d79f	-0.032676335
30	0xbe72cc5f	-0.23710774
31	0x3d7f652c	0.062352344
32	0xbe8e7f7c	-0.27831638
33	0xbe3be862	-0.18350366
34	0x3e223ba1	0.15843059
35	0x3d621c87	0.055202987
36	0xbdbc3d9d	-0.09191439
37	0xbe529a1d	-0.20566602
38	0xbcf741c3	-0.030182725
39	0x3dc995fc	0.098430604
40	0x3e0761fd	0.13220973
41	0xbec6bded	-0.38816777
42	0xbd89afb6	-0.06722967
43	0xbdba3d6f	-0.09093749
44	0xbe06e2cb	-0.13172452
45	0xbd56b5af	-0.05241936
46	0x3cc0dc9a	0.023542691
47	0xbcd59b18	-0.026074931
48	0x3d7dca9a	0.061960794
49	0xbd065ad8	-0.03280148
50	0xbd2787af	-0.040900882
51	0x3e1693d1	0.14704825
52	0x3da57df6	0.08080666
53	0x3db6e8b4	0.08931103
54	0xbe5b9120	-0.2144208
55	0xbd88b0e4	-0.06674364
56	0x3d677acd	0.056513596
57	0x3e0bd319	0.13654746
58	0x3cd7d64a	0.026347298
59	0x3ca4d8f9	0.020122992
60	0x3d866db2	0.065638915
61	0x3d11eb8c	0.035625026
62	0xbe05897e	-0.1304073
63	0xbd2bf471	-0.041981164
64	0xbee7b54b	-0.45255503
65	0x3d38e0ca	0.04513625
66	0xbe1d2c6a	-0.15348974
67	0xbdb0f15a	-0.08639784
68	0xbdcfdf3e	-0.10150002
69	0x3d657f66	0.0560297
70	0x3deb97d6	0.1150357
71	0xbf3eb1a8	-0.7448983
72	0xbe429b12	-0.19004467
73	0xbe1e16ad	-0.15438338
74	0x3d45bedc	0.04827772
75	0xbdb4017d	-0.08789346
76	0xbdd221af	-0.10260331
77	0xbe594e71	-0.2122133
78	0x3d80b1bf	0.062839024
79	0xbe8dab5b	-0.27669796
80	0x3db2d804	0.08732608
81	0x3da9fdf6	0.08300392
82	0xbe714512	-0.23561504
83	0x3d80d4f6	0.06290619
84	0xbe4c586f	-0.1995561
85	0x3d3f5236	0.04670926
86	0x3da96621	0.08271433
87	0x3d9d3aa2	0.07677199
88	0x3e00bcb8	0.1257199
89	0xbd4e3dcc	-0.050351903
90	0xbd997f61	-0.07494999
91	0xbcdb7a00	-0.026791573
92	0x3dad17f2	0.08451833
93	0xbd193d92	-0.037412234
94	0xbdb026d9	-0.086011596
95	0xbe59dd59	-0.21275844
96	0xbdb59478	-0.08866209
97	0xbe0d593f	-0.13803576
98	0xbe392e7e	-0.18084142
99	0x3d59613b	0.05307124
100	0x3dc33b45	0.09532789
101	0x3d93e3b8	0.07221168
102	0x3e209ced	0.15684862
103	0x3ddb834b	0.107184015
104	0xbd5c34fa	-0.05376146
105	0xbe0f2887	-0.13980304
106	0xbacaf47b	-0.0015484238
107	0xbb4adc1c	-0.003095395
108	0xbcdc4cef	-0.026892154
109	0xbd1aeb46	-0.03782203
110	0x3d1b3331	0.037890617
111	0xbe41bdcc	-0.18920058
112	0xba9d4433	-0.0011998474
113	0xbd8f9789	-0.07011325
114	0xbed0e4d1	-0.40799573
115	0x3ca87254	0.020562328
116	0xbc05a9da	-0.008158172
117	0x3dc23bc6	0.09484057
118	0xbe333039	-0.17498864
119	0xbec9bc92	-0.3940168
120	0x3dd20f8f	0.10256874
121	0x3d0fd651	0.035116497
122	0xbd8ed9f8	-0.06975168
123	0xbe324606	-0.17409524
124	0xbd612e5c	-0.054975852
125	0xbdf4a2a0	-0.11945081
126	0x3d3e7a71	0.046503488
127	0xbe3f2489	-0.18666281
128	0x3df50c90	0.11965287
129	0xbd1b99b7	-0.03798839
130	0x3d8c8ea5	0.06863145
131	0x3d32af74	0.043624356
132	0xbdc9b308	-0.098486006
133	0xbd3ff28e	-0.046862178
134	0xbdf3bf84	-0.11901763
135	0x3dcf8aeb	0.101339184
136	0xbe12ece1	-0.14348175
137	0xbe79eb46	-0.24406156
138	0x3d6e3aa0	0.058161378
139	0xbde37aa9	-0.1110738
140	0x3dc1f10a	0.09469803
141	0xbc731822	-0.014837297
142	0xbd71ce60	-0.059034705
143	0xbcfc3a99	-0.03078966
144	0xbdff32d1	-0.12460864
145	0x3e7eb62b	0.24874179
146	0x3dd9cd74	0.1063489
147	0x3dcfa2d2	0.101384774
148	0x3d159b99	0.036525343
149	0x3dc14d7d	0.09438608
150	0xbd0d673b	-0.034522276
151	0x3e000ced	0.12504931
152	0xbcb543ac	-0.022126995
153	0x3db24688	0.08704859
154	0xbd3ae715	-0.045630533
155	0x3c8e4386	0.017366182
156	0xbd18e8f2	-0.03733153
157	0xbdf57cdb	-0.11986705
158	0xbe2c039a	-0.16798249
159	0x3dc955aa	0.09830792
160	0xbeb92e9d	-0.36168376
161	0xbe647f39	-0.22314157
162	0xbd864851	-0.06556762
163	0xbce15b6c	-0.027509414
164	0xbd2af08d	-0.041733313
165	0xbe03bc0d	-0.12864704
166	0xbd8d7502	-0.06907083
167	0x3d23944c	0.03993635
168	0x3cb16e2d	0.021658981
169	0xbe98ac24	-0.29818833
170	0x3d620644	0.055181757
171	0xbe16c64d	-0.14724083
172	0xbd191be8	-0.03738013
173	0xbd3ec6ff	-0.046576496
174	0xbde06526	-0.109567925
175	0x3e52b066	0.20575103
176	0xbda3358a	-0.07969196
177	0xbbf6a57b	-0.007527051
178	0xbd730526	-0.05933108
179	0xbcb45fdd	-0.022018367
180	0xbcf2bfc3	-0.029632455
181	0xbe8dac4b	-0.27670512
182	0x3d938e31	0.07204855
183	0xbd254a08	-0.040353805
184	0x3d273a82	0.04082728
185	0xbd15b0c5	-0.036545534
186	0xbd891cdf	-0.0669496
187	0x3b55f2b4	0.0032645883
188	0xbdd715a8	-0.105021775
189	0xbc665bf1	-0.0140600065
190	0x3c20be45	0.009810989
191	0x3d581ef4	0.052763894
192	0xbeaa1c52	-0.33224732
193	0xbcd7e621	-0.026354851
194	0x3c966c97	0.018362327
195	0xbe1e5e90	-0.1546576
196	0xbea72b3c	-0.32650173
197	0xbbdc5207	-0.0067236456
198	0x3e1e60e6	0.15466651
199	0xbea25b40	-0.31710243
200	0x3c9b5d7e	0.018965479
201	0xbde81e4c	-0.11333904
202	0x3cefe214	0.029282607
203	0x3d23cdff	0.039991375
204	0xbd6a6f49	-0.057235036
205	0xbe9e0b01	-0.3086777
206	0xbe78eb38	-0.24308479
207	0xbf0b8f78	-0.5451579
208	0x3d3f07f2	0.046638437
209	0xbd9322dd	-0.07184384
210	0xbe130e54	-0.14360934
211	0x3da286fe	0.07935904
212	0xbd810282	-0.062993065
213	0x3b67216a	0.003526772
214	0xbddd86e0	-0.10816741
215	0xbd7929b1	-0.060830776
216	0x3d978f7c	0.07400414
217	0xbdebe35a	-0.11517973
218	0xbddfaef3	-0.10922041
219	0xbb684380	-0.0035440624
220	0xbdd2864e	-0.10279523
221	0x3df4b522	0.11948611
222	0xbd61f389	-0.055163894
223	0x3da9b364	0.08286169
224	0x3d248367	0.040164378
225	0xbc8c5bd9	-0.01713364
226	0xbe935e80	-0.28783035
227	0xbd9079f9	-0.070545144
228	0x3d56fcb2	0.052487083
229	0x3d0ec9c4	0.034860387
230	0x3e3f5585	0.18684967
231	0x3de799c2	0.11308624
232	0xbc86ab0b	-0.016438982
233	0x3e3846ca	0.17995754
234	0x3dc7c1a2	0.097537294
235	0xbd34e766	-0.04416599
236	0xbd9f9179	-0.077914186
237	0x3dfc979d	0.123336054
238	0xbd06f1c8	-0.032945424
239	0xbf2b9078	-0.67017317
240	0xbce90108	-0.028442875
241	0xbdcd0450	-0.10010588
242	0xbe8c8cce	-0.27451175
243	0xbdc1c12c	-0.09460673
244	0xbe22f68b	-0.15914361
245	0x3d8433f8	0.06455225
246	0xbe86d9ba	-0.26337987
247	0xbe3046a2	-0.17214444
248	0x3d569ee2	0.052397616
249	0xbd9acb0a	-0.07558258
250	0xbdcc6844	-0.099808246
251	0xbe69a7d0	-0.22817922
252	0xbe6277a8	-0.22115958
253	0xbc289633	-0.0102897165
254	0xbe7b520a	-0.24543014
255	0xbe187595	-0.14888604

gender.bias f4 [5]
0	0xbd81f9c4	-0.06346467
1	0xbd6bad0c	-0.057538077
2	0x3d62b5c3	0.055349123
3	0xbe112752	-0.14175156
4	0xbbb7dcdd	-0.0056110458

masterCategory.weight f4 [6, 128]
0	0xbe02842d	-0.12745734
1	0xbce7bb20	-0.02828747
2	0x3ca11bd6	0.019666594
3	0x3e3d0ef4	0.18462735
4	0xbe85b72a	-0.26116306
5	0xbd67c06e	-0.05658
6	0x3d73c645	0.059515256
7	0x3d8f863c	0.07008025
8	0x3de0fb79	0.109854646
9	0x3e39c36b	0.18140952
10	0xbc3fafb8	-0.011699609
11	0x3b9e7aae	0.004836402
12	0xbdf7177d	-0.12065027
13	0xbde931e7	-0.11386471
14	0xbddc9aab	-0.10771688
15	0xbccda465	-0.025102803
16	0xbe1b2baf	-0.15153383
17	0x3e0435f6	0.1291121
18	0xbe6de2ec	-0.23231095
19	0xbe407bcc	-0.18797225
20	0x3d91635d	0.0709903
21	0x3ce0bf34	0.027434923
22	0x3e00c6d4	0.12575847
23	0x3e1bbec3	0.15209489
24	0xbd580b5d	-0.052745212
25	0xbdbabe9e	-0.091183886
26	0xbdb494aa	-0.08817418
27	0x3ca088ef	0.019596545
28	0x3ca4ffc2	0.020141486
29	0xbe0b8893	-0.13626318
30	0x3e22ef9e	0.15911719
31	0x3dccb2ef	0.099950664
32	0xbe121f9a	-0.14269868
33	0x3d07eb87	0.0331836
34	0xbd8b3a3d	-0.067982174
35	0x3e51c018	0.20483434
36	0xbdfe33aa	-0.12412198
37	0xbde221fb	-0.110416375
38	0x3d056587	0.032567527
39	0xbe075626	-0.13216457
40	0x3db6244a	0.0889364
41	0x3e213ce8	0.1574589
42	0xbc848d8d	-0.016180778
43	0xbe0d0e4e	-0.13774988
44	0x3e01f024	0.12689263
45	0x3e2ff5c2	0.17183593
46	0x3cf30b9a	0.029668618
47	0xbce66893	-0.028126037
48	0x3da26d7a	0.07931037
49	0x3d69a29a	0.057039835
50	0x3dd84ccf	0.10561525
51	0xbd84adcb	-0.06478461
52	0x3db5d0e5	0.08877734
53	0x3dc99611	0.09843076
54	0xbe5303bc	-0.20606893
55	0xbb70f479	-0.003676681
56	0xbdf1e255	-0.118107475
57	0xbcdce37a	-0.026963938
58	0x3b8ea60c	0.0043532904
59	0x3d256529	0.040379677
60	0xbdc0eec4	-0.09420541
61	0xbe283cc7	-0.16429435
62	0xbd7e9aa1	-0.062159184
63	0xbce38002	-0.027771
64	0xbde38926	-0.11110143
65	0xbe7e1a09	-0.24814619
66	0xbd8941b2	-0.067019835
67	0xbe822f16	-0.2542655
68	0xbda7522b	-0.08169969
69	0x3c116464	0.008874033
70	0x3dd2704b	0.102753244
71	0x3ebea466	0.372348
72	0xbdad88ec	-0.084733814
73	0x3e297e3f	0.16552065
74	0x3ddca798	0.107741535
75	0x3dec1b6f	0.1152867
76	0xbdff412e	-0.12463604
77	0xbd364c15	-0.04450615
78	0xbe41fbf4	-0.18943769
79	0x3dd15a4c	0.10222301
80	0x3df68e2d	0.12038837
81	0xbd8be232	-0.06830253
82	0x3e37e10f	0.17956947
83	0x3dbee436	0.093208715
84	0x3dfdb3b0	0.12387788
85	0x3d22e72d	0.039771248
86	0xbe3b867d	-0.18313022
87	0xbd97cd05	-0.07412151
88	0xbce18065	-0.027527044
89	0x3d0ca676	0.034338437
90	0xbdc5e998	-0.09663695
91	0x3df28810	0.11842358
92	0x3df8d7cd	0.12150536
93	0xbe7c9f3e	-0.24670121
94	0x3bd002ef	0.006348006
95	0x3de60766	0.1123188
96	0xbdb46044	-0.08807424
97	0x3e5c207f	0.21496771
98	0xbdfc94e5	-0.12333087
99	0xbd8acac5	-0.067769565
100	0x3d66f59f	0.056386586
101	0xbd3f56b3	-0.046713542
102	0xbe197cfc	-0.14989084
103	0xbe87886e	-0.26471275
104	0xbe4fad66	-0.2028099
105	0x3dcb98fc	0.09941289
106	0xbde0a31a	-0.10968609
107	0x3dc707d6	0.097182915
108	0xbe887c1b	-0.26657185
109	0x3d3accec	0.045605585
110	0xbe101810	-0.14071679
111	0x3ebc5726	0.3678524
112	0x3dcac0b7	0.09900039
113	0x3d9964c3	0.07489922
114	0xbdc3bd99	-0.09557647
115	0xbe1476d8	-0.1449846
116	0xbd3f58b1	-0.046715442
117	0x3e0bc045	0.13647564
118	0x3bbb6a8a	0.0057194876
119	0x3e1bfa00	0.15232086
120	0xbcc6d8af	-0.024273245
121	0x3e73d90a	0.23813263
122	0xbcfb0fb3	-0.030647134
123	0xbe428717	-0.18996845
124	0xbde5cf7e	-0.112212166
125	0xbe2a7deb	-0.16649596
126	0xbdd5c146	-0.104372546
127	0xbc79bdec	-0.015243035
128	0x3d60d1cb	0.054887574
129	0xbe3b3bfa	-0.18284598
130	0x3cea08f3	0.02856872
131	0xbe688fef	-0.22711156
132	0x3e9928f2	0.2991405
133	0xbc49a9fd	-0.012308595
134	0xbe20b8d6	-0.1569551
135	0x3df76262	0.12079312
136	0xbe6c56b3	-0.23079948
137	0xbdc031e1	-0.09384514
138	0x3dfea17b	0.12433144
139	0xbd8a361b	-0.06748601
140	0x3e15d2bb	0.14631169
141	0x3e947bed	0.29000798
142	0x3e443648	0.19161332
143	0x3d31b4fd	0.043385495
144	0x3e272265	0.16321714
145	0xbd4c9957	-0.049950924
146	0x3cb49fa7	0.022048784
147	0x3ea55695	0.3229262
148	0xbec0d1df	-0.3766012
149	0xbe7f9520	-0.2495923
150	0xbd7cfc77	-0.061764207
151	0xbdffe897	-0.12495535
152	0x3c70698f	0.014673605
153	0x3e47b511	0.19502665
154	0x3dd8272e	0.10554348
155	0xbdb92e7f	-0.090420716
156	0xbe9bf570	-0.3046069
157	0x3d0262f1	0.03183264
158	0xbe58c715	-0.21169694
159	0xbdad0118	-0.08447474
160	0x3e0612f6	0.1309317
161	0xbc417d24	-0.011809621
162	0x3e87c3d7	0.265166
163	0x3df16450	0.11786711
164	0x3dfb2179	0.12262244
165	0x3da4614b	0.0802637
166	0x3d2b70b2	0.04185552
167	0x3e197be1	0.14988662
168	0xbd7df72e	-0.062003307
169	0xbe4d34de	-0.20039698
170	0xbe1de71c	-0.15420192
171	0xbd7f644f	-0.06235152
172	0xbdfa2ef6	-0.12215988
173	0xbe03fc60	-0.12889242
174	0x3c3c574b	0.011495422
175	0x3d9b36b6	0.07578795
176	0xbae022c1	-0.0017100201
177	0xbdf06188	-0.117373526
178	0x3ca07ce0	0.019590795
179	0x3bd53abc	0.006507246
180	0xbdeb12ea	-0.11478217
181	0xbef121e1	-0.4709616
182	0x3e5eb89b	0.21750109
183	0x3dcaea8a	0.09908016
184	0x3e0f2c72	0.13981798
185	0xbe083f69	-0.13305439
186	0xbd35bf49	-0.044371877
187	0x3cbb4d7b	0.022864094
188	0x3de9b91b	0.11412259
189	0x3e804348	0.25051332
190	0xbc4a63a9	-0.012352862
191	0x3db5c23b	0.08874937
192	0xbef8804d	-0.48535386
193	0x3e9435ff	0.28947446
194	0x3c70a3ec	0.0146875195
195	0x3cfae60e	0.030627277
196	0x3c50d2cc	0.01274557
197	0x3b89c917	0.00420488
198	0xbde78785	-0.11305145
199	0xbf012e1e	-0.50460994
200	0x3e00ecbd	0.12590308
201	0xbd9609b7	-0.07326072
202	0xbe3b6d8a	-0.18303505
203	0x3d75b503	0.05998708
204	0x3dafadc2	0.085780635
205	0x3e9887ea	0.29791194
206	0xbe3b182f	-0.18270944
207	0x3c09ca7a	0.008410091
208	0xbe25a9b8	-0.16178024
209	0x3daee083	0.08538916
210	0xbd6f2ba1	-0.058391217
211	0xbcbe980e	-0.023265865
212	0x3b61a098	0.0034427997
213	0xbe54cd4c	-0.2078144
214	0x3e86cdc9	0.26328877
215	0x3c2b4598	0.010453604
216	0x3cad3f17	0.021148248
217	0x3d935c10	0.07195294
218	0xbe5b3798	-0.21407926
219	0x3bf0ff10	0.0073546246
220	0x3d45080b	0.048103373
221	0x3e38dd7d	0.18053241
222	0x3d0a3f65	0.033751864
223	0xbdf126ae	-0.11774956
224	0x3e16e630	0.14736247
225	0xbebab433	-0.36465606
226	0x3dbbcd49	0.091700144
227	0xbd05f8d1	-0.032707993
228	0xbd1b12bf	-0.037859675
229	0x3ce083fc	0.027406685
230	0x3e87f0ea	0.2655099
231	0x3e42a87d	0.19009586
232	0xbe2dc9c6	-0.16971502
233	0xbdd29e68	-0.1028412
234	0xbe062944	-0.13101679
235	0xbe099835	-0.13436969
236	0x3dcb61ac	0.09930739
237	0x3db3e89a	0.087845996
238	0x3daf2d44	0.085535556
239	0xbec04c23	-0.37558088
240	0xbda71ae1	-0.081594236
241	0xbdd38557	-0.10328167
242	0xbc9fc8fd	-0.019505018
243	0xbd320d4b	-0.04346971
244	0x3d0d5bc0	0.034511328
245	0xbb687568	-0.003547037
246	0xbd5e58be	-0.05428385
247	0x3c2bdec8	0.010490127
248	0xbbec1f83	-0.007205905
249	0xbe262f7e	-0.16229054
250	0x3d4d4739	0.05011675
251	0x3d778dca	0.060437955
252	0xbd36a3b1	-0.044589702
253	0xbc803227	-0.015648915
254	0x3dbd48fc	0.09242436
255	0xbe4f0470	-0.20216537

masterCategory.bias f4 [6]
0	0xbd0f7bcb	-0.035030168
1	0x3daf571c	0.08561537
2	0xbd0b7847	-0.034050252
3	0xbe2941bb	-0.1652898
4	0x3dc0901d	0.094024874
5	0x3dcde56e	0.10053526

subCategory.weight f4 [37, 128]
0	0xbe3f718a	-0.18695655
1	0x3e16c329	0.14722885
2	0xbec9c159	-0.39405325
3	0xbe9f6163	-0.31128988
4	0xbe89182e	-0.2677626
5	0xbd9b7775	-0.07591144
6	0xbd80235e	-0.06256746
7	0xbe5a096b	-0.21292655
8	0xbe262dfc	-0.16228479
9	0x3df1cf3c	0.11807105
10	0xbf02e414	-0.5112927
11	0x3b418aa5	0.0029532101
12	0xbeeb84cc	-0.45999753
13	0xbdf9c7d8	-0.1219632
14	0xbcf0c4df	-0.02939075
15	0xbe56fbdb	-0.20994513
16	0xbd73cbab	-0.059520405
17	0xbd5bb8b2	-0.053642936
18	0x37b3cffa	2.143531e-05
19	0xbde233e5	-0.11045054
20	0x3e00c95a	0.1257681
21	0xbd1a039e	-0.037601106
22	0xbe447fdb	-0.19189398
23	0xbe20acdd	-0.15690942
24	0xbdfa32c2	-0.122167125
25	0xbc5eecb8	-0.013606243
26	0xbdb78323	-0.08960559
27	0x3bd99454	0.0066399965
28	0xbd2dbac6	-0.04241445
29	0xbe5e3997	-0.21701656
30	0x3d74dcc1	0.05978084
31	0xbc8b2388	-0.016984716
32	0xbec8884a	-0.3916648
33	0xbd70ecf7	-0.058819737
34	0xbe4793f2	-0.1949003
35	0xbeb7d39d	-0.35903636
36	0xbe84eecb	-0.25963435
37	0xbd6c7b6b	-0.057734888
38	0x3d82a7aa	0.06379636
39	0xbe45733a	-0.19282237
40	0xbda0c468	-0.078499615
41	0xbf09b5e0	-0.53793144
42	0xbd9d8217	-0.07690828
43	0x3d6a0f42	0.057143457
44	0x3e0c0e29	0.13677277
45	0xbbb76187	-0.005596343
46	0x3d13ebe8	0.03611365
47	0xbe180aa1	-0.14847805
48	0xbdae2504	-0.08503154
49	0x3c8dea07	0.017323507
50	0x3d95298c	0.07283315
51	0xbcc818dc	-0.024425916
52	0x3e019e67	0.12658082
53	0x3e032e19	0.12810554
54	0xbebcf94a	-0.36908942
55	0xbcbfe909	-0.02342655
56	0xbe0dac20	-0.13835192
57	0x3e4c7c55	0.19969304
58	0x3dc526ac	0.09626517
59	0xbcc73d4c	-0.02432122
60	0xbe280f0f	-0.16411994
61	0xbf219c5d	-0.63129216
62	0xbe772a5b	-0.24137251
63	0x3c76bef3	0.015060174
64	0x3cb21b7b	0.02174162
65	0xbec2b177	-0.3802602
66	0xbeee86d3	-0.46587238
67	0xbe2f435c	-0.1711554
68	0xbd75586a	-0.05989877
69	0xbd55d7cc	-0.052207753
70	0x3d4346a8	0.047674805
71	0xbe8fdbc4	-0.28097355
72	0xbe1d48dd	-0.15359826
73	0xbcfd374c	-0.030910157
74	0x3cbd7790	0.0231283
75	0x3d2cd0ee	0.04219144
76	0xbd4185be	-0.047246687
77	0xbf159fcd	-0.5844696
78	0xbd779352	-0.06044323
79	0x3d6dde3f	0.05807328
80	0xbdc209cb	-0.09474524
81	0xbd1616f4	-0.036642984
82	0x3de20c6d	0.11037526
83	0x3d8b7fb8	0.0681147
84	0xbe897b39	-0.26851824
85	0x3dda5c83	0.106621765
86	0xbdb21026	-0.08694486
87	0xbe82dba2	-0.25558192
88	0x3dba3c1a	0.09093495
89	0x3deb9f78	0.115050256
90	0xbd82c65f	-0.063854925
91	0xbd0cdc94	-0.034390047
92	0x3e03e344	0.12879664
93	0xbf194c51	-0.59882075
94	0xbe792c37	-0.24333273
95	0xbe120b2c	-0.14262074
96	0x3dbf9507	0.093545966
97	0x3c5553af	0.01302044
98	0x3e005c36	0.12535176
99	0xbc8ee8f4	-0.017445065
100	0xbb1b4ff5	-0.002369878
101	0x3c9631c7	0.018334283
102	0xbf1cca55	-0.61246234
103	0xbd49031d	-0.049075235
104	0xbec4b26b	-0.38417372
105	0xbd784eda	-0.060622074
106	0xbdffdc94	-0.12493244
107	0xbb695200	-0.0035601854
108	0xbe6e0783	-0.23245053
109	0xbe62b29c	-0.22138447
110	0x3d542da0	0.051801324
111	0xbe02abc9	-0.12760843
112	0x3dbad877	0.09123319
113	0x3d1bb031	0.038009826
114	0xbdb8cd2d	-0.09023509
115	0xbd790860	-0.060799003
116	0xbab31654	-0.001366327
117	0x3e318df1	0.17339303
118	0xbed0b6e9	-0.4076455
119	0xbddd8de8	-0.10818082
120	0x3e24e76a	0.16103902
121	0x3e05c77c	0.13064378
122	0xbd875d73	-0.06609621
123	0x3dbca2d5	0.09210745
124	0xbc301aaa	-0.010748545
125	0xbe8d152f	-0.27555224
126	0xbe958bc6	-0.292082
127	0xbe22c314	-0.15894729
128	0x3d848c98	0.06472129
129	0xbdb5b1fa	-0.08871837
130	0xbe349885	-0.17636307
131	0xbe88ae30	-0.26695395
132	0xbf8a6dc6	-1.081475
133	0xbd458c28	-0.048229367
134	0x3e212e5f	0.15740345
135	0x3e2b5e46	0.16735181
136	0xbd62f7d9	-0.055412147
137	0xbd65d5cb	-0.056112092
138	0x3ddb09e8	0.10695249
139	0xbf0e82de	-0.5566844
140	0x3d54e99d	0.051980603
141	0xbe7c214d	-0.24622078
142	0x3df9cd97	0.12197416
143	0xbe55a55c	-0.20863861
144	0x3dd5e7b1	0.10444582
145	0xbd97fcd2	-0.074212685
146	0x3a8f0f1f	0.0010914541
147	0xbe8ddea7	-0.27708933
148	0xbe0c99e6	-0.13730583
149	0xbca1330d	-0.019677663
150	0x3e0393c9	0.12849344
151	0xbd69f8a8	-0.057121903
152	0xbce2c91c	-0.027683787
153	0x3e279374	0.16364843
154	0xbea6e1fc	-0.32594287
155	0x3a89ded8	0.0010518683
156	0xbe31e884	-0.17373854
157	0x3d3736a6	0.04472985
158	0xbdb24ce7	-0.08706074
159	0xbea8a821	-0.32940772
160	0xbdb090a4	-0.08621338
161	0xbd854d6a	-0.06508906
162	0x3e3c40ee	0.18384144
163	0xbe4ea060	-0.20178366
164	0xbcadf8c9	-0.021236794
165	0x3e743c30	0.23851085
166	0xbe28f94d	-0.1650135
167	0x3c18c1c0	0.009323537
168	0x3d3e4a9c	0.04645787
169	0xbea4fce5	-0.32224193
170	0x3ce913fc	0.028451912
171	0xbdbdef55	-0.092741646
172	0xbdcc17a1	-0.09965444
173	0x3c74d0b4	0.014942337
174	0x3d650a3f	0.055917975
175	0x3db8e575	0.090281405
176	0xbdb96f85	-0.09054474
177	0xbc077c13	-0.008269328
178	0xbda594d4	-0.08085027
179	0x3ddeb17f	0.108736984
180	0xbe857801	-0.26068118
181	0xbec91e60	-0.39280987
182	0xbe9de8c3	-0.30841646
183	0xbef4f4eb	-0.47843108
184	0x3e575e3c	0.21032041
185	0xbd26ce2e	-0.040723972
186	0x3df76642	0.12080051
187	0xbd36c045	-0.044616956
188	0xbcd9f3c1	-0.026605489
189	0xbc69bd25	-0.014266287
190	0xbdb8ef5e	-0.09030031
191	0xbe5855dc	-0.21126503
192	0xbe68b6d1	-0.22725989
193	0x3dd56580	0.1041975
194	0x3cc6f65b	0.024287393
195	0xbda3e0f7	-0.08001893
196	0xbe3a8047	-0.18212996
197	0xbc443839	-0.011976295
198	0xbab92cda	-0.0014127747
199	0xbf0eaf0f	-0.5573587
200	0x3d804a84	0.06264213
201	0xbd8c8812	-0.06861891
202	0xbe49621b	-0.1966633
203	0xbe06d6ff	-0.13167952
204	0x3d08ab04	0.03336622
205	0xbe7047da	-0.23464909
206	0xbd0f2a88	-0.03495267
207	0xbd407f36	-0.046996318
208	0x3dc80bc6	0.097678706
209	0x3d3e335e	0.046435706
210	0xbd22d1cd	-0.039750863
211	0xbea49b7c	-0.32149875
212	0x3da09c41	0.07842303
213	0xbbba8012	-0.0056915367
214	0xbdca9239	-0.09891171
215	0x3dcb3714	0.09922615
216	0xbeaed57d	-0.34147254
217	0xbebb0814	-0.365296
218	0xbe60bc0a	-0.21946731
219	0xbc260c43	-0.010134759
220	0xbe6a4a3d	-0.22879882
221	0xbebaf35b	-0.3651379
222	0xbda87f35	-0.08227388
223	0xbe3a3a47	-0.18186294
224	0xbd2a5c00	-0.041591644
225	0x3c45de90	0.012076989
226	0xbebf499a	-0.3736084
227	0xbbbba4c8	-0.0057264306
228	0xbdabb4a4	-0.08384064
229	0x3d8dc5a6	0.06922464
230	0x3d43fa7d	0.047846306
231	0x3d14aa02	0.036294945
232	0x3c1a9be7	0.009436584
233	0xbe63d065	-0.22247465
234	0xbe097a1d	-0.13425489
235	0xbced9ab3	-0.02900443
236	0xbe8f739d	-0.28017893
237	0x3e68c42d	0.22731085
238	0xbe03b0d0	-0.12860417
239	0xbe654f0c	-0.22393435
240	0xbe3813a7	-0.17976247
241	0xbe2543e9	-0.16139187
242	0xbbe07fe8	-0.006851185
243	0xbe0bfca3	-0.13670592
244	0xbe1c2c2d	-0.15251227
245	0xbd177819	-0.03697977
246	0x3da60fd3	0.08108487
247	0xbead3c3b	-0.33835015
248	0xbe0592eb	-0.13044326
249	0xbe113cef	-0.141834
250	0xbd34c1b6	-0.04413005
251	0xbf283004	-0.65698266
252	0xbe5c071b	-0.21487086
253	0xbe0001a9	-0.12500633
254	0xbe492f13	-0.19646864
255	0xbcc3deb7	-0.02390991

subCategory.bias f4 [37]
0	0xbdb15628	-0.08659011
1	0xbce80a34	-0.028325178
2	0x3dad1d09	0.08452804
3	0xbd2a2fc5	-0.041549463
4	0xbd6f56a4	-0.058432236
5	0xbd7eb9ef	-0.06218904
6	0xbd9eeca9	-0.07759983
7	0x3cce375c	0.025172882
8	0x3ca3183f	0.019909022
9	0xbdd91969	-0.1060055
10	0x3dc8c7c5	0.09803728
11	0xbda45598	-0.08024138
12	0x3de8d5c0	0.113688946
13	0x3d0cd12c	0.03437917
14	0xbc951b86	-0.0182016
15	0xbd8b85bf	-0.068126194
16	0x3c54348d	0.012951982
17	0xbd9bcd96	-0.07607572
18	0x3c6a3751	0.014295415
19	0x3d4d9e55	0.050199825
20	0xbd75803c	-0.059936747
21	0xbdf22155	-0.11822764
22	0x3dcd8855	0.10035769
23	0xbd8f3f58	-0.06994504
24	0xbd0588f5	-0.032601316
25	0xbc6092b1	-0.013706849
26	0x3d7f06f5	0.062262494
27	0x3ddc2969	0.10750086
28	0x3dc4f0df	0.09616255
29	0xbd010f1e	-0.031508557
30	0x3e320ea3	0.17388396
31	0xbc7d9dc2	-0.015479507
32	0xbcd2130a	-0.025643844
33	0x3d86bc0c	0.06578836
34	0xbcb70927	-0.022343231
35	0x3ddfae91	0.10921968
36	0x3d526cf8	0.051373452

articleType.weight f4 [103, 128]
0	0xbe60cda0	-0.2195344
1	0x3e137e3c	0.14403623
2	0xbe844a19	-0.25837782
3	0xbe5ffc06	-0.21873483
4	0xbe0ffe43	-0.14061837
5	0xbda4b731	-0.080427535
6	0xbd7328c3	-0.059365045
7	0xbe1910f2	-0.1494787
8	0xbe9d4759	-0.30718496
9	0x3e808862	0.25104052
10	0xbe866fa9	-0.26257065
11	0x3d41b52b	0.047291916
12	0xbf3b16a9	-0.7308145
13	0xbe5614a0	-0.20906305
14	0x3da9cb76	0.0829076
15	0xbe279004	-0.16363531
16	0xbecb47e1	-0.39703277
17	0xbec63d81	-0.387188
18	0xbf3af474	-0.73029256
19	0xbf762d00	-0.96162415
20	0x3deb10b7	0.114777975
21	0xbbe0637c	-0.006847797
22	0xbf0f71e4	-0.5603316
23	0xbe4e3cdb	-0.20140402
24	0xbdc97480	-0.09836674
25	0xbe26c6dc	-0.16286796
26	0x3dcb686d	0.09932027
27	0xbefd996d	-0.49531117
28	0x3d334687	0.043768432
29	0xbe9370a4	-0.28796875
30	0x3d732fba	0.059371687
31	0xbe7a475a	-0.24441281
32	0xbf3396b5	-0.70151836
33	0x3b17eb37	0.002318097
34	0xbe33b5ca	-0.17549816
35	0xbddf2785	-0.108962096
36	0xbe01ed45	-0.12688167
37	0xbf3afab0	-0.7303877
38	0x3dc70632	0.097179785
39	0xbea1fe83	-0.3163949
40	0xbe677faf	-0.22607301
41	0xbec3bae4	-0.38228524
42	0xbd89fadf	-0.06737303
43	0xbd9d89a7	-0.07692271
44	0xbd861cb3	-0.06548443
45	0xbca595c2	-0.020213012
46	0xbe3662dc	-0.1781115
47	0xbe4bc895	-0.19900735
48	0xbe1f5d98	-0.15563047
49	0xbda38481	-0.079842575
50	0x3da6cbac	0.08144316
51	0xbe2a0647	-0.16603957
52	0x3e44d33d	0.19221206
53	0x3e0b38af	0.13595842
54	0xbf11f650	-0.5701647
55	0x3d86f98d	0.06590567
56	0xbeb3f30e	-0.35146374
57	0x3e41d8e5	0.18930395
58	0xbf0c3f2b	-0.54783887
59	0x3d90eb3d	0.07076118
60	0xbe1969b9	-0.14981736
61	0xbf84f42e	-1.0387018
62	0xbe2d35c6	-0.16915044
63	0x3d4e650e	0.050389342
64	0x3cda79e1	0.026669445
65	0xbf25737a	-0.6462933
66	0xbef4c5af	-0.4780707
67	0xbedf6d04	-0.4363786
68	0xbd8310b8	-0.06399673
69	0x3dcec026	0.10095243
70	0xbe5b7065	-0.21429594
71	0xbdfed916	-0.124437496
72	0xbe2ecc09	-0.1707002
73	0xbd8e0a90	-0.069356084
74	0xbe6362bd	-0.22205634
75	0xbe422255	-0.18958409
76	0xbde4bcba	-0.11168809
77	0xbeb60cd0	-0.3555665
78	0xbe0ee2ff	-0.1395378
79	0xbd7c92ed	-0.061663557
80	0xbe8643c1	-0.26223567
81	0xbce38dd4	-0.02777759
82	0xbd43cefe	-0.047804825
83	0x3ddfa7be	0.10920666
84	0xbe5e336a	-0.216993
85	0xbebcf9a5	-0.36909214
86	0xbcae9f76	-0.021316271
87	0xbe7be6c4	-0.24599749
88	0x3e203267	0.15644227
89	0x3d5aa727	0.053382065
90	0xbe432622	-0.19057515
91	0xbd923d6d	-0.07140622
92	0x3dfc9a09	0.123340674
93	0xbe8a736b	-0.27041182
94	0xbe08b2a4	-0.13349396
95	0xbe3f33ce	-0.18672106
96	0x3e2eca4e	0.1706936
97	0xbe5bc3ba	-0.21461383
98	0x3e2814d8	0.16414201
99	0xbd4094c1	-0.047016863
100	0xbd68102b	-0.056656044
101	0xbcad3990	-0.021145612
102	0xbea35c58	-0.3190639
103	0xbeb9db90	-0.36300325
104	0xbe57a19a	-0.2105774
105	0xbbd39344	-0.0064567644
106	0xbd11e7c0	-0.035621405
107	0xbe5f1120	-0.21783876
108	0xbe546600	-0.20742035
109	0xbf1cd604	-0.6126406
110	0x3cac643c	0.02104389
111	0xbe5d5793	-0.21615438
112	0x3e0ed4ea	0.13948408
113	0xbd4dcc4b	-0.050243657
114	0x3d5925f2	0.053014703
115	0xbe4a4bce	-0.1975548
116	0x3d9cf264	0.0766342
117	0x3e194352	0.14967087
118	0xbe1be8a1	-0.1522546
119	0xbde0ee5e	-0.10982965
120	0xbdcb2d95	-0.099208035
121	0x3d6a6d90	0.057233393
122	0xbd90342d	-0.07041202
123	0x3dfe1325	0.12405995
124	0xbc10c9a3	-0.008837136
125	0xbda5f1e7	-0.0810278
126	0xbe9369d9	-0.28791693
127	0xbf0ad6a3	-0.5423376
128	0x3e29395e	0.1652579
129	0xbefda9fe	-0.49543756
130	0x3d4659f1	0.04842562
131	0xbdb245fc	-0.08704755
132	0xbf23634d	-0.63823396
133	0x3ceb7901	0.028744223
134	0xbf04fcdc	-0.5194833
135	0xbd0b326a	-0.033983625
136	0xbe0a1988	-0.13486302
137	0x3cee07df	0.029056488
138	0xbe52f66a	-0.20601812
139	0xbe5c93bf	-0.21540736
140	0xbe59a48d	-0.21254177
141	0xbcc2f42f	-0.023798076
142	0xbf0c588f	-0.5482263
143	0xbd015297	-0.031572904
144	0xbd70af18	-0.058760732
145	0xbcd3ba8d	-0.02584579
146	0x3d5c93bb	0.053851824
147	0x3cf90eee	0.030402627
148	0xbdee7538	-0.116434515
149	0x3df1269c	0.11774942
150	0xbe2e132b	-0.169995
151	0xbea51450	-0.3224206
152	0xbdb458c9	-0.08805997
153	0x3d153b3d	0.036433447
154	0xbd761804	-0.060081497
155	0xbe30b594	-0.17256767
156	0x3be30ab4	0.006928766
157	0xbe58e977	-0.2118281
158	0xbf9e2602	-1.2355349
159	0xbe66d1e1	-0.22541
160	0xbd803562	-0.06260182
161	0x3df43978	0.11925024
162	0xbe246879	-0.16055478
163	0xbe2f6f43	-0.17132287
164	0x3d7dcffb	0.061965924
165	0xbea2214f	-0.31666037
166	0xbe329c99	-0.1744255
167	0xbcaf30d8	-0.021385595
168	0xbefcc844	-0.4937154
169	0xbf205d79	-0.6264263
170	0xbd976c4e	-0.07393704
171	0x3c2f8840	0.010713637
172	0xbe58ce60	-0.21172476
173	0xbe5121df	-0.20423077
174	0xbe0d3151	-0.13788344
175	0xbc9b91f3	-0.018990492
176	0xbc819f5f	-0.015823064
177	0xbd07eebc	-0.03318666
178	0xbee884de	-0.4541387
179	0xbe0437da	-0.1291193
180	0xbe498a1c	-0.19681591
181	0xbf74f70a	-0.9568945
182	0x3d9cf39f	0.076636545
183	0xbd88df72	-0.06683244
184	0xbe1dae5b	-0.15398543
185	0xbda3164c	-0.07963237
186	0xbf4d0b99	-0.8009582
187	0xbd486877	-0.04892775
188	0xbe471313	-0.1944087
189	0xbd806487	-0.06269174
190	0xbe45ae03	-0.19304661
191	0xbe1fb3fe	-0.15596005
192	0x3d516c15	0.051128466
193	0xbde3f2ab	-0.111302696
194	0xbcc78a7d	-0.024358029
195	0xbd808092	-0.06274523
196	0xbced8e13	-0.02899841
197	0xbe857ef9	-0.26073435
198	0xbd9c6ab6	-0.07637541
199	0xbd939738	-0.07206577
200	0x3e065a25	0.13120325
201	0xbb326bf6	-0.0027224994
202	0xbf3b819f	-0.7324466
203	0xbd9194f8	-0.07108492
204	0x3d9a2ce0	0.075280905
205	0xbd1161c7	-0.03549364
206	0x3d03ab3b	0.03214572
207	0xbf0e98a8	-0.55701685
208	0xbebe4108	-0.3715899
209	0xbd9dc5f8	-0.07703775
210	0xbb1d84df	-0.0024035496
211	0xbe9c827a	-0.30568296
212	0xbd2c772c	-0.04210584
213	0x3ce3f3bd	0.027826184
214	0x3d96aeec	0.073575824
215	0xbd7e2b4c	-0.06205301
216	0x3d9e7b99	0.07738418
217	0xbbc76ffa	-0.0060863467
218	0x3d0b5306	0.034014724
219	0xbd4809b7	-0.04883739
220	0xbe45143a	-0.19245997
221	0x3d908593	0.07056727
222	0xbef632d9	-0.4808567
223	0xbae219d5	-0.001725013
224	0x3e13ba9b	0.14426653
225	0xbc966edf	-0.018363414
226	0xbe0ee623	-0.13954978
227	0x3d4f965e	0.05068051
228	0xbdaaf19f	-0.08346867
229	0xbd22d40a	-0.039752997
230	0xbe49bf4c	-0.1970188
231	0xbd17a30d	-0.03702073
232	0xbdc4fe13	-0.09618773
233	0x3db4ee17	0.088344745
234	0xbd9dc083	-0.07702734
235	0xbfbf1c1b	-1.4930452
236	0xbf1e8419	-0.61920315
237	0xbe32a14a	-0.1744434
238	0xbdcc72bd	-0.09982822
239	0xbe2f251c	-0.17104
240	0xbdefa9cd	-0.11702309
241	0xbea714b7	-0.32632992
242	0xbe850c61	-0.25986007
243	0x3d7ee8df	0.062233802
244	0xbe63f822	-0.22262624
245	0xbd82d8b9	-0.06388993
246	0xbd9e429b	-0.07727548
247	0x3cf55274	0.029946543
248	0x3c79231c	0.015206125
249	0xbf942490	-1.1573658
250	0xbdd82fc6	-0.10555987
251	0xbe4a3d97	-0.19750057
252	0xbec3ab66	-0.38216704
253	0x3dca44ba	0.0987639
254	0xbe690ca7	-0.22758733
255	0xbe8b4b2d	-0.27205792

articleType.bias f4 [103]
0	0xbd3d9279	-0.046282265
1	0xbd20b17e	-0.03923177
2	0xbde6c636	-0.112682745
3	0x3d27300c	0.040817305
4	0x3e4cdae2	0.20005372
5	0x3d795137	0.060868468
6	0xbddd3e45	-0.108028926
7	0x3e180c6a	0.14848486
8	0x3d11ae69	0.03556672
9	0xbda9283a	-0.08259626
10	0xbd06c7a9	-0.032905255
11	0xbd4cbcba	-0.04998467
12	0x3d425ae4	0.04744996
13	0xbd8aa618	-0.06769961
14	0x3d192a41	0.037393812
15	0xbd976270	-0.07391822
16	0x3e0a9f6b	0.13537376
17	0xbd937a50	-0.07201064
18	0x3d1016b4	0.0351779
19	0xbcda72d7	-0.026666088
20	0x3e057bfa	0.13035575
21	0xbdb51096	-0.08841054
22	0x3d44e465	0.048069376
23	0xbd4e396f	-0.05034774
24	0x3d7cb87c	0.061699376
25	0xbd5ac981	-0.053414825
26	0x3e46a1b1	0.19397618
27	0xbcc57356	-0.024102848
28	0x3cad87b0	0.021182865
29	0xbd79b01b	-0.060958963
30	0xbcca3200	-0.024682045
31	0xbced6fb9	-0.028983938
32	0xbd18c840	-0.03730035
33	0xbb250745	-0.0025181335
34	0xbbd382c7	-0.006454799
35	0xbd22fbcd	-0.039790917
36	0x3c695583	0.014241579
37	0xbd1ffc44	-0.03905894
38	0x3cab10c2	0.020882014
39	0x3dae6558	0.085154235
40	0x3b942bd6	0.004521827
41	0xbdecc894	-0.11561695
42	0x3b7e9a75	0.0038849388
43	0xbc6fa85f	-0.014627545
44	0xbcded852	-0.027202759
45	0x3def1bac	0.116752
46	0x3c66c60b	0.014085303
47	0x3d8e3ca8	0.06945163
48	0xbd804deb	-0.06264862
49	0x3cf9d857	0.030498667
50	0xbd129b97	-0.035792913
51	0x3c879a67	0.016553117
52	0xbc71dba8	-0.014761843
53	0xbc895ffd	-0.016769404
54	0x3d7659e5	0.060144324
55	0x3d7e7b78	0.062129468
56	0x3d11acbd	0.035565127
57	0x3db855e6	0.09000759
58	0x3de38cbd	0.11110828
59	0xbb213e4b	-0.002460378
60	0x3d10cef9	0.035353635
61	0xbd26d753	-0.040732693
62	0xbda3a751	-0.079908974
63	0xbd2b95ec	-0.041891024
64	0xbd8ba28f	-0.06818115
65	0x3e109400	0.14118958
66	0x3cc5aa60	0.024129093
67	0xbb5ce3fd	-0.0033705228
68	0xbd807cef	-0.06273829
69	0x3d853a0d	0.06505213
70	0x3da0d982	0.07853986
71	0xbd36a295	-0.044588644
72	0xbd5030bd	-0.05082773
73	0x3dbe66f4	0.092969805
74	0x3da53131	0.08066023
75	0xbdd360f8	-0.1032123
76	0x3cd752f5	0.026284674
77	0xbdc5dbe4	-0.096610814
78	0xbcda2170	-0.026627272
79	0xbab6d4fb	-0.0013948971
80	0xbddf7e77	-0.10912793
81	0xbd273cdf	-0.040829536
82	0xbd1f9dfe	-0.038969032
83	0xbcfccd75	-0.030859688
84	0xbd216429	-0.03940216
85	0x3e2e138b	0.16999643
86	0xbb69319a	-0.0035582543
87	0xbd785107	-0.06062415
88	0x3dea685d	0.11445687
89	0x3c82c669	0.01596375
90	0x3d5b4cb4	0.053539947
91	0x3d18be12	0.03729064
92	0xbd153f9a	-0.03643761
93	0x3de5ce78	0.112210214
94	0x3dc52709	0.09626586
95	0x3d41e6f6	0.047339402
96	0xbd6e7e28	-0.05822578
97	0xbd35eb5b	-0.044413906
98	0x3b0a7801	0.0021128657
99	0x3e02728a	0.12739006
100	0x3cb7e029	0.022445755
101	0x3e086f97	0.13323818
102	0x3d391bb2	0.045192428
