data/models/fashion/smallmodel/1/checkpoint_last.pt (torch, 768191 bytes, 16 tensors)

linear1.weight f4 [256, 512]
-0.028340966 -0.029851848 -0.06730719 -0.024722587 -0.039705817 -0.08422794 0.047618814 -0.076917104
0.01403634 -0.017581062 0.011253763 -0.098716326 -0.06114471 0.021409215 0.0016693332 0.021019422
0.0032750308 -0.025581373 -0.047990516 -0.031605646 0.026529832 -0.063995436 -0.017040394 0.065933555
-0.046110366 0.022185046 -0.03152958 -0.010833208 0.016671592 0.07590294 0.00140492 0.03974264
0.009682217 0.010578771 -0.03666427 -0.056731172 0.006781975 0.0004766292 -0.010973791 -0.0054388493
-0.0019352578 0.089607626 -0.0074969595 0.028251098 -0.051593836 0.008926705 -0.08001355 -0.047651447
-0.050051853 0.05748596 0.057210762 0.009276186 -0.034299664 -0.09014186 0.004435864 -0.012265298
-0.091485865 0.02133501 0.060707763 -0.0057610758 -0.046960495 0.08837727 -0.08060872 -0.013705682
0.029855613 -0.026984755 -0.0033866258 0.07097873 0.0024123152 -0.026347492 0.0012576365 -0.05694141
0.031983964 -0.07639174 0.031063698 0.06247153 -0.026194958 -0.018884936 -0.030554613 0.029778548
-0.018528245 0.06865484 0.044260986 0.05192754 -0.08305577 -0.043191534 0.0040487736 -0.026773375
0.049120933 0.06955361 -0.05978821 0.028382964 0.07276021 -0.029493332 -0.03468872 -0.07482065
-0.054827698 0.012074771 -0.043912828 -0.07107945 0.051912155 0.049057826 -0.060742564 0.010502538
-0.040573794 0.0007899762 0.016673088 -0.006931304 0.047361787 0.034244835 0.05696564 -0.0019331485
-0.008731404 0.023957027 -0.005564701 -0.009601335 0.008620689 -0.007416609 0.033757687 -0.017204983
0.004825151 0.02872934 0.0012541983 0.038934514 -0.0835982 0.008761829 -0.017820833 0.016645841
0.07719453 0.03840411 -0.07638414 0.0052628987 -0.06263721 -0.0007287632 0.046116866 -0.05409437
-0.07581425 -0.058646396 -0.033005938 0.012554286 -0.08017816 -0.0030745226 0.026874982 -0.00960798
0.0011904559 -0.0193812 0.1229171 -0.02337 -0.07603125 0.016600732 -0.04013039 0.02330807
0.011679746 -0.014356213 -0.0060863784 0.0789064 -0.0499846 -0.035751052 0.030696968 0.018909495
0.018021548 -0.026252035 -0.019515002 -0.039716583 0.06310853 -0.02171909 -0.015374796 -0.016013054
-0.025172247 -0.034906805 0.014492998 0.061296843 0.048720557 0.016308598 -0.06378772 0.0503211
-0.07299704 0.019667719 -0.066032335 0.05264412 0.00093625643 0.032914992 -0.025740597 0.028639067
0.071854115 -0.018469978 -0.048999682 0.049928278 0.025609102 -0.060232867 -0.014090904 0.0831171
-0.018817998 -0.050896775 -0.005431304 -0.049702816 0.045616906 0.0021944763 0.07541229 0.0031772975
0.108996764 -0.035224877 -0.036329415 0.038190976 -0.03896725 0.04646916 -0.0018633017 0.10470936
0.014919921 -0.0050377403 -0.052564085 -0.023343146 0.0061120875 0.040764783 0.05748596 0.021713424
-0.021181783 -0.027417567 -0.041401014 0.05227084 0.008010862 0.087451674 -0.0295418 -0.10795376
0.026327409 0.083190866 0.016160894 -0.047852345 -0.014777938 -0.05832475 -0.058474157 0.08619887
0.039665975 -0.053223923 0.05304425 -0.02089488 -0.01202086 0.024831366 0.058052886 0.008449118
0.04910959 -0.053051673 -0.062502205 0.040006813 0.013090269 0.079599656 0.054659195 -0.020605477
0.011123115 -0.036286026 0.011884952 0.038048644 0.08469115 0.05399365 -0.0502368 -0.066503115
00000000: 502b e8bc dd8b f4bc 5ad8 89bd 0687 cabc
00000010: 91a2 22bd b37f acbd f20b 433d b786 9dbd
00000020: adf8 653c 2906 90bc b461 383c c92b cabd
00000030: e072 7abd 6162 af3c 87cd da3a ec30 ac3c
00000040: e6a1 563b 0790 d1bc b491 44bd ec74 01bd
00000050: 1755 d93c 0a10 83bd 4c98 8bbc 2c08 873d
00000060: 39de 3cbd 6abd b53c 2925 01bd c57d 31bc
00000070: dd92 883c 0073 9b3d 4b25 b83a 2ec9 223d
00000080: 29a2 1e3c 9552 2d3c 462d 16bd f25e 68bd
00000090: 543b de3b 17e4 f939 6acb 33bc 6038 b2bb
000000a0: 7aa8 fdba 3484 b73d 0ea9 f5bb d96e e73c
000000b0: 0f54 53bd 5141 123c 25de a3bd 2a2e 43bd
000000c0: 2c03 4dbd 6676 6b3d d555 6a3d 25fb 173c
000000d0: ce7d 0cbd 4c9c b8bd b95a 913b 63f4 48bc
000000e0: f15c bbbd c2c6 ae3c b4a8 783d 68c7 bcbb
000000f0: a659 40bd 24ff b43d 2f16 a5bd cc8d 60bc
00000100: c293 f43c 220f ddbc 27f2 5dbb 4c5d 913d
00000110: ef17 1e3b b2d6 d7bc 47d7 a43a 653b 69bd
00000120: 9e01 033d 4673 9cbd 4c79 fe3c 26e2 7f3d
00000130: cf96 d6bc 95b4 9abc ab4d fabc 24f2 f33c
00000140: 8cc8 97bc e99a 8c3d 024b 353d f9b1 543d
00000150: 2519 aabd 9be9 30bd 93ab 843b d653 dbbc
00000160: 0833 493d 2072 8e3d 7be4 74bd 6483 e83c
00000170: 4e03 953d 009c f1bc c215 0ebd 923b 99bd
00000180: 0293 60bd 43d5 453c f0dd 33bd 1a92 91bd
00000190: d7a1 543d dcf0 483d 32cd 78bd d612 2c3c
000001a0: b530 26bd 6816 4f3a 0096 883c fe1f e3bb
000001b0: 6ffe 413d 5044 0c3d ce54 693d b361 fdba
000001c0: 2a0e 0fbc 8741 c43c 1858 b6bb eb4e 1dbc
000001d0: ca3d 0d3c 0707 f3bb 8045 0a3d 77f1 8cbc
000001e0: 4d1c 9e3b cb59 eb3c e963 a43a cc79 1f3d
000001f0: 8835 abbd c68d 0f3c fffc 91bc dc5c 883c
00000200: 2a18 9e3d a14d 1d3d 4a6f 9cbd 6574 ac3b
00000210: f047 80bd 780a 3fba 0ae5 3c3d 0f92 5dbd
00000220: 8044 9bbd 3437 70bd 3c31 07bd 7eb0 4d3c
00000230: 7234 a4bd ee7d 49bb ec28 dc3c ca6a 1dbc
00000240: 1209 9c3a 53c5 9ebc f6bb fb3d 7172 bfbc
00000250: 46b6 9bbd 42fe 873c c45f 24bd 91f0 be3c
00000260: 685c 3f3c 5236 6bbc 3e70 c7bb ae99 a13d
00000270: a7bc 4cbd b26f 12bd 3578 fb3c 16e8 9a3c
00000280: eda1 933c 820e d7bc eddd 9fbc dbad 22bd
00000290: 0c3f 813d 3cec b1bc 92e6 7bbc cf2d 83bc
000002a0: 0736 cebc 70fa 0ebd 0a74 6d3c 6612 7b3d
000002b0: 358f 473d 9c99 853c 23a3 82bd 7f1d 4e3d
000002c0: 797f 95bd 321e a13c f63b 87bd 5ca1 573d
000002d0: 1b6f 753a dfd1 063d f2dd d2bc 7a9c ea3c
000002e0: 4028 933d 5a4e 97bc e4b3 48bd 9881 4c3d
000002f0: 2eca d13c bdb6 76bd 89dd 66bc 4c39 aa3d
00000300: 3428 9abc 2379 50bd 15f9 b1bb 2e95 4bbd
00000310: cbd8 3a3d 34d1 0f3b c271 9a3d 353a 503b
00000320: b239 df3d f647 10bd 27ce 14bd 246e 1c3d
00000330: 209c 1fbd 7256 3e3d 083a f4ba dc71 d63d
00000340: af72 743c a113 a5bb 704d 57bd 203a bfbc
00000350: e847 c83b f9f8 263d 6676 6b3d 5ae0 b13c
00000360: 6b85 adbc ce9a e0bc 1c94 29bd f319 563d
00000370: fe3f 033c dd19 b33d a501 f2bc dc16 ddbd
00000380: 94ac d73c f95f aa3d da63 843c d200 44bd
00000390: 2a1f 72bc efe5 6ebd 9982 6fbd 0889 b03d
000003a0: ca78 223d 5401 5abd ed44 593d bd2b abbc
000003b0: 24f3 44bc 266b cb3c ddc8 6d3d 2b6e 0a3c
000003c0: 2327 493d b64c 59bd 2801 80bd 2fde 233d
000003d0: 9178 563c 2505 a33d 52e2 5f3d d1cc a8bc
000003e0: ba3d 363c a8a0 14bd 1ab9 423c e5d8 1b3d
000003f0: 8e72 ad3d 7228 5d3d 1ac5 4dbd c932 88bd

linear2.weight f4 [128, 256]
0.057753056 -0.0054910635 -0.08840776 0.10413498 0.08311041 -0.019814996 0.120190375 -0.030792922
0.16726586 -0.001724054 -0.14124928 0.043436203 0.016025748 -0.12369897 -0.05083359 0.006862466
-0.052822277 0.07926095 -0.08970739 -0.0022124615 -0.009647606 -0.14187284 0.10602669 0.03283458
-0.053503335 0.071397796 0.11273524 0.039219838 0.18151896 0.03466132 -0.048004154 -0.06567806
-0.062437665 -0.0058306605 0.07270084 -0.0015935403 0.08877931 -0.086540096 -0.036617026 -0.1685274
-0.087968566 0.06924058 -0.004998282 0.032980014 -0.030365681 -0.008701253 -0.025415702 -0.07059276
0.070638895 0.118697576 -0.13053294 -0.14034373 0.0051957876 0.051317304 -0.15536207 0.060741507
-0.05793921 -0.032780636 -0.08692246 -0.021550281 -0.01334443 -0.04081635 -0.031934243 -0.10167772
-0.08658391 -0.039265174 -0.037218414 0.09252071 -0.15983532 -0.0053707664 0.10980608 -0.054105114
-0.012926174 0.118789844 0.12869 0.118430376 0.101559006 0.06526669 0.08844032 -0.010671074
0.053909894 -0.037299797 -0.039951567 -0.019168114 -0.13941088 -0.08261078 0.0712027 -0.016704118
0.12309161 -0.0076216375 -0.040112928 0.08311931 -0.06810007 0.065452635 -0.07612042 0.0043706065
-0.026135651 0.06949096 0.082961924 -0.0004011972 -0.024399629 0.00019273027 0.03797867 0.00596407
-0.06207225 0.023347942 0.07530803 0.062339436 0.03898599 -0.09426268 -0.14262712 -0.035281517
-0.2177283 -0.05010253 0.092357 0.2051902 -0.07539881 0.0011498716 0.06677424 0.069695346
-0.027327014 -0.09283682 -0.0706945 0.16269788 0.07012237 -0.02220393 0.065381154 0.034648586
-0.007681739 -0.04040672 -0.06265196 -0.040282853 -0.026724247 -0.14463197 -0.015857749 0.033022463
-0.079022095 -0.046233453 0.043198217 -0.060198694 0.09575203 -0.021504289 -0.009747659 0.103909045
-0.13850865 -0.13490319 0.044115964 -0.053657416 -0.013752516 -0.12058767 -0.020860601 0.077300034
0.05992795 -0.00991955 0.064609714 -0.15390272 -0.029013831 0.09332126 0.058818582 -0.004511828
0.07963964 -0.13123715 0.1380429 0.0253843 -0.0035749315 0.008821648 -0.016644316 -0.048488107
-0.02805293 -0.032954723 -0.0054821908 0.005525588 -0.06970909 0.004704307 0.18674874 0.011174371
0.05528498 0.0034931295 -0.008243226 0.024810592 0.1575185 -0.037194703 -0.08338772 0.0038125229
-0.086358294 -0.035480652 -0.06808387 -0.07339114 0.032994803 0.058007944 -0.011252488 0.012503466
0.10472749 -0.1785995 0.09181486 0.021026406 0.15748152 0.055038515 0.02524999 -0.124844365
-0.12097417 0.098936155 0.01815044 -0.0048197787 -0.011949584 0.016088583 -0.10895879 -0.014321597
-0.008347013 -0.020762015 -0.12865698 0.083201356 -0.079416335 0.17932564 0.07604652 0.081783816
-0.08264672 0.07652522 0.017747818 0.1503701 0.09288424 0.044189118 -0.070729904 0.024277369
0.017237037 0.055178482 0.019269645 0.08766061 -0.025893152 0.08952908 0.06328938 -0.1098964
0.091276735 -0.08427778 0.060190275 -0.16264792 -0.012926363 0.08058789 0.02468652 0.034198467
-0.08009681 -0.07288121 -0.03366703 -0.06285676 0.010532315 0.0029752946 0.04346127 -0.05245811
0.12237862 0.036172267 0.14737229 0.0117010465 0.041745596 0.054539345 -0.10018509 0.09540855
00000000: 788e 6c3d 61ee b3bb 210f b5bd b844 d53d
00000010: ca35 aa3d 0f53 a2bc 5f26 f63d 7041 fcbc
00000020: be47 2b3e a7f9 e1ba a7a3 10be 29ea 313d
00000030: 6e48 833c e355 fdbd e236 50bd 8ade e03b
00000040: 2c5c 58bd 9153 a23d 82b8 b7bd f2fe 10bb
00000050: fe10 1ebc 1d47 11be 8524 d93d 8d7d 063d
00000060: 5026 5bbd 0239 923d bce1 e63d fba4 203d
00000070: 1be0 393e 07f9 0d3d 01a0 44bd 3882 86bd
00000080: a3be 7fbd 200f bfbb 2ee4 943d 57de d0ba
00000090: edd1 b53d ef3b b1bd bcfb 15bd 7292 2cbe
000000a0: dd28 b4bd 01ce 8d3d a1c8 a3bb 0d16 073d
000000b0: 73c1 f8bc b38f 0ebc 9734 d0bc f092 90bd
000000c0: 20ab 903d b717 f33d 6daa 05be 44b6 0fbe
000000d0: 6d41 aa3b 1832 523d 3c17 1fbe 16cc 783d
000000e0: aa51 6dbd fd44 06bd 6704 b2bd 378a b0bc
000000f0: 99a2 5abc 0c2f 27bd 7bcd 02bd 693c d0bd
00000100: e852 b1bd 85d4 20bd 5672 18bd 7f7b bd3d
00000110: dfab 23be 41fd afbb 03e2 e03d 539d 5dbd
00000120: 4ec8 53bc 1748 f33d 50c7 033e a08b f23d
00000130: 2bfe cf3d 8baa 853d 3320 b53d bad5 2ebc
00000140: 9fd0 5c3d acc7 18bd 41a4 23bd 7306 9dbc
00000150: bac1 0ebe d72f a9bd b9d2 913d 13d7 88bc
00000160: 7417 fc3d eebe f9bb 744d 24bd 753a aa3d
00000170: 0d78 8bbd 080c 863d 06e5 9bbd 4e37 8f3b
00000180: 6f1a d6bc 4751 8e3d f1e7 a93d c757 d2b9
00000190: bbe1 c7bc a317 4a39 868f 1b3d 3f6e c33b
000001a0: 793f 7ebd 2f44 bf3c 193b 9a3d a357 7f3d
000001b0: c6af 1f3d cb0c c1bd d80c 12be 5a83 10bd
000001c0: 2bf4 5ebe 4f38 4dbd ab25 bd3d 611d 523e
000001d0: b16a 9abd 4ab7 963a efc0 883d 6fbc 8e3d
000001e0: e7dc dfbc 3b21 bebd 47c8 90bd 469a 263e
000001f0: 519c 8f3d 04e5 b5bc 8ee6 853d adeb 0d3d
00000200: 19b7 fbbb 8481 25bd ac4f 80bd a2ff 24bd
00000210: cfec dabc 671a 14be 1ce8 81bc 9042 073d
00000220: 56d6 a1bd 4a5f 3dbd 9df0 303d e892 76bd
00000230: a419 c43d c329 b0bc a5b4 1fbc 44ce d43d
00000240: 36d5 0dbe 1024 0abe f1b2 343d e1c7 5bbd
00000250: 3c52 61bc abf6 f6bd dae3 aabc 7b4f 9e3d
00000260: 0377 753d 9c85 22bc 1952 843d ad98 1dbe
00000270: 6aae edbc 371f bf3d c1eb 703d f5d7 93bb
00000280: 1c1a a33d 0863 06be 1e5b 0d3e bcf2 cf3c
00000290: 6649 6abb ac88 103c a959 88bc 779b 46bd
000002a0: 42cf e5bc 88fb 06bd f3a3 b3bb fe0f b53b
000002b0: a4c3 8ebd 9626 9a3b 103b 3f3e b514 373c
000002c0: 8172 623d fdec 643b 990e 07bc 953f cb3c
000002d0: 884c 213e 7959 18bd 2ec7 aabd 85db 793b
000002e0: 9edc b0bd 2954 11bd 8e6f 8bbd 184e 96bd
000002f0: 8f25 073d bd99 6d3d 5b5c 38bc 56db 4c3c
00000300: 5e7b d63d cae2 36be 6e09 bc3d 923f ac3c
00000310: d642 213e 1170 613d 11d9 ce3c 67ae ffbd
00000320: 4ec1 f7bd 0a9f ca3d 3bb0 943c 3cef 9dbb
00000330: 30c8 43bc 34cc 833c c925 dfbd 22a5 6abc
00000340: e9c1 08bc 1a15 aabc a8be 03be 7965 aa3d
00000350: 08a5 a2bd 24a1 373e 47be 9b3d 467e a73d
00000360: af42 a9bd 41b9 9c3d df63 913c 9ffa 193e
00000370: 183a be3d a6ff 343d d7da 90bd 55e1 c63c
00000380: b034 8d3c d502 623d 60db 9d3c 6887 b33d
00000390: e01d d4bc 065b b73d dd9d 813d 5d11 e1bd
000003a0: 4cef ba3d d499 acbd 148a 763d 2d8d 26be
000003b0: 19c9 53bc 440b a53d 633b ca3c b113 0c3d
000003c0: cc09 a4bd be42 95bd 71e6 09bd 0cbb 80bd
000003d0: bb8f 2c3c 29fd 423b 7204 323d 51de 56bd
000003e0: a4a1 fa3d 5f29 143d c3e8 163e bfb5 3f3c
000003f0: 6efd 2a3d a664 5f3d d72d cdbd 8f65 c33d

gender.weight f4 [5, 128]
-0.23817018 -0.03318463 0.043358225 -0.06704063 -0.13339269 0.07451252 0.061721068 -0.026687633
-0.011429966 -0.048414435 -0.054493733 -0.10603286 -0.08245817 0.016359888 0.036148224 -0.0927666
0.047142047 -0.26601696 -0.02232682 0.08169264 -0.03993738 -0.10180971 -0.0034624794 0.10357941
-0.08869571 -0.06897734 0.08647671 -0.052605346 -0.049975947 -0.039033074 0.04721481 -0.0931036
0.0024471793 -0.026684377 -0.15039064 -0.115395404 -0.00050902646 0.010399364 -0.10530456 -0.06368645
0.05399467 -0.066387065 -0.019998536 0.046149056 -0.013273976 -0.15690729 -0.02106299 0.008139784
0.00024681538 -0.10309442 0.025992336 -0.027497951 -0.18511862 -0.11327561 -0.014703508 -0.038060836
0.033888794 -0.09704282 -0.1381134 0.010621924 0.16272531 -0.4199138 -0.25242242 0.048033625
-0.045704562 0.051256914 -0.02611319 -0.19325262 -0.1100719 0.100068994 0.09049196 -0.028016318
0.045483585 -0.17847936 -0.001766728 -0.054895103 0.121164046 -0.13377419 0.11315597 -0.031228265
-0.074734256 -0.07521435 -0.030839821 -0.033109993 -0.24206798 -0.084624894 0.060510308 -0.18957876
-0.14493096 -0.014175377 0.048988864 0.0013443558 -0.10400536 -0.10281337 -0.068128474 -0.083315454
0.10085817 -0.15006848 -0.23441121 -0.1234014 0.15384357 -0.112680435 -0.112840235 -0.10259974
-0.06611147 0.054620493 -0.022282654 -0.21052301 -0.015010739 0.019860333 -0.043531165 0.061456375
-0.006097375 0.004580664 0.10693839 0.024097968 -0.054189473 0.062440824 0.08582559 -0.11366814
0.16764008 0.08147241 0.09293013 0.025091317 -0.1435737 0.04811557 -0.12679453 0.060351986
-0.103573486 -0.10408639 0.025703784 -0.028635088 -0.15716344 -0.016086001 0.046161145 0.13732234
0.0042140177 -0.09780674 -0.03663297 -0.023812532 0.072251685 0.028577909 -0.056733303 -0.03627223
0.1927104 -0.19060427 -0.24874353 -0.12998396 -0.017123898 -0.102144554 -0.029836347 -0.013895075
0.09286601 0.039926182 -0.04701247 -0.07008943 -0.10875779 -0.07030568 -0.11530252 -0.13969907
0.07996503 -0.13988146 -0.10992607 -0.014551322 -0.06739027 0.024918217 -0.08499036 -0.050832186
0.04051786 -0.01795865 -0.24367015 -0.06753196 -0.021415053 -0.19890141 0.06803145 -0.037886646
0.14029647 -0.16827835 0.016349228 0.020490237 -0.17130324 -0.07808577 -0.043973263 0.052211534
-0.048459567 -0.034683567 -0.04509656 0.1395677 -0.082543164 -0.3857574 -0.17849664 -0.23166879
-0.14231509 0.031868372 -0.10061847 -0.18866716 0.118985444 -0.043056976 -0.018860057 0.023643952
0.065420225 0.04947423 -0.05096128 0.019565275 0.042795744 -0.007110451 -0.13695014 -0.08479008
0.025677659 -0.0066759624 0.09547984 -0.20551987 -0.12686263 0.01339399 0.14159189 -0.21733429
0.041711804 -0.023627944 0.014696314 -0.031098576 0.014901104 -0.3130587 -0.07083587 0.012744432
0.14991601 0.002835763 -0.052047852 0.09486639 -0.08499362 -0.07806222 -0.08878505 0.020117903
-0.004113532 -0.07991611 0.11646056 -0.028043887 0.051406547 -0.013552325 0.03529685 -0.14285402
0.03284968 -0.0054233666 0.008950296 -0.06903194 0.020727782 0.04674884 0.029313289 -0.15352395
0.068384536 -0.0008023042 0.01971236 -0.023641022 -0.16754325 -0.07509425 -0.055341322 0.07410279
00000000: e2e2 73be 9bec 07bd 6598 313d 994c 89bd
00000010: 1898 08be 059a 983d 3bcf 7c3d 06a0 dabc
00000020: c144 3bbc 374e 46bd d234 5fbd c227 d9bd
00000030: d4df a8bd 2c05 863c 2910 143d 6afc bdbd
00000040: 0518 413d 6033 88be bce6 b6bc 794e a73d
00000050: 6195 23bd 9c81 d0bd c4ea 62bb 7121 d43d
00000060: 19a6 b5bd fe43 8dbd b41a b13d b478 57bd
00000070: 94b3 4cbd 25e1 1fbd 5164 413d 1aad bebd
00000080: db60 203b 3299 dabc 0100 1abe 6d54 ecbd
00000090: 3070 05ba 1862 2a3c eba9 d7bd 0b6e 82bd
000000a0: 8429 5d3d f1f5 87bd f8d3 a3bc cb06 3d3d
000000b0: 177b 59bc 4eac 20be 4b8c acbc bb5c 053c
000000c0: 0067 8139 2b23 d3bd e1ed d43c 6243 e1bc
000000d0: bc8f 3dbe 0bfd e7bd fbe6 70bc aee5 1bbd
000000e0: face 0a3d 63be c6bd 996d 0dbe 9407 2e3c
000000f0: 77a1 263e f1fe d6be 833d 81be e8be 443d
00000100: b534 3bbd c5f2 513d 54eb d5bc 04e4 45be
00000110: 606d e1bd f9f0 cc3d d953 b93d 7a82 e5bc
00000120: ff4c 3a3d 4bc3 36be 8e91 e7ba b0d9 60bd
00000130: db24 f83d 1afc 08be 51be e73d 6bd2 ffbc
00000140: 460e 99bd fb09 9abd cba3 fcbc 589e 07bd
00000150: abe0 77be d14f adbd a8d9 773d ef20 42be
00000160: c868 14be d73f 68bc 8ca8 483d 1835 b03a
00000170: c300 d5bd d18f d2bd f186 8bbd 4ba1 aabd
00000180: ba8e ce3d 8dab 19be 7e09 70be e0b9 fcbd
00000190: 2b89 1d3e 00c5 e6bd c818 e7bd d01f d2bd
000001a0: 7365 87bd bdb9 5f3d 1d8a b6bc 5893 57be
000001b0: 9aef 75bc 23b2 a23c bc4d 32bd aeb9 7b3d
000001c0: 7dcc c7bb 6519 963b 8402 db3d 1a69 c53c
000001d0: c8f5 5dbd f3c1 7f3d 54c5 af3d d7ca e8bd
000001e0: d7a9 2b3e 02db a63d 2752 be3d 4e8c cd3c
000001f0: fc04 13be d514 453d 6dd6 01be a533 773d
00000200: 561e d4bd 3f2b d5bd be90 d23c 2294 eabc
00000210: 74ef 20be cac6 83bc 7813 3d3d 3a9e 0c3e
00000220: be15 8a3b e64e c8bd 740c 16bd 8012 c3bc
00000230: b1f8 933d 381c ea3c 2e61 68bd 3192 14bd
00000240: e055 453e c42d 43be a0b6 7ebe 841a 05be
00000250: 6b47 8cbc 2a31 d1bd 5b6b f4bc 2ba8 63bc
00000260: 8930 be3d a389 233d 2690 40bd 0c8b 8fbd
00000270: 67bc debd 6dfc 8fbd ba23 ecbd 460d 0fbe
00000280: b5c4 a33d 163d 0fbe eb20 e1bd ab68 6ebc
00000290: e903 8abd 4a21 cc3c 6d0f aebd 6935 50bd
000002a0: 0ef6 253d 051e 93bc ab84 79be 324e 8abd
000002b0: 9f6e afbc d0ac 4bbe 1354 8b3d 072f 1bbd
000002c0: e1a9 0f3e 2951 2cbe d1ee 853c 24db a73c
000002d0: 1e6a 2fbe 6feb 9fbd 4f1d 34bd c3db 553d
000002e0: 8a7d 46bd 5b10 0ebd 2cb7 38bd d6ea 0e3e
000002f0: 640c a9bd fe81 c5be d3c7 36be 953a 6dbe
00000300: 0cbb 11be 6988 023d 0e11 cebd f731 41be
00000310: a4ae f33d 835c 30bd 6880 9abc f6b0 c13c
00000320: 0afb 853d 7da5 4a3d c6bc 50bd 5b47 a03c
00000330: 974a 2f3d c9fe e8bb a83c 0cbe 6ca6 adbd
00000340: f459 d23c 08c2 dabb ef8a c33d cd73 52be
00000350: 47e8 01be 7772 5b3c 77fd 103e e18c 5ebe
00000360: ffd9 2a3d 648f c1bc cfc8 703c 71c2 febc
00000370: c323 743c 3b49 a0be 6612 91bd 06ce 503c
00000380: 9583 193e 35d8 393b 2130 55bd 4f49 c23d
00000390: 2311 aebd 16df 9fbd f0d4 b5bd 4dce a43c
000003a0: cfca 86bb 0fab a3bd e082 ee3d 4bbc e5bc
000003b0: ac8f 523d 920a 5ebc 6e93 103d 5348 12be
000003c0: 638d 063d 7fb6 b1bb 43a4 123c 9e60 8dbd
000003d0: 4fcd a93c b67b 3f3d 6c22 f03c 6235 1dbe
000003e0: 310d 8c3d b951 52ba d17b a13c d1aa c1bc
000003f0: 7590 2bbe 04cb 99bd 95ad 62bd 34c3 973d

gender.bias f4 [5]
-0.061851133 0.011179627 -0.030518306 0.022182371 0.002581506
00000000: 9d57 7dbd c12a 373c 8701 fabc ceb7 b53c
00000010: 7c2e 293b

masterCategory.weight f4 [6, 128]
0.0733228 -0.06782271 0.07947583 -0.048066024 0.18161614 -0.05794839 -0.08245663 0.1251072
-0.11228093 -0.062024765 -0.13614918 -0.086225554 0.10872692 -0.0889165 0.050901964 -0.009426312
0.13444625 0.14639878 0.07044581 0.022031719 -0.026223049 -0.07361435 -0.117551245 0.0982246
-0.22247668 0.022697397 -0.041535914 0.055833172 -0.19359955 -0.00409528 0.05448609 -0.12255861
-0.0131915165 0.020222584 -0.0020975124 0.007852139 -3.1950494e-05 0.036981806 -0.122620985 -0.07548754
-0.028382681 -0.102890514 0.0059593716 0.18519883 0.07461466 -0.2684293 -0.1623789 -0.001479173
0.023608118 -0.02727294 0.026844453 0.03134989 -0.058709707 0.03846346 -0.0986904 -0.083114594
-0.058363177 -0.0075571714 -0.10005318 -0.019022956 0.08755686 -0.23762998 -0.16874194 -0.001143699
-0.08166773 0.13102429 0.11884343 0.15750024 0.0946064 0.068830825 0.045544375 -0.037594758
0.05962514 -0.12683955 0.07411196 -0.15128371 -0.14040497 0.025784617 -0.08739475 0.023771109
0.096112065 -0.024528444 -0.10803689 -0.10313758 0.024267584 -0.023720827 0.17555021 0.15066223
-0.09573349 0.048247192 -0.07934939 0.013405133 -0.03712945 -0.17938042 -0.071233615 -0.04851331
-0.22346942 0.084171236 0.13141486 0.13013993 -0.16480505 0.05628958 0.06536164 0.026704216
0.06903973 -0.04717893 0.03745884 -0.27036676 -0.01336576 -0.06574532 0.095104165 0.069641106
0.084000655 0.035470143 -0.032125168 0.05119373 0.11091146 -0.044889536 -0.08249431 -0.065904304
-0.17926216 0.06507648 0.12237158 0.030092448 -0.051567536 -0.058597982 0.08125132 0.0070054163
0.053162765 -0.13427003 -0.0191549 -0.18567611 -0.10582727 0.20412013 -0.11394176 0.06004283
0.18779185 0.001998158 0.23551227 0.1784887 -0.055859126 0.17001736 -0.044519458 0.022666942
-0.04162276 -0.21005988 -0.00348891 0.09848774 0.03505459 0.06783775 0.16100135 -0.035574824
-0.022890376 0.014357057 0.18861347 0.09714696 -0.109476745 -0.00993332 -0.066104844 0.06497745
0.08914701 -0.061345298 -0.074418865 -0.21425684 -0.012652403 -0.11785841 0.17121962 -0.0022409742
-0.0251178 -0.10508138 -0.23882352 -0.14332542 -0.046941128 -0.0362804 0.25344244 0.10814065
0.092597485 -0.039910145 -0.008393511 0.10652263 0.08422301 -0.0011293193 0.08281858 0.0016849117
-0.049268596 -0.08587896 -0.01575195 0.12848945 0.109352306 -0.007918937 -0.15723948 -0.012297336
0.12335117 -0.009276286 -0.05837644 -0.22794196 -0.036411546 -0.077774145 0.047100894 0.1257235
-0.05844629 -0.008793311 -0.17642072 0.042271614 0.08869158 -0.026547153 0.031602766 0.07597819
-0.07170981 0.094374515 0.10400604 0.07089452 0.035258535 -0.01738438 0.03848499 -0.3143485
-0.017646296 -0.022573287 0.16810375 0.03243954 0.18500973 0.06387605 0.051489417 0.058982942
0.248438 0.109605685 -0.19695857 -0.12732634 0.12435027 0.06895221 -0.15892439 -0.117733516
-0.025625348 -0.007958925 0.055579714 -0.17257352 0.14298859 0.17455088 -0.23304704 0.04337812
0.03164233 -0.10607728 -0.08781971 0.09325067 -0.00027477337 0.13353671 0.03414023 0.11850497
-0.16055326 -0.1770239 -0.0026887774 0.1229642 0.051939275 -0.06318514 0.059169516 0.10505747
00000000: 442a 963d a2e6 8abd 39c4 a23d e1e0 44bd
00000010: 95f9 393e 4a5b 6dbd 06df a8bd 1a1c 003e
00000020: 8bf3 e5bd ae0d 7ebd b16a 0bbe 0697 b0bd
00000030: 38ac de3d db19 b6bd 947e 503d d170 1abc
00000040: 47ac 093e 90e9 153e e545 903d dd7b b43c
00000050: b8d1 d6bc 1fc3 96bd b5be f0bd fb29 c93d
00000060: edd0 63be e4ef b93c 9021 2abd 53b1 643d
00000070: f63e 46be b331 86bb ce2c 5f3d 0200 fbbd
00000080: 3b21 58bc d5a9 a53c 6b76 09bb 42a6 003c
00000090: 9502 06b8 3c7a 173d b620 fbbd 3699 9abd
000000a0: cc82 e8bc 43b8 d2bd d546 c33b c3a4 3d3e
000000b0: 92cf 983d 916f 89be a846 26be cfe0 c1ba
000000c0: d065 c13c 806b dfbc e6e8 db3c be68 003d
000000d0: 9779 70bd dc8b 1d3d 311e cabd fc37 aabd
000000e0: 3a0e 6fbd 26a2 f7bb aee8 ccbd 08d6 9bbc
000000f0: 0351 b33d 4655 73be b0ca 2cbe 2ce8 95ba
00000100: 6941 a7bd 3b2b 063e 2f64 f33d be47 213e
00000110: 00c1 c13d 2df7 8c3d bd8c 3a3d f6fc 19bd
00000120: 7e39 743d 3ae2 01be 03c8 973d 1eea 1abe
00000130: 52c6 0fbe 433a d33c 05fc b2bd a1bb c23c
00000140: 67d6 c43d e0ef c8bc 7242 ddbd cc39 d3bd
00000150: d0cc c63c 2e52 c2bc 6fc3 333e 3347 1a3e
00000160: ec0f c4bd d99e 453d ef81 a2bd 34a1 5b3c
00000170: 0d15 18bd 80af 37be eee2 91bd e4b5 46bd
00000180: 2bd5 64be f861 ac3d 9e91 063e 6743 053e
00000190: a8c2 28be e78f 663d 53dc 853d cdc2 da3c
000001a0: b464 8d3d b23e 41bd 716e 193d 836d 8abe
000001b0: 10fc 5abc 7ba5 86bd f9c5 c23d ff9f 8e3d
000001c0: 8908 ac3d 2449 113d ae95 03bd 84b0 513d
000001d0: 8c25 e33d 17de 37bd c7f2 a8bd d6f8 86bd
000001e0: 8090 37be d146 853d f39d fa3d 7084 f63c
000001f0: 7b38 53bd 7004 70bd 1867 a63d b18d e53b
00000200: 33c1 593d 157e 09be bdea 9cbc e121 3ebe
00000210: f8bb d8bd de04 513e 4c5a e9bd 78ef 753d
00000220: 824c 403e 87f3 023b 212a 713e bec5 363e
00000230: 8acc 64bd 0819 2e3e 095a 36bd 06b0 b93c
00000240: a17c 2abd f019 57be 32a6 64bb f1b3 c93d
00000250: 6795 0f3d 85ee 8a3d 8add 243e e8b6 11bd
00000260: 9984 bbbc dd39 6b3c e423 413e fcf4 c63d
00000270: 5835 e0bd 5dbf 22bc fa61 87bd e612 853d
00000280: b592 b63d 3545 7bbd eb68 98bd 2566 5bbe
00000290: 064c 4fbc c05f f1bd 3254 2f3e 4fdd 12bb
000002a0: d8c3 cdbc e834 d7bd 278e 74be e6c3 12be
000002b0: 5745 40bd c29a 14bd 35c3 813e d878 dd3d
000002c0: c0a3 bd3d d278 23bd f084 09bc 8928 da3d
000002d0: 1d7d ac3d ab05 94ba ca9c a93d 41d8 dc3a
000002e0: decd 49bd 4fe1 afbd 3c0a 81bc bd92 033e
000002f0: 1af4 df3d 6ebe 01bc 6303 21be c47a 49bc
00000300: 8a9f fc3d 90fb 17bc 221c 6fbd 9e69 69be
00000310: 4624 15bd 0d48 9fbd deec 403d a9bd 003e
00000320: 6165 6fbd d211 10bc a2a7 34be 0025 2d3d
00000330: eea3 b53d 6a79 d9bc e771 013d 749a 9b3d
00000340: 98dc 92bd 6d47 c13d 1e01 d53d 2531 913d
00000350: 416b 103d b069 8ebc 70a2 1d3d 49f2 a0be
00000360: f78e 90bc 9deb b8bc 6423 2c3e 53df 043d
00000370: 3173 3d3e 72d1 823d 91e6 523d 1998 713d
00000380: 8866 7e3e f278 e03d 82af 49be d661 02be
00000390: 5bab fe3d d136 8d3d 13bd 22be 451e f1bd
000003a0: 40ec d1bc 2766 02bc 8ea7 633d 1db7 30be
000003b0: 9a6b 123e 77bd 323e e2a3 6ebe 41ad 313d
000003c0: 639b 013d 0c3f d9bd d2da b3bd 35fa be3d
000003d0: 750f 90b9 d9bd 083e a0d6 0b3d bcb2 f23d
000003e0: 1368 24be c145 35be 3336 30bb a8d4 fb3d
000003f0: 47be 543d 3667 81bd bc5b 723d 5f28 d73d

masterCategory.bias f4 [6]
-0.03297524 0.0073487638 0.043537937 0.021649659 0.06425278 0.029212251
00000000: 0c11 07bd e6cd f03b d654 323d a05a b13c
00000010: f696 833d 884e ef3c

subCategory.weight f4 [37, 128]
-0.04835107 0.07146902 -0.068718895 -0.06800274 -0.10089837 -0.138616 0.072771184 0.05920265
-0.16848221 -0.25895566 -0.25022176 -0.30812955 -0.19922148 -0.2070607 -0.0010754339 -0.087827116
0.08380167 0.09935627 0.15134695 0.042964127 -0.36796263 0.1717831 0.12078885 0.040604662
-0.122719966 0.09520956 -0.19257006 -0.0051562754 -0.4724813 -0.14786775 0.03744597 -0.09286546
-0.20275837 0.05947076 -0.19515203 -0.07455458 -0.039470185 0.02471535 -0.090921536 -0.08579106
0.020216588 0.061674897 -0.05857309 0.04376788 -0.1742753 -0.22316876 -0.20977162 -0.066889316
-0.0043618265 -0.04358858 -0.0042222473 0.052785628 -0.18946049 0.027758487 -0.04605445 0.029525636
-0.016312635 -0.27098092 -0.123434976 -0.11905813 -0.01175254 -0.11609473 -0.07941627 0.037641827
-0.11121843 -0.10159509 0.06938146 -0.0045818333 0.06457949 -0.031335227 0.0035408712 -0.058762137
-0.071422055 -0.45607132 0.10063691 0.03737348 0.017855631 -0.06083933 -0.03318866 -0.14882253
0.0049357074 -0.0127011705 -0.11479327 0.08411023 0.019774249 0.070643455 0.0020243025 0.017950965
0.1124259 -0.14015986 -0.046263278 -0.05141259 -0.089758255 -0.2176281 -0.03578472 0.059200488
-0.23505393 0.08792802 -0.059805986 0.082029335 -0.19689475 -0.055642873 0.077844776 -0.1424747
-0.022500409 -0.068292 -0.16679561 -0.4536121 -0.20205009 -0.040697604 -0.16186257 -0.016512156
0.035317037 0.067498505 0.018342102 -0.054034796 -0.24143212 0.15358879 -0.18808109 -0.060961198
-0.20919515 -0.11526906 -0.034565434 -0.10363949 -0.157062 -0.036624826 0.004402731 -0.07303566
-0.1417607 -0.0063219266 -0.08947781 -0.15526398 -0.08020139 -0.034452345 -0.28191623 -0.0593826
-0.1775903 -0.15600576 0.106174074 -0.11450804 -0.06254012 0.04694747 -0.103207596 -0.083207056
0.02264161 -0.08805076 -0.04764067 -0.21751098 0.12251684 -0.061995413 -0.19921456 0.037407193
-0.22314866 -0.14437193 0.048001952 -0.04993734 0.027395379 -0.04421383 0.02398302 -0.07797031
0.026532628 0.062255397 0.04490694 -0.029697616 -0.12170359 0.022261841 -0.0032284341 -0.080172405
-0.014024589 -0.11718386 -0.38967523 -0.21712561 -0.014055644 -0.10977007 -0.0040257107 -0.20271759
-0.123279065 0.08793443 -0.03864415 0.09948625 -0.3699691 -0.005127246 -0.18160568 0.013667982
0.0027037552 0.14333354 0.10175207 0.059681397 0.013437552 -0.21413068 -0.36651337 -0.19234848
0.016127752 -0.06446328 0.050892193 -0.14106117 -0.026549341 0.030698713 -0.117434554 -0.13368118
0.020922815 0.04011965 -0.3766308 0.041657407 0.10313135 0.010468209 0.20748645 -0.06909315
-0.05255333 0.049498055 -0.19502895 -0.3444262 -0.13787475 0.019243736 -0.072360605 -0.2847613
-0.030840816 0.026814 0.025144689 -0.16603713 -0.16092303 0.0648673 -0.0077940067 -0.12206563
-0.06276202 0.06916818 -0.18466586 -0.0742524 -0.01165453 0.013985458 -0.13714172 0.021071535
-0.06941193 -0.039237875 0.08357895 -0.2683701 0.11183091 -0.020718284 -0.10049667 0.02654958
0.008487476 0.009912112 0.12722225 -0.02863406 -0.15827672 0.081009306 0.017209921 0.03359963
-0.07465753 0.0071041067 -0.0456374 -0.083147086 -0.10019403 -0.011027463 -0.47797865 0.018269591
00000000: c60b 46bd 595e 923d 7ebc 8cbd 0545 8bbd
00000010: cea3 cebd 5af1 0dbe 0f09 953d 7a7e 723d
00000020: 9a86 2cbe d695 84be 111d 80be 28c3 9dbe
00000030: b700 4cbe b807 54be 93f5 8cba b4de b3bd
00000040: 36a0 ab3d 4d7b cb3d b2fa 1a3e 27fb 2f3d
00000050: 9965 bcbe e9e7 2f3e 2560 f73d 1351 263d
00000060: 9b54 fbbd 3bfd c23d 1631 45be f9f5 a8bb
00000070: 12e9 f1be a56a 17be f260 193d 3f30 bebd
00000080: e49f 4fbe 9d97 733d efd5 47be 12b0 98bd
00000090: 7dab 21bd d877 ca3c 1235 babd 39b3 afbd
000000a0: 429d a53c d19e 7c3d 56ea 6fbd f345 333d
000000b0: 3975 32be 5a86 64be 5fce 56be 44fd 88bd
000000c0: a7ed 8ebb f089 32bd c75a 8abb be35 583d
000000d0: ee01 42be c465 e33c 97a3 3cbd bfdf f13c
000000e0: 13a2 85bc 03be 8abe 7acb fcbd c0d4 f3bd
000000f0: ba8d 40bc 13c3 edbd ffa4 a2bd 512e 1a3d
00000100: 7dc6 e3bd 1611 d0bd de17 8e3d 3423 96bb
00000110: 4042 843d 5e59 00bd f60d 683b 91b0 70bd
00000120: ba45 92bd 2e82 e9be b91a ce3d ef14 193d
00000130: f945 923c a932 79bd d5f0 07bd ef64 18be
00000140: b7bb a13b 9218 50bc bc18 ebbd fc41 ac3d
00000150: 9bfd a13c 84ad 903d 29aa 043b e70d 933c
00000160: 8d3f e63d 1186 0fbe 907e 3dbd 0296 52bd
00000170: 2dd3 b7bd e7d9 5ebe 0093 12bd 367c 723d
00000180: fab1 70be 9b13 b43d 1ff7 74bd fffe a73d
00000190: c79e 49be c8e9 63bd 156d 9f3d e3e4 11be
000001a0: c752 b8bc addc 8bbd 78cc 2abe d83f e8be
000001b0: 38e6 4ebe 88b2 26bd 4dbf 25be 8044 87bc
000001c0: 99a8 103d a83c 8a3d 2d42 963c 9753 5dbd
000001d0: fb39 77be 6146 1d3e 5498 40be 73b2 79bd
000001e0: 4137 56be 2f12 ecbd 7c94 0dbd f140 d4bd
000001f0: dcd4 20be ea03 16bd c944 903b b893 95bd
00000200: b829 11be 2a28 cfbb 2440 b7bd 85fd 1ebe
00000210: a040 a4bd e71d 0dbd 5357 90be 2b3b 73bd
00000220: 3bda 35be f9bf 1fbe cb71 d93d 3183 eabd
00000230: 0915 80bd fe4b 403d 815e d3bd 7668 aabd
00000240: e67a b93c f553 b4bd dd22 43bd 33bb 5ebe
00000250: 1cea fa3d e7ee 7dbd e7fe 4bbe 4938 193d
00000260: 1581 64be 3cd6 13be b29d 443d 198b 4cbd
00000270: 466c e03c 9019 35bd 0a78 c43c e6ae 9fbd
00000280: f45a d93c 84ff 7e3d 57f0 373d 6a48 f3bc
00000290: bb3f f9bd 775e b63c 2394 53bb 6e31 a4bd
000002a0: 64c7 65bc 17fe efbd 8383 c7be 2d56 5ebe
000002b0: a549 66bc 21cf e0bd 1cea 83bb 3395 4fbe
000002c0: bc79 fcbd f716 b43d 5449 1ebd 72bf cb3d
000002d0: 976c bdbe 7502 a8bb d7f6 39be acef 5f3c
000002e0: 7c31 313b 07c6 123e 6463 d03d 7b74 743d
000002f0: 2e29 5c3c 1345 5bbe a4a7 bbbe 00f7 44be
00000300: 591e 843c 5305 84bd 5574 503d 5772 10be
00000310: 017e d9bc de7b fb3c 8781 f0bd b8e3 08be
00000320: 5366 ab3c 8154 243d c1d5 c0be f5a0 2a3d
00000330: 8736 d33d da82 2b3c 5477 543e b680 8dbd
00000340: 2942 57bd 79be 4a3d abb5 47be a258 b0be
00000350: 0a2f 0dbe 0aa5 9d3c cc31 94bd 3ccc 91be
00000360: e1a5 fcbc 09a9 db3c 3cfc cd3c a305 2abe
00000370: 02c9 24be 26d9 843d de64 ffbb 8cfd f9bd
00000380: 6089 80bd 0ca8 8d3d 0c19 3dbe a411 98bd
00000390: a4f2 3ebc 4323 653c e16e 0cbe 369e ac3c
000003a0: d827 8ebd e5b7 20bd 712b ab3d ce67 89be
000003b0: 9b07 e53d 64b9 a9bc 33d1 cdbd 817e d93c
000003c0: 0e0f 0b3c 6966 223c 8d46 023e fa91 eabc
000003d0: 4b13 22be 35e8 a53d d2fb 8c3c c49f 093d
000003e0: 0ce6 98bd 91c9 e83b 48ee 3abd 0549 aabd
000003f0: 8732 cdbd 88ac 34bc 9eb9 f4be 1caa 953c

subCategory.bias f4 [37]
-0.0564896 0.057641216 0.027563145 -0.08006835 -0.033385083 0.0030948552 0.054439344 0.0032924926
-0.04324593 -0.028281126 -0.027846478 -0.109294936 0.10565306 0.079297036 -0.008921048 -0.012490972
0.008885123 -0.11728347 -0.10294748 0.14159271 0.077889256 -0.02685013 0.03178578 -0.05660336
-0.0073682857 0.028645424 0.043593705 0.06502072 0.03606237 -0.092495725 0.10728324 -0.013440345
-0.003997906 0.0142659815 -0.05264313 0.020200526 0.07747371
00000000: a461 67bd 3219 6c3d 1bcc e13c e0fa a3bd
00000010: ccbe 08bd 0ed3 4a3b cafb 5e3d dcc6 573b
00000020: a522 31bd d2ad e7bc 4c1e e4bc 06d6 dfbd
00000030: a260 d83d 7c66 a23d 9629 12bc efa6 4cbc
00000040: e892 113c 5132 f0bd 21d6 d2bd aefd 103e
00000050: 6784 9f3d cef4 dbbc ce31 023d edd8 67bd
00000060: a971 f1bb cfa9 ea3c 508f 323d 9529 853d
00000070: 23b6 133d 666e bdbd 51b7 db3d e534 5cbc
00000080: de00 83bb ddbb 693c 53a0 57bd 937b a53c
00000090: 89aa 9e3d

articleType.weight f4 [103, 128]
0.06416072 0.118768424 -0.025857821 0.040098272 -0.11051892 -0.2129954 0.033939183 -0.19707641
-0.10917925 -0.3250657 -0.43633196 -0.2604035 -0.20093113 -0.19429977 0.082675576 -0.013845389
-0.05068812 0.095159486 0.1490717 0.113854155 -0.4100179 0.23445489 0.032116104 -0.016515972
-0.23147506 0.14201063 -0.14181603 -0.20247993 -0.8043422 -0.09449974 0.09428424 -0.23937942
-0.2847268 0.051350575 -0.2864842 -0.350672 -0.15831523 0.10788442 -0.08626471 -0.03424818
-0.05279063 0.021369547 -0.13094881 -0.049901202 -0.07451696 -0.4130189 -0.29510713 -0.06609642
-0.17060329 -0.16664776 -0.09465218 -0.23602393 -0.17125382 -0.069142856 -0.16068193 0.0027197695
-0.04542403 -0.5224298 -0.39795834 -0.24191833 0.09823799 -0.17290322 -0.14873937 0.00092231954
-0.17529835 -0.02725967 -0.14337899 0.0026702292 -0.06255598 -0.06598967 -0.11420522 -0.040994946
0.032158904 -0.28858727 0.07332067 0.08305307 -0.23852839 0.037529774 0.12883562 -0.08012238
-0.07764056 0.022062076 -0.02455978 0.06443015 0.047756005 -0.07507145 0.026526371 0.009064918
0.12556253 -0.08035219 -0.0033182797 -0.050389227 -0.30573177 -0.57379234 -0.07659045 0.11770758
-0.4057688 0.16905166 -0.049411703 -0.05314993 -0.1753277 -0.041584436 0.110423304 -0.24285224
-0.0037935732 -0.1011617 -0.2761385 -0.30100086 -0.5136845 0.07581021 -0.11599229 -0.1671867
0.07172811 -0.10831298 -0.13871485 -0.122775674 -0.14962456 0.09602494 -0.09874446 -0.19134864
-0.20328921 -0.20489632 -0.07264259 -0.020638587 -0.057800476 -0.03385197 -0.036042023 -0.3977016
-0.04400513 0.060558155 -0.04853065 -0.048121918 -0.03556751 0.0008215511 -0.061422087 -0.084340364
0.05679641 -0.17454079 -0.17305535 -0.038873833 0.017321069 0.051144823 -0.38997594 -0.030786438
0.005527446 -0.02512755 -0.367075 -0.10304364 -0.058648776 -0.3800931 0.014270114 0.0075397575
-0.067070566 -0.009492272 -0.10590278 0.033842493 -0.55411285 -0.17016348 -0.09008402 -0.32575572
-0.050477687 -0.23088253 -0.10965624 -0.023287848 -0.20343718 -0.16847858 -0.1296893 -0.021947874
0.006902968 0.008369413 -1.0641704 -0.6204448 -0.77189845 -0.1938174 -0.12485646 -0.4586376
0.11340825 -0.036451906 0.057110105 -0.22649525 -0.06534857 -0.09860079 -0.1528046 -0.047488928
-0.05661883 0.023619426 -0.07392358 -0.028149206 -0.33237836 0.043888334 -0.7572203 -0.8112317
-0.057829175 -0.30614087 -0.26600572 -0.23465793 -0.034899767 -0.42727447 -0.035616506 0.033009168
-0.07511989 -0.13642776 -0.27464014 -0.0591711 0.06455556 -0.15062177 -0.32971734 0.04964807
0.0136314165 0.09002076 -0.13706873 0.007075869 -0.32921076 0.016688716 -0.07747573 -0.22112295
-0.086532496 -0.017489826 -0.051009957 0.023553064 -0.069180064 -0.6220241 -0.009105798 0.022640668
-0.048616078 -0.0637846 0.021608874 0.032335 -0.19136634 0.059268974 -0.06552976 -0.1668627
-0.019888902 -0.0076452345 -0.011341171 0.10733685 -0.010285935 0.05910562 -0.13950048 -0.002265728
-0.045844663 -0.06500298 -0.2907276 -0.2415039 -0.017397877 -0.015561016 -0.15298529 0.04908111
-0.8547219 -0.0654927 -0.025582066 -0.19742775 -0.010124859 0.016185569 0.04440929 -0.05078442
00000000: b266 833d dc3c f33d c8d3 d3bc 163e 243d
00000010: be57 e2bd 771b 5abe d003 0b3d 66ce 49be
00000020: 5f99 dfbd 036f a6be e766 dfbe 9c53 85be
00000030: e4c0 4dbe 85f6 46be d051 a93d c5d7 62bc
00000040: 599e 4fbd fae2 c23d 40a6 183e 5e2c e93d
00000050: deed d1be f114 703e 2d8c 033d 814c 87bc
00000060: cc07 6dbe 3c6b 113e 3938 11be e656 4fbe
00000070: 5fe9 4dbf 1489 c1bd 1818 c13d e11f 75be
00000080: b6c7 91be fb54 523d 0fae 92be 488b b3be
00000090: 631d 22be 82f2 dc3d 8dab b0bd d247 0cbd
000000a0: fd3a 58bd 300f af3c 7217 06be 3465 4cbd
000000b0: 599c 98bd 3777 d3be 4818 97be 8f5d 87bd
000000c0: a1b2 2ebe b6a5 2abe 01d9 c1bd 42b0 71be
000000d0: 295d 2fbe c59a 8dbd ce89 24be 293e 323b
000000e0: 8c0e 3abd f6bd 05bf 32c1 cbbe 70b9 77be
000000f0: 0031 c93d 8b0d 31be 224f 18be d1c7 713a
00000100: 6981 33be ac4f dfbc f1d1 12be 03ff 2e3b
00000110: 5a1d 80bd 9825 87bd 6de4 e9bd 51ea 27bd
00000120: 0eb9 033d b6c1 93be 2629 963d ba17 aa3d
00000130: c940 74be d2b8 193d 7ced 033e 3417 a4bd
00000140: 0402 9fbd 87bb b43c 9731 c9bc f4f3 833d
00000150: cd9b 433d 0fbf 99bd d54d d93c 0685 143c
00000160: 7793 003e b08f a4bd 7f77 59bb ef64 4ebd
00000170: e088 9cbe 0ee4 12bf 74db 9cbd ac10 f13d
00000180: eec0 cfbe e11b 2d3e ed63 4abd beb3 59bd
00000190: 1b89 33be 7154 2abd 9d25 e23d 42ae 78be
000001a0: 999d 78bb de2d cfbd 0762 8dbe c91c 9abe
000001b0: d480 03bf 6242 9b3d 5e8d edbd fe32 2bbe
000001c0: 30e6 923d 32d3 ddbd 440b 0ebe d071 fbbd
000001d0: 2e37 19be b9a8 c43d 893a cabd e6f0 43be
000001e0: 0c2b 50be 57d0 51be a3c5 94bd 4112 a9bc
000001f0: 31c0 6cbd 5da8 0abd cda0 13bd 8b9f cbbe
00000200: b93e 34bd d40b 783d 13c8 46bd 7d1b 45bd
00000210: 3daf 11bd 5c5d 573a ba95 7bbd a4ba acbd
00000220: 5aa3 683d d2ba 32be 6c35 31be 2b3a 1fbd
00000230: eae4 8d3c 3c7d 513d edaa c7be d733 fcbc
00000240: 941f b53b 4bd8 cdbc 41f1 bbbe 8b08 d3bd
00000250: b339 70bd 909b c2be 32cd 693c 1210 f73b
00000260: 4b5c 89bd 7985 1bbc 8fe3 d8bd 6d9e 0a3d
00000270: 57da 0dbf 563f 2ebe f87d b8bd 74c9 a6be
00000280: b1c1 4ebd 786c 6cbe 7393 e0bd 28c6 bebc
00000290: d651 50be a685 2cbe 46cd 04be 07cc b3bc
000002a0: 4b32 e23b dd1f 093c bc36 88bf 78d5 1ebf
000002b0: 239b 45bf 1278 46be beb4 ffbd 8cd2 eabe
000002c0: 9642 e83d 984e 15bd 49ec 693d 5fee 67be
000002d0: 79d5 85bd 36ef c9bd cf78 1cbe c083 42bd
000002e0: 25e9 67bd 877d c13c 3f65 97bd 2a99 e6bc
000002f0: 7f2d aabe 41c4 333d 31d9 41bf e1ac 4fbf
00000300: 49de 6cbd 7fbe 9cbe e731 88be 2b4a 70be
00000310: 0ff3 0ebd b8c3 dabe 9de2 11bd 9f34 073d
00000320: 75d8 99bd b8b3 0bbe a29d 8cbe 655d 72bd
00000330: b535 843d 983c 1abe b6d0 a8be c65b 4b3d
00000340: 4e56 5f3c ce5c b83d bf5b 0cbe b1dc e73b
00000350: 508e a8be c6b6 883c 98ab 9ebd 0e6e 62be
00000360: f337 b1bd d346 8fbc d1ef 50bd 5bf2 c03c
00000370: 47ae 8dbd f93c 1fbf 7c30 15bc ec78 b93c
00000380: a721 47bd 80a1 82bd 1805 b13c b471 043d
00000390: 8af5 43be 06c4 723d 7834 86bd 0ede 2abe
000003a0: 0dee a2bc e084 fabb 52d0 39bc 6cd3 db3d
000003b0: 5786 28bc bc18 723d 37d9 0ebe 9c7c 14bb
000003c0: 9dc7 3bbd 4820 85bd 3fda 94be cc4c 77be
000003d0: fe85 8ebc a2f3 7ebc 2da8 1cbe 4609 493d
000003e0: 0ecf 5abf 0921 86bd 7b91 d1bc 802a 4abe
000003f0: bde2 25bc 9997 843c 84e6 353d 5303 50bd

articleType.bias f4 [103]
0.036442973 -0.05323081 -0.013946681 -0.07250233 0.031582206 0.10784801 -0.0031460372 -0.06420832
0.0987265 -0.1264283 -0.04365569 -0.063767016 0.015841091 0.0005622579 0.009365259 0.0709663
0.024315128 -0.054602243 0.121641435 -0.02575606 -0.100294076 -0.019013464 -0.02547083 -0.023231385
0.11407358 0.030991456 0.11325168 0.04364728 -0.025631685 -0.06928529 -0.036435273 0.010007198
-0.0066617187 -0.020081948 -0.06618405 -0.033605553 -0.013759141 -0.06746246 -0.0067180456 0.12018263
0.05318412 -0.08058114 -0.10316811 -0.08694736 0.03469368 -0.015789174 -0.05546538 0.08323768
-0.018125055 0.04327916 0.051938 -0.041952953 -0.061891485 -0.011131976 0.01028854 0.074300565
-0.029212916 0.010853072 0.039556183 0.059251893 -0.06895919 -0.0033751877 0.09035441 0.04344773
0.027599031 0.028564248 0.07675343 -0.10244398 -0.032823894 -0.015633656 0.11422605 0.06342879
0.00847362 0.12796646 0.015372922 0.04620563 -0.03661725 -0.08563147 0.05548394 -0.019359337
0.018322336 0.08138897 0.08769723 0.017844323 0.0129765235 0.06297422 0.014644227 -0.07764336
0.02767854 0.024491472 0.00083943986 0.03509754 0.0369959 -0.05413167 -0.04230492 -0.06915663
0.027544761 0.016820734 0.09427424 0.056091696 0.0024083136 0.016737932 -0.042310838
00000000: 3a45 153d 8d08 5abd 9f80 64bc 1a7c 94bd
00000010: 585c 013d 6bdf dc3d bf2d 4ebb a77f 83bd
00000020: 1f31 ca3d 6c76 01be 4fd0 32bd 4898 82bd
00000030: 2dc5 813c 7d64 133a be70 193c c856 913d
00000040: 8530 c73c 9aa6 5fbd 251f f93d 5ffe d2bc
00000050: fb66 cdbd 20c2 9bbc 34a8 d0bc bf4f bebc
00000060: 699f e93d cbe1 fd3c 7ff0 e73d 7ec7 323d
00000070: 8af9 d1bc 72e5 8dbd 273d 15bd 3bf5 233c
00000080: 8c4a dabb e682 a4bc 818b 87bd faa5 09bd
00000090: 056e 61bc c229 8abd 0d23 dcbb 5022 f63d
000000a0: 98d7 593d ba07 a5bd cd49 d3bd 7511 b2bd
000000b0: f61a 0e3d 4c58 81bc ab2f 63bd 8478 aa3d
000000c0: ff7a 94bc 7d45 313d f1bc 543d dcd6 2bbd
000000d0: ed81 7dbd e462 36bc 4491 283c e52a 983d
000000e0: ed4f efbc 15d1 313c aa05 223d 1db2 723d
000000f0: 7a3a 8dbd 4132 5dbb bc0b b93d 3ff6 313d
00000100: 5d17 e23c 92ff e93c e730 9d3d 26ce d1bd
00000110: 5972 06bd 2712 80bc 59ef e93d f4e6 813d
00000120: f0d4 0a3c a409 033e b5de 7b3c 1d42 3d3d
00000130: f8fb 15bd 8d5f afbd 2143 633d 7997 9ebc
00000140: b918 963c 43af a63d 9b9a b33d 422e 923c
00000150: 7c9b 543c a1f8 803d 57ee 6f3c 7b03 9fbd
00000160: 1bbe e23c 57a2 c83c db0d 5c3a 70c2 0f3d
00000170: 0389 173d 2cb9 5dbd ec47 2dbd fea1 8dbd
00000180: 8da5 e13c a3cb 893c da12 c13d 68c0 653d
00000190: ccd4 1d3b fd1d 893c 214e 2dbd

baseColour.weight f4 [46, 128]
-0.030983632 -0.1756931 -0.026683537 -0.13492765 -0.07627609 -0.07222185 -0.026440393 0.0022233191
0.030131439 -0.11721627 0.109514005 -0.013862856 0.06833627 0.0021573904 -0.061607756 -0.086838506
-0.10671611 -0.16928668 -0.054828018 0.1218628 -0.027394306 0.049982846 -0.09412636 -0.05515854
-0.12653746 0.017895967 0.07973065 -0.019761262 -0.020973539 0.026583033 -0.045651328 0.11998517
-0.035301913 0.009570115 0.10707474 0.01845153 0.08329164 -0.106025465 -0.045406856 -0.032286346
-0.027877398 -0.22823727 -0.10123427 0.099598326 -0.031122716 -0.03679563 -0.063816436 0.04207137
0.022715008 0.11284667 -0.09700106 -0.092994295 -0.09391458 -0.030394299 -0.20015596 -0.026274359
0.013640343 0.090806164 -0.22880182 -0.03944221 0.06956462 -0.16139027 -0.18548852 0.09760381
-0.016409969 0.0040776446 0.06336789 0.043476194 -0.0073796576 0.06739211 0.015749726 -0.06911089
-0.012651044 0.02682475 -0.12820743 0.0397191 0.046595227 -0.20518184 -0.061446648 -0.042289957
0.07520467 -0.060139578 0.019745689 -0.26140314 -0.07498665 0.010701356 0.046072703 -0.029439298
0.052359562 -0.21886636 -0.05303585 0.08028136 -0.03373962 -0.0033554155 -0.120850705 0.044828024
-0.03776841 0.060803007 0.08438553 -0.040986106 -0.20062596 -0.044586312 -0.030263316 -0.110484675
-0.03258865 -0.11321545 -0.12029978 0.072106905 -0.046039723 -0.091492526 0.022550335 0.02317794
0.027545094 -0.12393065 -0.17937137 0.04754091 0.008080141 -0.10106692 0.030075992 0.057105955
-0.0053664767 -0.013193994 0.018325184 0.048109587 -0.24403937 0.053143047 -0.058958538 0.01245136
-0.05589743 0.07592465 0.06246004 -0.060789876 0.14305748 0.09362862 0.102556586 0.009220831
-0.16131298 0.00038484187 0.050230443 0.030344216 -0.002818363 0.14882448 -0.071182765 -0.0811986
-0.026391933 0.062382285 0.029457184 -0.057449274 -0.07384951 -0.026981482 -0.01470254 0.08122093
0.038758095 0.030093264 0.11710801 0.08052026 -0.09844522 -0.047933683 -0.046886448 -0.053565722
-0.052251443 -0.016344396 -0.022458423 0.023224855 0.027801953 -0.101646684 -0.02034329 -0.020892637
0.013290482 -0.0147877075 -0.040177733 0.010083919 0.055122573 -0.07657426 0.003969576 -0.0076787597
-0.11500534 0.12372074 -0.08329802 0.10486474 -0.07871366 0.03156731 -0.11298022 -0.040085323
-0.061707262 -0.002799765 -0.010294044 -0.17267497 -0.008514135 -0.057507366 -0.17762673 0.0672583
0.061814424 -0.04678135 0.0769869 -0.12537771 -0.1113286 -0.17191575 -0.0012457834 0.10508438
-0.018973801 -0.09588669 0.022524318 -0.17456451 -0.09870209 0.14266557 0.1050134 -0.11940843
0.078852326 -0.06404709 0.0073867887 0.18467167 -0.05006222 0.014649842 -0.09282154 -0.021552498
-0.11589002 0.15068933 0.15100023 -0.032759253 -0.030128138 -0.12008528 0.018776083 0.08910984
-0.045816213 0.017037878 0.04680012 -0.031995106 0.009157962 0.06199593 0.16033415 -0.04450422
0.059672583 0.035507087 0.0034499334 0.028542666 -0.030374601 0.06553746 0.048678458 0.035902277
0.0025236036 0.14021423 -0.025501804 -0.12978171 0.061092068 -0.02377616 -0.0007205294 -0.047484215
-0.0582677 0.04966241 0.04907534 -0.06265428 -0.087977506 0.04660425 -0.13150162 0.1448152
00000000: 63d1 fdbc e4e8 33be 6f97 dabc 792a 0abe
00000010: a436 9cbd 0de9 93bd 8699 d8bc 1bb5 113b
00000020: 35d6 f63c 150f f0bd e148 e03d 0821 63bc
00000030: e3f3 8b3d 0163 0d3b 6a58 7cbd 63d8 b1bd
00000040: fa8d dabd 7d59 2dbe 5893 60bd 3493 f93d
00000050: 066a e0bc d0ba 4c3d 52c5 c0bd eced 61bd
00000060: 0993 01be 909a 923c d349 a33d 5fe2 a1bc
00000070: b3d0 abbc a9c4 d93c e3fc 3abd c9ba f53d
00000080: bd98 10bd f9cb 1c3c 004a db3d aa27 973c
00000090: cf94 aa3d e123 d9bd 8afc 39bd b03e 04bd
000000a0: 245f e4bc 08b7 69be ea53 cfbd 35fa cb3d
000000b0: 11f5 febc 04b7 16bd 31b2 82bd 0753 2c3d
000000c0: d314 ba3c 281c e73d 7ea8 c6bd cb73 bebd
000000d0: 4a56 c0bd 77fd f8bc aff5 4cbe 533d d7bc
000000e0: bf7b 5f3c 95f8 b93d 064b 6abe 288e 21bd
000000f0: e577 8e3d 7e43 25be b4f0 3dbe 82e4 c73d
00000100: 336e 86bc c39d 853b 06c7 813d 1814 323d
00000110: 0ed1 f1bb e004 8a3d 9205 813c 038a 8dbd
00000120: 5346 4fbc 94bf db3c cf48 03be 7fb0 223d
00000130: a3da 3e3d 301b 52be 7baf 7bbd 3c38 2dbd
00000140: e804 9a3d eb54 76bd b6c1 a13c a2d6 85be
00000150: 9a92 99bd be54 2f3c bbb6 3c3d af2a f1bc
00000160: fb76 563d 811e 60be 1f3c 59bd 8e6a a43d
00000170: 8e32 0abd 88e6 5bbb 9380 f7bd 979d 373d
00000180: 0cb3 1abd 930c 793d 52d2 ac3d 0ce1 27bd
00000190: e470 4dbe 23a0 36bd c6ea f7bc ca45 e2bd
000001a0: ad7b 05bd 80dd e7bd bb5f f6bd c9ac 933d
000001b0: 2694 3cbd 6f60 bbbd 7bbb b83c aadf bd3c
000001c0: 40a6 e13c 5acf fdbd 21ad 37be 42ba 423d
000001d0: 9162 043c 2cfc cebd ed61 f63c efe7 693d
000001e0: 45d9 afbb 9f2b 58bc b21e 963c 8f0e 453d
000001f0: 75e5 79be 86ac 593d 827e 71bd ca00 4c3c
00000200: b4f4 64bd 627e 9b3d 19d6 7f3d cefe 78bd
00000210: a97d 123e 5dc0 bf3d 3009 d23d f812 173c
00000220: 3b2f 25be 9ac4 c939 70be 4d3d 6f94 f83c
00000230: 49b4 38bb 7265 183e 45c8 91bd 744b a6bd
00000240: e533 d8bc 9184 7f3d 3150 f13c ee4f 6bbd
00000250: 693e 97bd 4508 ddbc ece2 70bc 2957 a63d
00000260: cfc0 1e3d 2686 f63c 53d6 ef3d cee7 a43d
00000270: a69d c9bd 1c56 44bd 010c 40bd bb67 5bbd
00000280: 9c05 56bd afe4 85bc bafa b7bc 0d42 be3c
00000290: ecc0 e33c 232c d0bd f9a6 a6bc 0927 abbc
000002a0: 52c0 593c 2448 72bc 6891 24bd 0637 253c
000002b0: 35c8 613d f7d2 9cbd 3813 823b 1b9e fbbb
000002c0: eb87 ebbd 4d61 fd3d 2798 aabd 53c3 d63d
000002d0: a134 a1bd b94c 013d 2c62 e7bd 8230 24bd
000002e0: c1c0 7cbd 437c 37bb 5aa8 28bc b5d1 30be
000002f0: df7e 0bbc d88c 6bbd c8e3 35be b8be 893d
00000300: 1f31 7d3d cd9d 3fbd 4fab 9d3d 0463 00be
00000310: 4000 e4bd af0a 30be 8e49 a3ba 7b36 d73d
00000320: f26e 9bbc 3e60 c4bd eb84 b83c 0ac1 32be
00000330: 5224 cabd ec16 123e 4411 d73d 688c f4bd
00000340: 547d a13d 1f2b 83bd e00c f23b 921a 3d3e
00000350: 0b0e 4dbd e405 703c 3819 bebd dd8e b0bc
00000360: bf57 edbd 4e4e 1a3e ce9f 1a3e 912e 06bd
00000370: 49cf f6bc 45ef f5bd 4dd0 993c 387f b63d
00000380: c8a9 3bbd 0593 8b3c 7cb1 3f3d 4d0d 03bd
00000390: 470b 163c 72ef 7d3d a32e 243e 0f4a 36bd
000003a0: 3d6b 743d e16f 113d 4718 623b 4fd2 e93c
000003b0: 28d4 f8bc 8138 863d 1063 473d 440e 133d
000003c0: 0b63 253b 5294 0f3e 29e9 d0bc 7fe5 04be
000003d0: ad3b 7a3d 39c6 c2bc e9e1 3cba cf7e 42bd
000003e0: 1daa 6ebd d06a 4b3d 3903 493d e350 80bd
000003f0: 8d2d b4bd 19e4 3e3d 5ca8 06be 704a 143e

baseColour.bias f4 [46]
-0.03545331 -0.06793262 0.06702057 0.06516344 -0.031517938 -0.09037279 -0.1262013 0.050476145
-0.038222894 0.04856393 0.012226736 0.009415395 0.02105044 0.0014845484 -0.06871039 -0.040477768
-0.07718851 0.066020966 -0.013112968 0.0277758 0.06531929 -0.022942752 0.04478743 0.07055957
0.029512048 -0.026662432 0.06466304 -0.022682779 0.05285202 -0.043738753 0.072253376 -0.049787246
0.023777874 0.040034164 0.031282295 0.0717264 -0.057762794 -0.0856068 -0.018910328 0.04449952
-0.019734096 0.03721491 0.048428863 0.054772522 0.0060734735 -0.01274942
00000000: 7d37 11bd 4220 8bbd 1542 893d 6974 853d
00000010: f418 01bd 5f15 b9bd ea3a 01be 13c0 4e3d
00000020: 9c8f 1cbd f9ea 463d a652 483c 0743 1a3c
00000030: f971 ac3c 2e95 c23a 08b8 8cbd 04cc 25bd
00000040: 0215 9ebd 0036 873d c6d7 56bc 138a e33c
00000050: 1fc6 853d 70f2 bbbc 0673 373d 8981 903d
00000060: 40c3 f13c 2c6b dabc 0e6e 843d 3cd1 b9bc
00000070: 5c7b 583d 6827 33bd 94f9 933d b6ed 4bbd
00000080: d1c9 c23c ddfa 233d dd21 003d 4ae5 923d
00000090: ae98 6cbd 9e52 afbd d5e9 9abc 2145 363d
000000a0: 66a9 a1bc a96e 183d 585d 463d 2759 603d
000000b0: fd03 c73b f1e2 50bc
