data/models/fashion/smallmodel/1/checkpoint_epoch_15.pt (torch, 768191 bytes, 16 tensors)

linear1.weight f4 [256, 512]
00000000: 87b3 db3c 1b51 78bd e036 043d bf44 89bc
00000010: ba0b 693b 4ba7 cebb cc71 0c3d 2f85 afbc
00000020: dd68 b93c 3e7f a239 8e13 063b 473a bdbc
00000030: 89cc e0bc acc0 e7bc cb37 073c fc28 26bc
00000040: 00a8 d7bc a91f 313d 4a75 d33c b3be 80bd
00000050: ded4 02bc 2456 093d 0c9c f6bb 4765 483d
00000060: bd1d 823b 5b94 173c 6202 0f3d 04fc b6b9
00000070: fc21 91bb df0f c8bb 9f98 05bc 54b9 f1bb
00000080: b924 18bd 1d92 14bd 012d 123d ed27 13bd
00000090: 6a45 26bd fa50 15bd 04ac c63c 0569 96bc
000000a0: de8f ef3c a35e 36bd a127 a8bc 8a75 8cbd
000000b0: fce2 f63c 2c8e 293b d7ad 9a3b edfa df3b
000000c0: 6584 24bd d334 2abc 3c28 4bbd 58c2 22bd
000000d0: 4b2f 1ebd 4d47 163d 22c0 1f3d 2047 ffbc
000000e0: 8691 6e3c 70d8 1d3b c4f0 e43a 6272 223c
000000f0: d7c1 1c3c 05ef c03c efb0 ebbb 09e0 c6bc
00000100: 6e46 9f3b 8b6c ec3c 1b1e 87bb e4fc 393d
00000110: bf1c 853c 34c0 dabc d859 bb3b 9bcc a3bc
00000120: 428a 573c 7bf2 d9bc c936 63bd 5b73 4cbd
00000130: a6b0 70bd 75dd 09bc 8417 0ebd 846e a63b
00000140: 5f26 e93c 4adb ccbc 8580 94bc 60ec 5e3c
00000150: 42e0 f6bc db55 19bd d8fe 783c 5947 443d
00000160: 9626 123d 97f5 183d 5322 a0bc 0002 823d
00000170: c9f8 eb3c a6e2 fbbc 814d bebc 8d4d 88bd
00000180: 9ff0 023c 1eb4 3abd ed20 b4b9 2651 c0bc
00000190: 39c2 a5bc 6d27 efbb 4cb4 293b 40b7 40bd
000001a0: 2942 26ba d1d6 a03c b46e 73bc 495a 4b3d
000001b0: 4dc4 5f3b 6d82 653c 2ff7 64bc 3564 db3c
000001c0: af77 bcbb 159d 68bc 84eb 0f3d 926b 1d3c
000001d0: 4004 683c 3689 4bbc dfae c9bc 8aa2 633d
000001e0: f9ea 45bd 75e1 f6b9 fddf b03b cfea 0b3d
000001f0: 3069 d8bc 4ce5 ee3c a126 2abc 27eb e73a
00000200: a2af 35bd 77a3 dd3c 325c e039 427f f6bc
00000210: ab1e a3bb ac9e f7bc dcc1 09bd fb0a 87bc
00000220: 0d7b 57bc b0fd 30bd 6d56 6dbc 7ce5 1abc
00000230: 4651 0d3d d2f9 9e3b 54d2 563b c4ad c03b
00000240: e44c 333d dd91 743d f332 4d3d 546a 86bd
00000250: 7a93 c23c a500 c8bc 9a21 753c 4472 37bd
00000260: 4bb5 9dbc e7cd deba 4f7a 3cbd b929 10bc
00000270: 907b 863c e5cd 8f3c 53a8 933b 9e79 1abd
00000280: 870d 343d e5d8 1d3d 8864 f1bb b7b5 97bc
00000290: 4177 0b3c 63fc 523c 1cc0 aa3c e487 42bd
000002a0: 1ef5 753a 1ba0 48bc 127b 6cbd 7a52 b2bb
000002b0: 67be 263d edb1 5cbc 5283 673b b614 fb3c
000002c0: e213 42bd 404a 72bc 9ba3 26bc 6987 193d
000002d0: f7ce 46bd ffbd 8dbc 61a1 5f3c 16a6 3bbd
000002e0: efa1 ff3c abe0 05ba 8e59 51bd 0095 993c
000002f0: 11e2 debc f8de c53c 365f 6dbc aa36 503c
00000300: d3d5 143d db5e 4b3d a4a7 48bd b2b8 10bd
00000310: ae30 d3bc 20cf 59bb a690 f4bb 5449 1a3d
00000320: 286a 0c3d f698 aabc 2e16 edbc 8ea4 d03a
00000330: 299a be3b 93ee 06bc 2330 23bc 63e5 c43c
00000340: 7eb2 7f3c 5b88 2abd 1e6a 8b3d e211 2ebd
00000350: 364b 863b 8d53 3abb 28bb 03bd 0981 f2bb
00000360: d9d3 9bbc 2de1 04bd 2c67 d93c f918 9e3d
00000370: 7343 46bb 0cb4 823c 9d9b f03c 398d 4d3d
00000380: 39d8 42bc 9520 c23c 061f 173d 8f8a 0c3d
00000390: 01f4 093c 1d33 ce3c c02a c9bc 9ce7 45bd
000003a0: 2c10 ebbc 939f 6ebd 72d6 463d b373 343d
000003b0: 234a 5c3a 46d9 d33c 255e 9b3b 3568 46bb
000003c0: 60ef d1bc 049d edbb 9b93 023d f713 f13b
000003d0: 1712 1a3c 8caf 053c 43c2 91bc 46e8 17bd
000003e0: 1b29 c8bb b13d 973c 52bc 363d 3b2c a5bc
000003f0: 62f1 c53c d5a0 e83c cd81 51bc 89c9 fbbc
0.026819004 -0.060624223 0.032278895 -0.016756414 0.0035559968 -0.006306564 0.034288213 -0.021425812
0.02263301 0.0003099385 0.0020458433 -0.023099078 -0.02744128 -0.028290115 0.008253048 -0.010141607
-0.026325226 0.043243084 0.025812764 -0.06286373 -0.007985322 0.033529416 -0.0075259265 0.04892471
0.0039708302 0.009251679 0.03491438 -0.0003490151 -0.0044291 -0.0061054076 -0.0081540635 -0.007376829
-0.037144396 -0.036272157 0.03568745 -0.035926748 -0.040593542 -0.03645418 0.024251945 -0.018360624
0.029243406 -0.044523846 -0.020526709 -0.06858356 0.030137531 0.0025872095 0.0047204304 0.0068353326
-0.040165324 -0.010388571 -0.049598917 -0.039736122 -0.03861932 0.03668909 0.03900159 -0.031161845
0.014561063 0.0024085306 0.0017466773 0.009914966 0.009567699 0.023551473 -0.007192723 -0.02427675
0.004860691 0.028860351 -0.004123462 0.04540719 0.016249059 -0.026702978 0.0057174973 -0.019995024
0.013155522 -0.026604882 -0.05547217 -0.0499147 -0.058762215 -0.008414616 -0.034690395 0.0050790925
0.02846068 -0.025006909 -0.01812769 0.013606161 -0.030136231 -0.037435394 0.015197478 0.047919605
0.03568133 0.037343588 -0.019547617 0.06348038 0.028805153 -0.030747723 -0.023230316 -0.06655417
0.007991939 -0.04558193 -0.00034356807 -0.023476195 -0.020234214 -0.007298401 0.0025894819 -0.04704976
-0.0006342256 0.019633682 -0.014857937 0.04964665 0.0034144104 0.014008147 -0.013974949 0.02678118
-0.005751572 -0.0141976075 0.035136715 0.009608166 0.0141611695 -0.01242285 -0.024619518 0.05557493
-0.04831979 -0.00047088755 0.0053977952 0.034159478 -0.026417345 0.029162072 -0.010385186 0.0017693982
-0.04435695 0.027055485 0.000427933 -0.030089978 -0.004978021 -0.030227028 -0.033632144 -0.016484728
-0.013151896 -0.043210685 -0.014485938 -0.009454127 0.034501337 0.0048515582 0.0032779174 0.0058800895
0.0437745 0.05970942 0.050097417 -0.06563249 0.023751963 -0.02441437 0.0149616245 -0.044786707
-0.019251486 -0.001699862 -0.04601508 -0.00879901 0.016416341 0.017554233 0.00450615 -0.03771364
0.043958213 0.038536925 -0.0073667206 -0.018519266 0.008512319 0.0128775565 0.020843558 -0.047492877
0.00093825336 -0.012245203 -0.057734556 -0.005441961 0.040708926 -0.013470155 0.0035326076 0.030649524
-0.047382243 -0.01478821 -0.0101708425 0.037482653 -0.04853722 -0.017302511 0.013649316 -0.04581269
0.031205146 -0.00051070255 -0.051110797 0.018747807 -0.027207406 0.024154171 -0.014488032 0.012708345
0.03633673 0.049651008 -0.048988 -0.03533239 -0.025780048 -0.0033235028 -0.0074635325 0.037667587
0.034280926 -0.02082489 -0.02894124 0.0015918182 0.005816717 -0.008235591 -0.009960207 0.024035161
0.015606521 -0.041633945 0.068073496 -0.042497523 0.0040983213 -0.0028431148 -0.032160908 -0.007400636
-0.019021915 -0.032441307 0.026538454 0.07719607 -0.0030252605 0.015954994 0.029371077 0.05018351
-0.011892372 0.023697177 0.03689482 0.034311827 0.0084199915 0.025170857 -0.024556518 -0.048316583
-0.028694235 -0.05825765 0.048544355 0.044055652 0.0008403381 0.02586044 0.0047414475 -0.0030274515
-0.025626838 -0.0072513837 0.03187905 0.0073571163 0.009403727 0.008159529 -0.017792827 -0.037086748
-0.006108416 0.018462034 0.04461319 -0.020162692 0.024162952 0.028397003 -0.012787295 -0.030735748

linear2.weight f4 [128, 256]
00000000: 9ca9 4d3d 30f1 50be 42ca db3d dab1 85bd
00000010: df76 9e3d 4adf 58bd ebb6 48bc 642d 3fbc
00000020: 16c8 a2bd 3926 e2bd bae3 b93d 860b 3c3e
00000030: a792 553d 638c 213d 056a c9bd 10aa b2be
00000040: be56 203d 8329 d2be 050a 7bbc 90eb ecb8
00000050: 36a3 87be e993 9dbe 282b 503e 2158 dcbd
00000060: bb5b 0b3e a476 cfbd a33d dbbe 23d1 413e
00000070: d8c8 f6bc 6923 50bd 6f32 8ebb b022 00be
00000080: 44b2 553e 82e6 d33d f79b c3bd 3290 49be
00000090: e8a6 18bd bc95 983c daed bb3e 2f5b 05bd
000000a0: 1c1a a83d 76dd adbc a1fd 0d3e 3707 4abe
000000b0: a438 5e3d 28b8 b0bc af6a 2fbc 2575 54bb
000000c0: 90b2 a8bd eece fc3b cc84 023c 2195 713e
000000d0: b6b1 f53d 7906 9f3b 15e0 36be bac8 193d
000000e0: 81f8 86be f996 0c3d e608 c9bd e215 e73c
000000f0: 0b89 773c 86fa 4a3d 25b0 bcbd 7cfe 6f3d
00000100: 43c0 15be f332 443e 6df6 fdbd 1de9 83bd
00000110: 4622 2c3d d5d1 e33d 33c7 0d3e acc4 a13e
00000120: 0e09 3abe 4065 3dbc fcee c6bb 2ff1 f3bc
00000130: 52c3 cbbd d4d2 bd3d f25f 88bd 306e 803e
00000140: dd6b 183e 2b32 3dbd 497d 303e 41b7 8ebc
00000150: 74a1 353d 8ffb 683e 30a0 fb3d 9e33 6e3c
00000160: 0449 073e 6084 7c3d 90d9 86bc 3ae9 15be
00000170: 6fac 8a3d aef6 56be f2ee 213e 9edb 8f3e
00000180: 234f c5bd 83cc c33c 5c99 ef3d 15ba 783d
00000190: 55e9 a0bd e570 8b3d c99a 273e 1d14 90be
000001a0: 188a 91bd 6476 cabd 3e37 24bb aebd fd3d
000001b0: 98ce 83be 8604 ad3d 4d28 63bd b24c d8bc
000001c0: 6600 533d 9b1b b33d bfd7 a73c c357 dcbb
000001d0: b38c b5be d6c9 d2bc 4355 17be 020f 403e
000001e0: 2164 9b3c 8871 a53d 9e90 313e aaf7 7bbd
000001f0: f011 0ebe fdcc f13d 0e89 91be fdb8 ab3d
00000200: 1cf8 193e 1165 2d3e ee6a 1cbe f7b7 0abd
00000210: b28a 753e ff5d 8b3c a80c 99bd 9244 793d
00000220: 0eaa 5fbc dac8 87bd a819 0e3e a4de f4bc
00000230: acb4 98bd f2d0 95bd 96a8 5abd 6248 1b3e
00000240: 35e8 67bd d500 4439 723d febd be9e 2cbe
00000250: 89d0 6fbe 081e 573d a4f8 78be 0722 963c
00000260: 60b7 0e3e f451 a63d a12d db3c cba4 d33d
00000270: 2371 fb3c 5201 003c 83cf 10bc 0913 92bd
00000280: a104 0c3d 0cd8 d43c 34bb 0d3e 02a6 07be
00000290: 5996 063d 7acb 70be ad29 e23d 6a88 e53d
000002a0: cca4 15be e6e7 74be f0a6 0b3e ad32 31be
000002b0: 41ec a63d c5c6 3fbe 2460 3d3e 170c 9abd
000002c0: 981f b7bc 0624 28bd e785 5c3e a74b 8abe
000002d0: 52f9 5dbd d21e 37be 2d99 1e3e a98b 293e
000002e0: 1b35 df3d f979 9bbe 07ff 0fbd fdb2 babd
000002f0: b6f5 13be 4280 a73d 165f 4dbd ec9e 083d
00000300: b705 a93d 07ee 5b3c a16e 15bd 03e5 21be
00000310: a92b aebd fbb8 91ba 6fc8 183d ed82 1d3e
00000320: 1b1d 5a3d c98a 3d3e c8f4 34bd 0c2c 31be
00000330: a68b a1bc 015f d7bd 101b 013d 7652 b53c
00000340: 1594 693d cf17 a3bd bdc3 42bd e9b1 77be
00000350: 146e 63bd eb8d 64bd 4b13 0ebd 0eb7 6e3d
00000360: 0d2d 3dbd a6a3 65be 7641 a5bb 833f a33d
00000370: 740d 92bb 03eb a6bc 53dc 90be c61e 0cbe
00000380: 95fa dabc fb6d 7e3d 8a0c c53d 3ba8 03bc
00000390: f279 46be cd1c cebc 232d b8bd fe60 303d
000003a0: 1dc4 033e 2e22 cfbd 6215 9cbc 721d 8e3e
000003b0: 8414 b93d 02b5 013d f307 f5bd edff 113d
000003c0: e8ef 0fbd 086d b4be 46fb e03d cdfb 0dbe
000003d0: 0103 64bd 943c a5bc 4d24 04bd 127f 3abd
000003e0: 30ce e53d 8a48 2e3e bd29 483b 4a67 aebc
000003f0: fb36 f43d 00db 833b c867 503e 6d68 043e
0.05021058 -0.20404506 0.10731937 -0.06528063 0.077375166 -0.05294732 -0.012250642 -0.011668537
-0.079483196 -0.11042447 0.090766385 0.18363771 0.05214181 0.039440524 -0.09834675 -0.34895372
0.039145224 -0.41047296 -0.015322213 -0.00011297234 -0.26491708 -0.3077691 0.20328963 -0.10758997
0.13609211 -0.10130051 -0.42820463 0.18927436 -0.030125067 -0.05081502 -0.0043395082 -0.12513232
0.20868784 0.103467 -0.09551232 -0.19683912 -0.03726855 0.018626086 0.36704904 -0.032557663
0.08208105 -0.021223765 0.13866283 -0.19729315 0.054253235 -0.021572188 -0.010706588 -0.0032418456
-0.08237183 0.0077150976 0.007966232 0.23592044 0.11996786 0.0048530665 -0.17858918 0.037544943
-0.26361468 0.034323666 -0.0981615 0.028208677 0.015108357 0.049555324 -0.092132844 0.058592305
-0.14624123 0.1916006 -0.124005176 -0.06440947 0.042024873 0.11124007 0.1384552 0.3159536
-0.18167517 -0.011559784 -0.0060709696 -0.029778091 -0.09949364 0.09268728 -0.06658925 0.25084066
0.14884897 -0.046190422 0.17235292 -0.017421367 0.044343427 0.22752212 0.12286413 0.014538674
0.13211447 0.06164968 -0.016461164 -0.1463975 0.0677117 -0.20992538 0.15813807 0.28097242
-0.09634235 0.02390123 0.11699173 0.060724337 -0.078570046 0.06808642 0.1636764 -0.28140345
-0.071064174 -0.098858625 -0.002505734 0.12389694 -0.25743556 0.084481284 -0.055458356 -0.026403759
0.05151405 0.087455 0.020488618 -0.006724329 -0.35458907 -0.025731008 -0.14778619 0.18755725
0.018968644 0.08078295 0.17340323 -0.061515488 -0.1387403 0.118066765 -0.28424877 0.08384893
0.15036052 0.16933085 -0.15275165 -0.03386685 0.2397869 0.017012594 -0.07473117 0.06085641
-0.013651384 -0.06630106 0.13876975 -0.02989132 -0.074563354 -0.07315244 -0.053383432 0.1516433
-0.056617934 0.00018692327 -0.124140635 -0.1685743 -0.23419394 0.052518874 -0.24313599 0.018326772
0.1393714 0.081211 0.026755156 0.10334166 0.030693596 0.007812815 -0.008838537 -0.07132537
0.034184102 0.025981925 0.13840944 -0.1324692 0.032858226 -0.2351512 0.11043105 0.112076595
-0.14613646 -0.23916587 0.136379 -0.17304488 0.081505306 -0.18728168 0.18493706 -0.07521837
-0.022353932 -0.04104998 0.21535455 -0.27010843 -0.05419285 -0.17882851 0.1548812 0.16557182
0.10898801 -0.30366495 -0.035155322 -0.091161706 -0.144492 0.0817876 -0.05013951 0.033354685
0.08253043 0.013423449 -0.036482457 -0.15810017 -0.08504421 -0.001111775 0.037300523 0.15381975
0.053250413 0.18509974 -0.044178754 -0.17301959 -0.01971991 -0.105161674 0.03151995 0.022134047
0.057025988 -0.079635255 -0.04754995 -0.24188961 -0.0555249 -0.055799406 -0.034686368 0.058280043
-0.046185542 -0.22425708 -0.005043204 0.07971098 -0.00445717 -0.020375734 -0.28293094 -0.13683614
-0.026730815 0.062116604 0.09621532 -0.008035715 -0.19382456 -0.025160218 -0.08992984 0.04306125
0.1286778 -0.10113941 -0.019053165 0.2775684 0.09037116 0.031666763 -0.11964407 0.03564446
-0.0351409 -0.35239434 0.109854266 -0.13865586 -0.055666927 -0.020170487 -0.03226118 -0.04553134
0.11220968 0.17019859 0.0030542456 -0.021289486 0.11924549 0.0040239096 0.2035209 0.1293046

gender.weight f4 [5, 128]
00000000: c5e0 98bd b230 063c f668 143d 8202 d23c
00000010: 60fd 3abd f698 b3bd 388c cdbd 3ee9 103e
00000020: 502b babe a720 8fbd d287 bb3d 0cbe 10be
00000030: 0657 303d e057 cabd 49ba db3d c00f 52be
00000040: 58a4 7ebe 58f3 3dbe cc8a 64be 5c83 f63d
00000050: d1f2 23be ce0e 843d c490 e1bd 3733 b63d
00000060: 897c d2bd 9c28 0abe 50b0 15be 24f9 66bd
00000070: 486f b83d e3b6 4ebc 6a40 dfbe e9f1 a33d
00000080: e6a0 94be eeac e4bd 9668 0a3e 8a90 3d3d
00000090: c7ce 2ebe eae0 87be ba3d 063c 2564 143e
000000a0: 96ab 303e 1cb1 0fbf 5f2c ecbd f052 0cbe
000000b0: 8ad6 23be 038d 1cbc e85d de3c 454f f8bc
000000c0: 0826 1ebe 4b0c 76bd d00b e3bd e7a4 373e
000000d0: 8eeb d43d bbfe c53d 82ee 5bbe 25da a9bd
000000e0: 2ee1 c43d 5393 293e ecc8 0f3b f9d8 a43c
000000f0: ba74 bd3d a86b 253d 0c0f ddbe d187 7bbd
00000100: 249c f7be 5aa1 9c3c 81a2 76be f3ed d2bd
00000110: 2901 04be 158b 813d 2d9b 0b3e 7ec9 4cbf
00000120: 1ec6 47be 50a7 47be 4d6e d83b 22ea c2bd
00000130: 1508 d1bd 98c7 a5be 1c2a 593c 30e4 b4be
00000140: 59dd 8a3d c2b3 773d e126 f7be fa67 143b
00000150: c81c d0be 7a32 d23d 661b 073e 166d 993d
00000160: dc5a cd3d 9daf fa3a 5cfb 7dbe f83c 40bd
00000170: 3bdb 603d ae62 c23c 7bbe 0ebe 08a2 80be
00000180: 3ff3 b9bd b60c 2dbe 4c12 b3be f096 bdbe
00000190: 3c03 c03d 437c 933d 85fd 5f3e 1408 063e
000001a0: 76aa 95bd 0fbe 2ebe ee80 febc a21b 5b3d
000001b0: dfb7 c5bd e7fd f6bd d692 1d3b 0e62 64be
000001c0: d564 61bd f0ab 72bc 63a6 01bf d7a6 85bd
000001d0: cf98 ddbb fd78 ab3d 7db2 73be 6413 01bf
000001e0: f368 e33d 33a2 a53d 6311 90bd 1be3 4ebe
000001f0: 1b69 87bd af73 ccbd 00fa 873d 88e9 34be
00000200: 039c d33d 37af a5bd 00fd 183c b186 f9bb
00000210: 1f1b edbd fe44 27be 98e8 31be 04da df3d
00000220: 8359 d1be 1838 91be 6cfe 7a3d f41e 4bbe
00000230: efc2 f13d 39a4 a43b 5e2b b5bd 5c13 cd3b
00000240: 5f00 27be 1cd1 9d3e 2bf3 a83d ccec 073e
00000250: ff8e 2d3d 0b6f 123e b914 4cbc 1d54 e83d
00000260: 85e0 413c d07e 283e 45d3 483c c2ec ec39
00000270: f19d f7ba 4d23 afbd 9a74 6abe 7990 913d
00000280: db18 07bf e0df 9bbe 2330 1abd 3718 48be
00000290: 5529 15be 801a 1abe f7be d1bd 7d25 fc3c
000002a0: ad38 5d3b 62ca f0be 6b43 0d3d 9841 dcbd
000002b0: 98df edbd 6d7d f6bc f64c fdbd 6de2 593e
000002c0: 2749 75be ccc7 d43c 0f93 2cbd f3c7 e0bb
000002d0: cc30 653c 221f 9dbe a2c9 ca3d 1e7f 34bb
000002e0: caef 2a3c 5bca 84bd 838d 1abe b4f2 553b
000002f0: 5dbf 2cbe 3fa3 60bb c98c 8abd 938f 463d
00000300: 2e6b eebe 201c 873c f78f 5d3c 64af 08be
00000310: 5edc 2abf f909 343d c48c 353e 0a6c e9be
00000320: 040f ed3c 9c38 8bbe 204e 833d 9745 9e3d
00000330: e9ea 3bbd 0563 abbe 3f8f 99be e4a0 3cbf
00000340: 96e1 ea3b ffcd a7bd 91b9 f1be 0bc1 b03c
00000350: eeb2 10be f825 b6bc c5d8 f1bd 1f46 14bd
00000360: 2b23 9c3d 8a4e 2dbe 06b7 43be f0cf 8a3b
00000370: 7f3d eebd 5fd8 0b3e 8ab3 f5bd 1e96 8e3d
00000380: ceaf 42bc e370 0ebb 8996 b9be ab53 57be
00000390: f4a9 023d a01e 553c d61a 6e3e ceb1 c43d
000003a0: 640e 5cbd 944b 703e 9ba1 b93d 0baf 98bd
000003b0: 3aa6 6ebd bb65 0a3e 4704 f93c 237a 93bf
000003c0: 1947 c8bd b86e 15be 430f cdbe 2737 f1bd
000003d0: ad53 b3bd 5e5b a13d 262c afbe 8cd6 82be
000003e0: 8b11 df3d 5d93 a1bd 5cbc ccbd bd8a 8abe
000003f0: 4df6 8fbe 657b 253d 7a1b 82be 32e8 4abe
-0.074647464 0.008190321 0.03623291 0.025635961 -0.045651793 -0.08769409 -0.1003651 0.14151475
-0.3636117 -0.0698865 0.09156765 -0.14134997 0.043051742 -0.09880042 0.107288904 -0.2051382
-0.2486738 -0.1854986 -0.22318572 0.120367736 -0.16010596 0.06448136 -0.1101394 0.08896487
-0.102776594 -0.13492054 -0.14618039 -0.056389943 0.090056 -0.012616846 -0.43603832 0.08005125
-0.29029006 -0.11165796 0.13516459 0.04628042 -0.17071067 -0.26538783 0.008193428 0.14491327
0.17252955 -0.5612962 -0.115319006 -0.13703513 -0.15999809 -0.009555104 0.027144387 -0.030311236
-0.15444195 -0.060070317 -0.110862374 0.17933999 0.10396491 0.096677266 -0.21477702 -0.08293561
0.09613262 0.16560106 0.0021939827 0.020122992 0.092507794 0.040385872 -0.43175542 -0.06140882
-0.48361313 0.019119907 -0.24085428 -0.102992915 -0.12891068 0.06325356 0.13633414 -0.7999495
-0.1950917 -0.19497418 0.0066049458 -0.095173135 -0.1020662 -0.3237884 0.013254669 -0.35330343
0.067805 0.060474165 -0.4827185 0.0022644983 -0.40646958 0.10263534 0.13194045 0.074915096
0.10027096 0.0019125823 -0.24802917 -0.046933144 0.054896574 0.023728695 -0.1393985 -0.2512362
-0.09079599 -0.1689938 -0.34974897 -0.3702922 0.09375617 0.072014354 0.21874054 0.13089019
-0.073079035 -0.17064689 -0.031067338 0.05349315 -0.09654211 -0.12060147 0.002404382 -0.2230303
-0.0550278 -0.014811501 -0.5064451 -0.06525963 -0.006762601 0.08372686 -0.23798557 -0.5042021
0.11104002 0.08087578 -0.07034566 -0.20203821 -0.06611844 -0.099830024 0.066394806 -0.1766721
0.10332491 -0.0809006 0.009337664 -0.0076149334 -0.115774386 -0.16334912 -0.17373884 0.10930255
-0.40888605 -0.2836311 0.06127779 -0.19836026 0.11804759 0.0050244597 -0.08846162 0.0062584113
-0.16308735 0.308236 0.082495056 0.13273925 0.0423727 0.14300172 -0.012456113 0.11344168
0.011833315 0.16454625 0.012257402 0.00045189826 -0.0018891675 -0.08551655 -0.22896042 0.07107634
-0.527723 -0.3044424 -0.037643563 -0.19540487 -0.14566548 -0.15049171 -0.10241502 0.030779595
0.0033755705 -0.47029406 0.034488123 -0.107546985 -0.11614913 -0.030089105 -0.12368195 0.21277781
-0.23953687 0.025974177 -0.042132434 -0.0068597733 0.013988685 -0.30687815 0.0990174 -0.0027541588
0.010433147 -0.06483909 -0.15093045 0.0032645883 -0.16869874 -0.003427699 -0.06765134 0.048476767
-0.46566147 0.016492903 0.013523093 -0.13348156 -0.66742504 0.043954823 0.17729479 -0.4559024
0.028937824 -0.27191627 0.064113855 0.07728117 -0.045878325 -0.33473983 -0.299921 -0.73683
0.007168005 -0.081935875 -0.47211888 0.021576425 -0.14130756 -0.022234902 -0.11808924 -0.036199685
0.07623895 -0.16924492 -0.19112787 0.004236214 -0.11632823 0.13656758 -0.11997135 0.06962226
-0.011882735 -0.0021734766 -0.36247662 -0.2102801 0.03190036 0.01300779 0.23252425 0.09604226
-0.05372466 0.23466331 0.09064027 -0.07455262 -0.058263995 0.1351537 0.030397547 -1.1521648
-0.09779186 -0.14593017 -0.40050706 -0.117780976 -0.08756194 0.07878755 -0.3421337 -0.2555431
0.10892018 -0.078894354 -0.09996864 -0.27058974 -0.281176 0.04040088 -0.25411588 -0.19815138

gender.bias f4 [5]
00000000: f7a8 9dbd 9e08 aabd 724c f83d f325 4cbe
00000010: f961 9cbc
-0.07698243 -0.08302425 0.12123956 -0.19936351 -0.019089686

masterCategory.weight f4 [6, 128]
00000000: 1544 e2bd de78 41bd b542 013d 01af 333e
00000010: 38c4 dcbe 4a60 40be 483e e23d 9e67 8a3b
00000020: 9960 983e c6b2 3a3e a05c 55bd 2907 553c
00000030: 1521 b3bd b080 a2bd a534 35be d107 3cbd
00000040: ee3c 5dbe f8a3 123e 7495 8fbe c420 71be
00000050: db6e 993d a1da af3d 17f2 253e bb96 1f3e
00000060: d39e 85bd b330 eabd 8a69 bbbd b1f5 dcbc
00000070: 5161 853c 8a71 c3bd 7524 4f3e ada9 003e
00000080: 067e 15be cd71 0f3d 5b7b bcbd af3c 2f3e
00000090: ccc6 0fbe d182 3abe 64c6 933d 0877 f0bd
000000a0: 26f4 ab3d a065 513e 24c9 f4bc 9c1d 99be
000000b0: 28bd 253e dd8c 343e 408b 033d 14a2 b4bd
000000c0: 87fd 0d3e 7965 d53d be15 d93d 672c 1cbe
000000d0: cba7 2e3b 2611 113d c280 a0be b3a8 4a3c
000000e0: 33bd 0fbe d2c1 77bd fe1d 913a 2965 253d
000000f0: 3fc3 19be a95b 91be df03 d83d fbc6 97bd
00000100: 3356 21be 4e83 a1be 50e4 d1bd 94b1 b5be
00000110: 52ca 83be 02e6 35bc 0d8f a03d f8e6 e63e
00000120: ea73 e0bd 227f 643e e4e2 173e 4e02 223e
00000130: 95a8 e1bd dbfd e6bd f858 46be 3662 163e
00000140: 808d e23d 3dec b5bd 4364 023e 4902 dc3d
00000150: 6d6b 253e 8333 9b3d 0975 61be 92ed 89bd
00000160: 11e2 4ebc 9a0e e13c 143a cebd a7af 043e
00000170: adde 363e 431b 72be f78e 813a 5c49 033e
00000180: 6285 c8bd b301 7c3e d2b5 c0bd 605f b2be
00000190: fd11 b33d 289c 3fbd fa57 45be 5649 96be
000001a0: e4ed 72be 1113 163e e507 03be 9d62 4b3d
000001b0: 9b38 c0be 87d7 6ebc 2562 ecbd ee47 243f
000001c0: a6cf 893d b0bc 8c3d 9702 86bd f77f 19be
000001d0: 8539 01bd 10f0 223e 2336 0abd fc51 383e
000001e0: acac 2cbd 6d89 703e 4d14 39bc 7d00 52be
000001f0: 3ba3 03be ca40 3abe 5c7b afbd 44a0 073d
00000200: 2225 8b3c df38 10be 9471 643d a1de 82be
00000210: a7bf f53e e04c 01bd 6500 0abe bb86 223e
00000220: 25b4 c9be 598f abbd 95b4 143e d1b9 abbd
00000230: 3a5b cc3d c9ce 943e eb65 5b3e 181c 6b3d
00000240: 78cc 693e dbe7 b4bd 80cc 8e3c aaa8 db3e
00000250: b6f1 e8be 3fc8 76be bfc2 78bd 7998 2cbe
00000260: 9d4f 783d 0ad7 4e3e c7c0 373e 54ae a0bd
00000270: 750e d2be 5683 39bc 71e3 88be c66d 0bbe
00000280: 416c ee3d 2edf ce3b bb0c 943e 96b1 f43d
00000290: bea3 4b3e 8da5 c73d cbf4 883c 13a5 303e
000002a0: 816a 7ebd c03e 99be 7209 39be cbce 9d3c
000002b0: 5583 3fbe e18c 2fbe 0771 3cbd 5fa9 dc3d
000002c0: 7d5e c9bd 11ec 27be eb5c 903b dd4a 4c3d
000002d0: 872a 89bd 03e9 1fbf 6f4c 8b3e 9029 bf3d
000002e0: 33c4 3b3e 2648 05be 9929 6fbc 7b4d bb3c
000002f0: 39ff 343e 2a0d ac3e 3c83 5bbe 5328 e13d
00000300: 8e58 14bf d034 c53e 9dcf 1c3d 4c5d 0b3e
00000310: a6c0 d03d 5a29 aabc 9039 d6bd c822 2fbf
00000320: 85e7 0d3e ceb8 3ebd 50be 63be e7c7 d839
00000330: 3fa3 af3d 1e14 e93e 02b8 7ebe 667a 0a3d
00000340: b51f 32be 9a2d e13d a73f c83b 26af 813c
00000350: 7755 00ba cb9f 87be 0dea 823e 73ff 71bd
00000360: 33cd e93c 161b 063d bdf1 8fbe bd6a 743c
00000370: db85 75bc f1f0 473e 94c9 863d c516 a0bd
00000380: d973 083e 0570 f1be e169 0d3e 0098 e93d
00000390: a80d 7fbd 3a36 e13c 185d c63e 02d9 883e
000003a0: 664d 51be 1b99 3abe a4ca e9bd 6b98 03be
000003b0: 6475 083e da34 393e a2d8 70bc 2fbb 1cbf
000003c0: 15ca 3cbc b10b 07be dbc1 c0bd 05a7 71bd
000003d0: b0f5 573d d976 c33d 78d4 54bd 109c 833c
000003e0: d900 e2bc 9579 0fbe 7339 4d3d 840e c93d
000003f0: 434d 8abd 480e 95bb f814 093e 0b16 8ebe
-0.11048142 -0.04723441 0.031557757 0.17547227 -0.43118453 -0.18786731 0.110470355 0.004223778
0.29761198 0.18232259 -0.052090287 0.013002195 -0.08746544 -0.079347014 -0.17695864 -0.04590589
-0.21605274 0.14320362 -0.2804371 -0.23547655 0.07491847 0.08586622 0.16205631 0.15584843
-0.06524434 -0.1143507 -0.09150989 -0.026972624 0.016281756 -0.0954314 0.20228751 0.12564726
-0.14598855 0.03502064 -0.09203216 0.17112993 -0.14040679 -0.18213965 0.072155744 -0.117414534
0.08396177 0.20448923 -0.029881068 -0.29905403 0.16185439 0.1763186 0.03211522 -0.088199764
0.13866244 0.10419745 0.1059985 -0.15251313 0.0026650305 0.035416745 -0.31348234 0.012369323
-0.14037018 -0.060487576 0.001107156 0.040379677 -0.15015887 -0.28390244 0.10547613 -0.074109994
-0.15755539 -0.3154549 -0.10248625 -0.35487044 -0.25740296 -0.011102201 0.07839785 0.4509809
-0.10959609 0.22314122 0.14832646 0.15821192 -0.110184826 -0.11278888 -0.19369876 0.14685902
0.11062145 -0.088829495 0.1273356 0.10742623 0.16154261 0.075781845 -0.22017302 -0.06734766
-0.012627141 0.027472783 -0.10069671 0.12957631 0.17858382 -0.23643212 0.0009884526 0.12820953
-0.09791066 0.24610023 -0.094096795 -0.3483839 0.08743665 -0.04677978 -0.19271842 -0.29352826
-0.2372356 0.14655711 -0.1279598 0.04965459 -0.37543187 -0.014577753 -0.11542157 0.64172256
0.06729059 0.06871927 -0.06543463 -0.14990221 -0.031548996 0.15911889 -0.033743035 0.18000025
-0.04215686 0.23489924 -0.011296344 -0.20507999 -0.12855236 -0.18188778 -0.08568451 0.033111826
0.01698548 -0.14084195 0.05577238 -0.25560477 0.47997782 -0.031567454 -0.13476713 0.15871708
-0.39395252 -0.08376951 0.14522012 -0.08385051 0.099783376 0.29064015 0.21425597 0.05739984
0.22831905 -0.088332854 0.017431498 0.42902118 -0.4549691 -0.24099825 -0.0607326 -0.16855039
0.0606228 0.20199218 0.17944632 -0.078457505 -0.41026655 -0.011322817 -0.26736024 -0.13616094
0.116417415 0.006313226 0.28915963 0.11947934 0.19886681 0.09748373 0.016718289 0.17250471
-0.06211329 -0.29930687 -0.1807001 0.019263646 -0.18702443 -0.17143585 -0.04600623 0.107744925
-0.09832475 -0.16398646 0.004405608 0.049876083 -0.066975646 -0.6246492 0.27206752 0.09334099
0.18336563 -0.13015804 -0.01459732 0.022864094 0.17675485 0.33603793 -0.2143678 0.10994019
-0.57947624 0.38516855 0.038283933 0.13609809 0.10192995 -0.020771671 -0.10460198 -0.68412447
0.13857849 -0.046562962 -0.22240567 0.0004134767 0.085760586 0.4552316 -0.24874881 0.033808134
-0.17394908 0.10995026 0.0061111036 0.015830588 -0.0004895548 -0.264891 0.25569192 -0.059081506
0.02854023 0.032740675 -0.2811412 0.0149180265 -0.014985527 0.19525506 0.06581417 -0.07816843
0.13325442 -0.47155777 0.13809921 0.11405945 -0.062268883 0.027491678 0.387429 0.26728064
-0.20439681 -0.18222468 -0.11415604 -0.12851112 0.13326031 0.18086568 -0.014700087 -0.6122312
-0.0115227895 -0.13188054 -0.09411975 -0.058997173 0.05272454 0.09544153 -0.05196044 0.016065627
-0.027588295 -0.14011224 0.050103616 0.09817222 -0.06753018 -0.0045488216 0.13386905 -0.27751192

masterCategory.bias f4 [6]
00000000: a342 afbd d04a f73d 0fa4 303d 0c11 47be
00000010: f614 e73d 2150 373e
-0.08557632 0.12074816 0.04312521 -0.19440097 0.11283295 0.1790166

subCategory.weight f4 [37, 128]
00000000: f8a0 8ebe 0915 483e 9d94 edbe 9539 19bf
00000010: 929e f3be 0c84 f9bd 7e82 b7bd 8e8e a1be
00000020: f49d 34bf 3f33 443e 1f98 0bbf 10c2 5e3d
00000030: 70e4 1cbf 9dd4 49be 6571 b9bc 8e22 89be
00000040: 9de5 adbd dc06 10be aa7f 5a3d 4c20 34be
00000050: 73f5 1c3e 955f 8ebd b68d a2be dc07 4dbe
00000060: bb29 07be 9712 cbbd 7d88 edbd 039a bcbc
00000070: d10d 18bd d0d6 b1be 9058 db3c f10f 3abd
00000080: 4aec 07bf 6031 cfbc 0213 87be 6334 2dbf
00000090: ae68 90be e5b7 033d bef1 333d 3e04 65be
000000a0: 0d63 9fbd 0ee3 10bf 5168 d2bd 45e7 bfbe
000000b0: ee28 3e3e 8752 45bd b207 453d e255 3cbe
000000c0: 4d31 3fbe 6316 a2ba d346 003e f444 d4bd
000000d0: 0d12 033e 1879 353e 8b2e 16bf 2bb4 01be
000000e0: 2ff3 6abe b2ee 6d3e 6c26 c53d 4c3d c7bc
000000f0: 5c4e 8bbe b970 83bf bc8b f7be a483 713d
00000100: 4309 5f3d a42f 23bf ee8c 5bbf 52a5 85be
00000110: 2027 f4bd f5c4 12bd 0f30 873d 8f9a 9fbe
00000120: b8ba a9be baf1 9bbd 6b50 7a3b e0d6 4f3d
00000130: c2be 2dbd 02dd 3dbf 03b7 d1bc 6af0 e83d
00000140: 9e3a 46be 1a7b 17bd 7de4 923e 6220 863d
00000150: 0fc6 8fbe 1366 8b3d 843a 0bbe f1f7 92be
00000160: 91db 083e 0576 083e 553b c8bd 6a13 acbc
00000170: 8132 363e 34c5 5ebf 7eb4 bbbe 7c39 21be
00000180: c828 1c3e c705 5ebc cfad e63d adf9 54be
00000190: 3d7b 31bb c731 963c d1b3 43bf 83eb a23c
000001a0: 89d9 f0be 2490 61be 4421 0fbe f8c3 903d
000001b0: fdb4 acbe 39c3 94be 99c3 e03c 2503 a6be
000001c0: deaf 933d aa40 9a3d 49af 2abe e754 8ebd
000001d0: 1272 dc3c 2db2 6a3e 0430 d5be 897a b4bd
000001e0: b880 4f3e 01aa 1d3e 48ee 88bd d5f2 3b3e
000001f0: 85b2 08be 580c b5be 309f e6be 34e1 01be
00000200: 0eaa 6e3d db12 78be e9d2 39be 0938 3abf
00000210: 0012 cabf 9ba2 0bbe c6f7 1a3e 29cf 5d3e
00000220: 04a2 b0be 93e9 cbbd 507b 533e 67e8 5dbf
00000230: a22b 8b3d dbf5 96be 5647 133e 5dc9 6cbe
00000240: a876 2b3e a69b 23be 0339 9ebc f767 acbe
00000250: 4b3f babe 405b dd3c 301c ce3d c770 05be
00000260: 70e2 ddbd 757e 5a3e 88ab cabe d4f6 6cbd
00000270: c9f1 a6be 5c26 f2bd 7c86 84bd b563 dbbe
00000280: 1b75 fbbd 3850 febd c284 6c3e daa5 20bf
00000290: 6e3a 943d 1c23 773e 204e 74be 79bb e0bc
000002a0: f9d5 5d3d 8c47 ddbe 0719 ff3c df86 debe
000002b0: d7df f8bd 21ef a3bd 05c2 fa3c af99 123e
000002c0: 1076 91be 2f79 73bb 787f 45be aa17 513e
000002d0: bd66 82be 6ae8 f6be 8379 f9be a34d 57bf
000002e0: 214e 583e 78e3 25bd 513a 083e 45c0 36bd
000002f0: b4a5 11be 9d8b 79bc ef8d 88be 005b 88be
00000300: e3bc 98be fb8f 073e 4a29 433c 3532 76be
00000310: dc6a 06bf 3afa c9bd 975d 1dbd aefe 1dbf
00000320: ef2f de3d 7ea3 64be 012d bcbe 5961 a8be
00000330: f658 6e3d 87c8 a3be f637 93bc f88b 0dbe
00000340: b11d 323e 2708 333d a8d7 9ebe 3a2b 08bf
00000350: a229 963d 28dd 99bb 8676 02be f70b 533d
00000360: 8089 debe 5800 d5be 13a5 b9be 33fa 51bd
00000370: 57fd 99be 903c f8be fb6e b9bd b8ae 91be
00000380: 51cf f1bd 050b a03c 87fb 28bf baf1 80be
00000390: 87b7 abbd aab5 8d3d 1a72 c03d 1854 ec3c
000003a0: c59a 103d 9976 5ebe 5ff9 e7bd 6292 9ebd
000003b0: 1e44 e3be 87dd 873e 9950 38be ecf0 c1be
000003c0: dab3 aabe 270e 1bbe b85e cebc 5123 74be
000003d0: c6ff 73be 675f fcbd eae0 803d c4c8 37bf
000003e0: dadc c0bd e219 8ebe dfc1 34bd 738f 4bbf
000003f0: 5942 c7be 6a47 f9bd 90ad a3be d857 273d
-0.27857184 0.19539274 -0.46402445 -0.5985349 -0.47581917 -0.12183389 -0.08960436 -0.31554073
-0.7055352 0.19160174 -0.54528993 0.05438429 -0.6128607 -0.19710012 -0.022637079 -0.26784176
-0.08491061 -0.14065117 0.053344406 -0.17590445 0.15328006 -0.069518246 -0.31748742 -0.2002253
-0.13199513 -0.09915655 -0.11598299 -0.023022657 -0.03712255 -0.347342 0.026775628 -0.04542536
-0.53094923 -0.025292099 -0.2638169 -0.6765806 -0.28204864 0.032157797 0.043931715 -0.223649
-0.07782564 -0.5659646 -0.10273803 -0.37481132 0.18570301 -0.048174407 0.048103042 -0.18392137
-0.1867115 -0.0012366291 0.12527017 -0.10364714 0.12799855 0.17721975 -0.5866477 -0.12666385
-0.2294433 0.23235586 0.09626469 -0.02432122 -0.2720822 -1.0268775 -0.48348796 0.058963433
0.054452192 -0.6374457 -0.85761917 -0.26102692 -0.11921525 -0.035832364 0.06600963 -0.31172606
-0.33150268 -0.07614465 0.0038194906 0.05074203 -0.04241825 -0.74165356 -0.025599962 0.1137398
-0.19358298 -0.036982633 0.28689948 0.06549145 -0.28080794 0.068065785 -0.1359654 -0.2870479
0.13365008 0.13326271 -0.09776942 -0.021005351 0.17792703 -0.8701966 -0.36661142 -0.15744585
0.15249932 -0.013551182 0.1126362 -0.20798369 -0.0027081512 0.018334283 -0.76446253 0.019887691
-0.47040966 -0.22027642 -0.13977534 0.07068628 -0.33731833 -0.29055193 0.027437018 -0.32424274
0.072112784 0.07531865 -0.16668428 -0.069497876 0.026909862 0.22919531 -0.41638196 -0.08812434
0.20263946 0.15396883 -0.066860735 0.18354352 -0.1334935 -0.3536098 -0.45043325 -0.12683564
0.058267646 -0.24225943 -0.18146862 -0.7274175 -1.5786743 -0.13636248 0.1513358 0.21661057
-0.34498608 -0.0995666 0.20652509 -0.8668274 0.06795432 -0.29484448 0.14382681 -0.23123689
0.16744483 -0.15977344 -0.019314295 -0.3367307 -0.36376414 0.02702105 0.1006397 -0.13031302
-0.10834205 0.21337302 -0.39583993 -0.05785258 -0.32606342 -0.11823723 -0.06470963 -0.42849508
-0.122781955 -0.12417644 0.23097518 -0.6275307 0.07237707 0.24134487 -0.23857927 -0.027433144
0.05415914 -0.43218648 0.031139864 -0.43462273 -0.12152069 -0.080045946 0.030610094 0.14316438
-0.28410387 -0.0037151088 -0.19286907 0.20419183 -0.25469008 -0.48224193 -0.4872552 -0.8410284
0.21123554 -0.040500134 0.13303496 -0.044616956 -0.14223367 -0.01523104 -0.26670787 -0.26631927
-0.2983161 0.13238518 0.0119117 -0.2404259 -0.52506804 -0.0986218 -0.038419332 -0.61716735
0.10848986 -0.22327992 -0.36753085 -0.3288677 0.05819031 -0.31988928 -0.01797102 -0.13822925
0.17394139 0.043708947 -0.31023908 -0.5319096 0.073321596 -0.0046955533 -0.12740526 0.051525082
-0.4346428 -0.41601825 -0.36258754 -0.051264 -0.30076095 -0.48483706 -0.09054371 -0.28453612
-0.118071206 0.019536505 -0.660088 -0.25184423 -0.083846144 0.06919415 0.09396763 0.028848693
0.03530385 -0.21724929 -0.11326861 -0.07742764 -0.44387907 0.265362 -0.17999496 -0.3787912
-0.3334034 -0.15142117 -0.02519165 -0.23841597 -0.23828039 -0.12322884 0.06292899 -0.7179072
-0.09417124 -0.27754122 -0.044130202 -0.7951576 -0.38917807 -0.12171824 -0.31968355 0.04085526

subCategory.bias f4 [37]
00000000: b333 f1bd 06fd 98bd e411 b03d 8e40 bebc
00000010: a659 65bd 4ba4 9fbd d642 adbd 2200 193d
00000020: 3326 293d 40c7 e7bd 16a7 fe3d 647f f5bd
00000030: 2681 fd3d bbff 643d c29c 18bc 5662 cabd
00000040: 6fc2 89b8 1385 31bd e3c4 73bd b8a0 353d
00000050: 3388 0dbd 1f75 15be c877 b93d ad99 c9bd
00000060: 3e71 c7bc 3a0b ddbc f088 0c3e c809 043e
00000070: 4112 c73d 315a f6bc 8409 833e e8b0 52bd
00000080: 58c1 63bd 11b7 e83d f185 6abd 24cd d93d
00000090: 9873 373d
-0.11777439 -0.074701354 0.08597162 -0.023224141 -0.0559937 -0.07795008 -0.084600136 0.037353642
0.041296195 -0.11317301 0.12434213 -0.119871885 0.12378149 0.055907946 -0.009314718 -0.09882037
-6.568885e-05 -0.0433398 -0.059513938 0.044342726 -0.034553718 -0.1459546 0.090560496 -0.098437645
-0.02434599 -0.026982892 0.13724113 0.12894356 0.097202785 -0.030072303 0.25593197 -0.051438242
-0.05560431 0.11363042 -0.057256643 0.106348306 0.044787973

articleType.weight f4 [103, 128]
00000000: 1083 58be 691d 203e 0cf2 6dbe fb90 9ebe
00000010: cae7 87be bd5d a5bd 495f c93b 24bd 83be
00000020: 460e dfbe 8970 973e 09c5 4abe c358 8a3d
00000030: 16bb 59bf 18e5 6fbe 8757 123d 530c 72be
00000040: da50 dabe 6797 efbe c33d 7abf 89c2 92bf
00000050: bbf5 283e df9c 633b 8ab4 52bf 9a69 afbe
00000060: 828e 0ebe 39f2 39be 2ced 033e d0d8 edbe
00000070: 4a7e 5c3d afea d2be ce69 913d 1fa4 90be
00000080: 7410 63bf 46c6 fabc a87f 7fbe 4883 c7be
00000090: 61a2 5bbe 4abf 4abf 7902 ba3d 664e a2be
000000a0: f38c a4be 27da a5be 2647 14bd 330f a1be
000000b0: 7260 87bd 61b2 9fbc 3095 8dbe df44 bebe
000000c0: a3ae 6bbe f446 9bbd 875d f33d 95b3 8bbe
000000d0: cfb7 6a3e 28f3 4d3e d430 37bf 5759 8cbb
000000e0: 945b c4be bb61 733e 1c6a 41bf 3deb 903d
000000f0: 986c 64be f6f7 aabf 67d7 90be c4f4 b03a
00000100: 2fd2 4b3a 1aae 59bf 0eb5 03bf 4bfe 27bf
00000110: ff96 4bbe d2a2 1c3e 4218 b3be 6e66 0bbe
00000120: 5d1f 78be 4621 bbbd 608b c4be 2bf2 5dbe
00000130: 5db5 61be 7b34 d2be a0d0 c7bd 4bf2 ffbb
00000140: fa93 bebe 0ab4 e4bc d9b3 9e3d 5cb1 0a3e
00000150: fced c3be f8a1 0fbf 6020 1abd 9d42 b1be
00000160: 76ea 353e 667a 893d 444f 21be 3fe4 ddbd
00000170: 4fe2 6f3e e4a6 f1be 2b6f 9fbe ab22 5fbe
00000180: 5e66 513e 4bee 59be 18b3 4a3e c136 3dbe
00000190: ad10 68bd 9039 adbc 9cbe acbe 2a4d 49bf
000001a0: 9a43 d0be ee9a 973c 0603 9cbd 1a38 acbe
000001b0: d57f 8cbe 36d8 43bf 6bea 553c c7a8 f9be
000001c0: 5c94 3f3e aee9 89bd ef6d 99bd 1b2c a5be
000001d0: 79e3 d93d 3978 7e3e 082e 48be 9fcd 03be
000001e0: 4568 b1bd b45c d73d 5853 9abd adb2 a53d
000001f0: 8886 38be 045c 14be f431 ccbe 38a7 51bf
00000200: 0bad 633e dddf 03bf 2c42 9c3d d074 98be
00000210: a3b5 23bf a1f1 c33b d174 f2be db8f f6bd
00000220: 7b8f debe 3d36 853d e59d 91be 1720 8dbe
00000230: c200 bdbe c7bc 4fbd 4775 4bbf d16a 76bd
00000240: efd5 fabd a408 2ebd 9f58 183d 917c 59bc
00000250: dee9 3abe e545 173e 3285 9fbe 1a84 16bf
00000260: 1a59 e8bd e73a 7a3d b84c babc eb28 52be
00000270: 192e 2e3c 9e3e 94be 04bf e5bf 6c85 b9be
00000280: db7f d2bd d599 933d 827f c0bd 112e c3be
00000290: 110b a33d a769 02bf 743c 75be 6fc0 debd
000002a0: bc9c 5cbf be49 4bbf a359 8bbd df03 9bbe
000002b0: 12f0 7ebe 8d78 c0be 2959 1ebe 6701 2ebd
000002c0: 1a41 11be 7443 b6bd d115 e9be 8ed7 82be
000002d0: bf75 1ebe 50fc 7fbf b27e 9d3d b70f 83be
000002e0: 1b85 81be 2a55 8bbd 811d 9fbf 7768 48bd
000002f0: 3a5a ccbe 24e8 cebd cc06 86be 1fab 10be
00000300: e0c2 163d 8bb8 39be 80c5 80bd 1e93 16be
00000310: 7daa 3dbe 6a3b 91be a38b 04be afca 65be
00000320: bb98 3d3e ec9c 39bb 51e2 97bf 4a23 9cbe
00000330: 6602 d93d 4624 edbc 3ae5 863d 70f8 21bf
00000340: 7cc2 14bf f7da 9dbd 6311 70be 4b3f 2cbf
00000350: 822e 95bd 3e46 b13d 5330 b03d d387 22bb
00000360: 130a 4d3d e666 c2bd 5deb 1ebe bd69 61bd
00000370: 9d6b f8be 29e9 183d fe14 0cbf ce05 093d
00000380: 51ee 303e 3654 b0bd ca7e 2dbe 6d05 86bd
00000390: 9ff1 aabd cddc 22bd 343c b5be ea3b babd
000003a0: 15ba 43be 10b9 f83d 639d 20be 9a41 eebf
000003b0: 81bd 4bbf c2f8 40be ebed 89bd c878 c0be
000003c0: 1255 5abe 7f27 abbe ca40 dfbe e8b4 a63c
000003d0: a8a8 83be e19a 8bbd 5940 bcbd 9fa6 c7bd
000003e0: b973 cebc de87 d3bf c62f d8bd ba1b 8bbe
000003f0: 0a84 04bf 35c5 013e 1db5 a8be 40c8 a8be
-0.21143746 0.15636219 -0.23236865 -0.30969986 -0.2654403 -0.0807452 0.006145392 -0.2573024
-0.43565577 0.29578045 -0.19801725 0.06755211 -0.85051095 -0.23427236 0.035728004 -0.23637514
-0.4263981 -0.46795198 -0.9775049 -1.1465617 0.16499989 0.0034730954 -0.8230673 -0.34260255
-0.1392155 -0.18158807 0.12883443 -0.46454477 0.053831376 -0.41194674 0.07100259 -0.28250214
-0.8869698 -0.030612122 -0.2495104 -0.38967347 -0.21448661 -0.79198134 0.09082503 -0.31700438
-0.32138786 -0.32393 -0.036200665 -0.3145691 -0.06610192 -0.019494237 -0.27652884 -0.3716192
-0.23015837 -0.075818926 0.11883073 -0.27285448 0.2292168 0.20112288 -0.7155888 -0.004283111
-0.3835112 0.2376775 -0.75552535 0.07076118 -0.2230705 -1.3356922 -0.2828934 0.001350068
0.0007775155 -0.8503128 -0.5144814 -0.65622395 -0.19881819 0.15296486 -0.34979445 -0.13613293
-0.24230714 -0.09137206 -0.38387585 -0.21674411 -0.22041841 -0.41055664 -0.09756589 -0.007810866
-0.37222272 -0.02791788 0.07749147 0.1354422 -0.38267505 -0.5610652 -0.03762853 -0.34621134
0.17765221 0.06712799 -0.15752894 -0.1083455 0.23426174 -0.4719764 -0.31139502 -0.21790569
0.20449206 -0.21282308 0.19794881 -0.18477918 -0.05665653 -0.021145612 -0.33739173 -0.7863337
-0.40676576 0.018506493 -0.07617764 -0.33636552 -0.27441278 -0.76501787 0.013056378 -0.4876158
0.18708938 -0.06734024 -0.07491671 -0.32260212 0.1063909 0.24850549 -0.1954881 -0.12871407
-0.08662466 0.105157286 -0.07535428 0.0809072 -0.1802007 -0.14488226 -0.3988186 -0.8189578
0.2223398 -0.51513463 0.07629809 -0.2977662 -0.6394903 0.005979732 -0.4735475 -0.12039157
-0.43468842 0.06504486 -0.28440776 -0.27563545 -0.3691464 -0.05071714 -0.79475826 -0.06016046
-0.12247836 -0.04248871 0.03719389 -0.013274328 -0.18253276 0.14772756 -0.31156307 -0.5879532
-0.1134512 0.06109133 -0.02274166 -0.20523421 0.010631108 -0.28954023 -1.7948918 -0.36234605
-0.10278293 0.072070755 -0.0939932 -0.38121083 0.07961095 -0.5094246 -0.23948842 -0.108765475
-0.8617666 -0.79409397 -0.06804206 -0.3027639 -0.24896267 -0.37591973 -0.154637 -0.042481806
-0.1418499 -0.088995844 -0.45524457 -0.2555508 -0.15474604 -0.99994373 0.07690181 -0.25597927
-0.25296864 -0.06803353 -1.2430879 -0.04892775 -0.39912587 -0.10102871 -0.2617706 -0.14127778
0.03680694 -0.18136804 -0.0628767 -0.14704558 -0.18522067 -0.28365642 -0.12943892 -0.22440599
0.18515293 -0.0028322292 -1.1865941 -0.30495673 0.105961606 -0.02894796 0.0658669 -0.6326971
-0.5810926 -0.0770778 -0.23444133 -0.6728408 -0.07284261 0.08655976 0.08602967 -0.0024800196
0.050058436 -0.094922826 -0.15519471 -0.05503248 -0.48519602 0.037331734 -0.5471953 0.0334528
0.1727841 -0.08609812 -0.16942897 -0.06544004 -0.08346867 -0.039761353 -0.35397494 -0.09093459
-0.19113953 0.12144673 -0.15685038 -1.861377 -0.79586035 -0.18844894 -0.067348324 -0.3759215
-0.21321514 -0.3342857 -0.43604118 0.020349935 -0.25714612 -0.0681665 -0.09191961 -0.09748577
-0.025201665 -1.6525838 -0.10555987 -0.2716959 -0.51763976 0.12672885 -0.32950678 -0.3296528

articleType.bias f4 [103]
00000000: 23c9 b0bd b442 4dbd 172f 11be 9229 a73c
00000010: 88ef 8a3e 2519 143d f526 ddbd 8aef 343e
00000020: 0c89 5a3d 364c dcbd 1782 31bc 77cd 56bd
00000030: 02b9 b73c 6d5d cdbd c66f 523d 0eb4 88bd
00000040: 1181 0d3e 3399 e0bd 74be 2c3d d517 27bb
00000050: 9832 fb3d ce95 ecbd 6926 863d cd5c cfbd
00000060: c962 a83d e5a0 8ebc 5cce 483e c56c 063b
00000070: a3d6 023d 3c38 29bd c6b4 9cbc 0627 e3bc
00000080: b909 1ebd 4f42 05bd f92a 13bd c5ef 8ebc
00000090: a875 3e3d b994 9f3c 6fa0 0e3d 83e5 d93d
000000a0: 4198 a1bb ce8a 3cbe c884 713c a4a1 a1bb
000000b0: 1fef 75bd ffd3 063e 4600 233d 7ff6 243d
000000c0: 93a7 b7ba 4d56 2b3c 174e 37bd 8b7f 4c3c
000000d0: f337 32bd 7021 fb3a 738a f93d 125e 6e3d
000000e0: a934 773d 823e c83d e8d2 003e cb56 e5bb
000000f0: d5fb 813d 6266 7abd c38e aabd 79e5 aabd
00000100: 44f4 01be 41ba 1a3e 7a96 f23b 7aa2 2e3d
00000110: 2c5f eabd f93b 813d 0eb5 b63d 9f12 33bd
00000120: c1bf 2dbd 8164 ca3d 07fd 893d 8e83 11be
00000130: e4a5 25bb e58f eabd c0fe bdbc fbe1 40bd
00000140: 32a5 f1bd f780 88bd c411 8fbd 861a cfbb
00000150: 5d3f 85bd 57d6 513e c51f a2bd ddc8 d9bd
00000160: 7363 2b3e 089b 16bd 132b a43d 3aa0 7e3d
00000170: 96b4 debc ec40 223e 0556 d43d d34f cfba
00000180: 33e7 4abd e536 8abd 3db2 e03c 187e 0c3e
00000190: 1e5c 9dbc 967a 053e cef5 503d
-0.08632114 -0.05011244 -0.1417812 0.020405564 0.27135873 0.036156792 -0.10798446 0.17669502
0.053353354 -0.107567236 -0.0108342385 -0.05244204 0.022427086 -0.10027585 0.051376127 -0.06674968
0.13818766 -0.109667204 0.042173818 -0.0025496383 0.12265509 -0.115520105 0.06550295 -0.10125122
0.08221967 -0.017410705 0.1960997 0.002051161 0.031942975 -0.041313395 -0.019129168 -0.027728569
-0.03858349 -0.03253394 -0.035929654 -0.017448315 0.046498924 0.019480096 0.03482097 0.10639479
-0.00493148 -0.18412325 0.01474113 -0.004932599 -0.060042497 0.13166808 0.039795183 0.04027414
-0.0014011733 0.010457587 -0.044752207 0.0124815805 -0.04351039 0.0019159745 0.1218461 0.05819518
0.060352955 0.097775474 0.12580454 -0.006998872 0.06346861 -0.061132796 -0.08328011 -0.0834455
-0.12690836 0.15110113 0.007403192 0.04263542 -0.11443934 0.06310267 0.08921252 -0.04371893
-0.0424192 0.09882451 0.06737714 -0.1421034 -0.002527588 -0.11453227 -0.023192763 -0.04709051
-0.11799087 -0.06665223 -0.069858104 -0.0063203005 -0.06506226 0.2049192 -0.07916216 -0.10634015
0.16737156 -0.036768943 0.08016028 0.062164523 -0.02718572 0.15845078 0.103679694 -0.0015816636
-0.049536895 -0.067487516 0.02742874 0.13719976 -0.019208964 0.13035044 0.051015668

baseColour.weight f4 [46, 128]
00000000: ab36 e1bd 05d8 e53c 72de 16be 0951 cbbe
00000010: 2574 e3be da0f 4ebe 28f1 b3bb dbc0 993d
00000020: e998 42bd bc16 203d 76e1 50be 6194 93bd
00000030: a6f3 93bc b6f4 1dbe 16c0 78bd 0fef 863c
00000040: bb07 583d 34c3 cbbd ade9 f13d adc5 433d
00000050: 171f c83c b46e c0bd 56d6 e53d 9208 323d
00000060: e8a7 4bbe c3e8 1e3c 83a1 573d 8992 85bd
00000070: 6e0b a5bd cd7d 77be 1430 12be 870f 893e
00000080: fdd6 113d 632a b1bd d2bb 41bd 6e91 e4bd
00000090: 516c ea3c 095d 9cbe 3cc5 71bd ac7e 54be
000000a0: 5acc 0ebf 3304 2bbe e2be b3bd 7290 3cbf
000000b0: 5b0a 1bbe 8c97 93be 0104 74bc 8856 99bd
000000c0: 1866 35bc 39bc eebd 7f97 91bc bfec ebbd
000000d0: 954c bcbd 9da7 9bbd 7c3a 5e3c b7a0 fa3d
000000e0: 0c98 673c 351f e8bd b4cf b63d 1dfa ceba
000000f0: 6e81 ba3d 57fb 70bd eae4 00bf 6cc2 e5ba
00000100: 37b2 79bd a128 dfbc 07cd 38bd 2717 663d
00000110: 90a7 d0be 0a92 e4bd d642 8dbd b998 ff3d
00000120: ff07 36bd 2a5a 7bbe b624 ab3c 05e4 05be
00000130: fb83 dfba eca1 febd b537 5bbe 8748 33bd
00000140: 63ba 4fbe d281 f5bc 1887 4cbf 655a 37be
00000150: e6eb d7bb 32ac 9d3d c524 f5bc d880 5abd
00000160: e9d1 3ebd 4c2b 483d e26b c83d 261e 2dbe
00000170: 2a87 b2bd fe5d 953d d230 cb3c 1db1 103c
00000180: 8ec8 85be d1c9 e5bd a98f 5fbe 310a c8bc
00000190: cda5 6fbd 0c7e 06be da42 173e adb2 21be
000001a0: 7d63 b23d d394 00bb e38a 78bc 4bba 233e
000001b0: 9e70 3f3d 14f0 55be 0172 c1bd 04c2 8dbe
000001c0: 2539 68be 5686 7c3e 4b3c 683e a96c 2ebe
000001d0: 07f0 8a3d 70bd 993c 877c 373c fd19 e23d
000001e0: 26a6 a3be e9d7 35bd 8900 fcbd 3a22 07be
000001f0: b2aa e13d 3a66 bf3a 9fc7 4cbc 2acc 09be
00000200: d2c6 44bd 24bd 2fbc 7d02 423e dc8d 3e3c
00000210: e042 43bd c89e a3bd 6916 e5bd 311b b3bd
00000220: 625e 423c 4b1b 8dbd 91bc 4dbe b6e4 f0ba
00000230: 3efd b4bd ee2e 16be d86e 833d b7a4 a4bd
00000240: 0bcd b3bd 82b5 6d3d c5fb a4bd 46a5 d03c
00000250: 1b14 fc3d 09ea 3bbc 7887 c63d d9e3 79be
00000260: fee8 573e 5dd0 213e 7dcf e7bd fcf5 aebc
00000270: dc5b 1b3e e691 8bbd 25da fabd cefb 3fbd
00000280: ee87 0fbd b1ec 1e3e f7d7 093e a8cd 9dbd
00000290: 7695 a3bc 1e1b 243d 806e 9dbd 397e 643e
000002a0: 438e 043e 9b13 45be 13b5 1f3e b2fc 36be
000002b0: 5879 1e3d 49ef 90bb bb2a 143d c627 f9bd
000002c0: 9391 a43d 1e21 2fbd ad7f 213b 107b 79be
000002d0: 4384 84bc 8bff 26bd f4c4 383d f0c6 e53c
000002e0: 4e76 783d 0b37 36bd a0a7 8dbd a534 e53b
000002f0: f9b8 89bd d709 4ebe 8812 78be 90e2 29be
00000300: 95ba dbbd 7472 46be 9726 a4bd 5956 dfbd
00000310: 5f99 cdbc 699e 77bc c76c 6bbe f2f7 17be
00000320: d978 8e3d 3c95 183d 57ce dfbc 9d5c 2a3d
00000330: a8bc 95be 31c6 e83a 3741 f53d 60ee d9bd
00000340: 2612 263e 4fd1 44bd 2213 b5be c5d8 743d
00000350: 04d3 1b3e 2ec8 bd3c 1a1a 71bc 0270 9f3c
00000360: 4c56 e4bb 655d 99bd fc05 433d d5f8 fabd
00000370: ac78 c93d 0225 a2bd fa9e 703e 06bc 35be
00000380: 7ed2 1dbe 1a38 40bd a472 883d 809e 64bd
00000390: cef0 9abd 5dc3 b7bd 39a3 0fbd 9119 b83d
000003a0: 70d0 1ebd 4f4f 5ebe 44c3 643c 9f47 fdbd
000003b0: 848d 14be dd30 433e 5350 bebc 1e1d cd3d
000003c0: 0fa0 3bbd 6102 8d3d fead de3b 4ba6 52bc
000003d0: 29f5 983c dbdd 323d 021e 47bd 2e0f 513d
000003e0: fcda 143e e442 88bd cb6e 8fbd bb4b 21be
000003f0: 8d8b debd 6dc9 1d3e aeb1 41bd e161 9ebd
-0.10996755 0.028057108 -0.14733294 -0.39710262 -0.4442455 -0.20123234 -0.0054913945 0.075074874
-0.047509108 0.03908418 -0.20398507 -0.072060354 -0.018060517 -0.15425381 -0.060730062 0.016471414
0.052741747 -0.099493414 0.11812148 0.04779594 0.024428887 -0.09396115 0.11222522 0.043465205
-0.1988827 0.009699049 0.052644264 -0.0652209 -0.08058821 -0.24169083 -0.14276153 0.2676966
0.03560542 -0.08650663 -0.04729826 -0.11160551 0.028616102 -0.3053973 -0.059025988 -0.20751446
-0.55780566 -0.1670082 -0.087766424 -0.73657906 -0.15140669 -0.2882656 -0.014893533 -0.07487208
-0.011071704 -0.116569944 -0.017772434 -0.11519765 -0.09194294 -0.07600329 0.013563748 0.12237685
0.014135372 -0.11334077 0.08926335 -0.0015791092 0.09106718 -0.058833446 -0.50349295 -0.0017529256
-0.060960975 -0.027241053 -0.045117404 0.056174424 -0.4075284 -0.11160667 -0.068975136 0.124803014
-0.04444122 -0.24546114 0.020891529 -0.13075264 -0.0017052883 -0.12433228 -0.2140797 -0.04377034
-0.20285945 -0.02996913 -0.79893637 -0.17905577 -0.0065894006 0.07698859 -0.02992476 -0.05334553
-0.046586905 0.048869416 0.09786202 -0.16906032 -0.08717187 0.07293318 0.024803553 0.00883129
-0.26129574 -0.11220134 -0.21832146 -0.024418922 -0.05850773 -0.1313402 0.14771596 -0.15790816
0.08710382 -0.0019619956 -0.015169832 0.15989034 0.04673826 -0.20892364 -0.09445573 -0.27687085
-0.22678049 0.2466062 0.2267925 -0.17033638 0.06784063 0.018767089 0.011199123 0.11040113
-0.319627 -0.04439536 -0.123047896 -0.1319665 0.11018886 0.001460261 -0.012498765 -0.13456789
-0.048041172 -0.010726247 0.18946262 0.011630502 -0.0476712 -0.079892695 -0.11185915 -0.08745421
0.011863323 -0.06889971 -0.20091464 -0.0018378708 -0.088373646 -0.1466634 0.06417626 -0.08039229
-0.08779343 0.058034427 -0.08055834 0.025469434 0.12308522 -0.011469373 0.09693807 -0.24403323
0.21084973 0.1580214 -0.11318872 -0.021357529 0.1517176 -0.06814937 -0.12248639 -0.046871
-0.035041742 0.15519978 0.1346129 -0.077052414 -0.01996873 0.040064923 -0.07687092 0.22313775
0.12944894 -0.1924576 0.15596418 -0.17869833 0.03868994 -0.0044230563 0.036173563 -0.12165789
0.080355786 -0.042756192 0.002464275 -0.24363351 -0.016176349 -0.04077105 0.045109704 0.028048962
0.0606597 -0.044486087 -0.069167376 0.006994801 -0.06724734 -0.20120941 -0.24225819 -0.16590333
-0.10728947 -0.19379598 -0.08015173 -0.109051414 -0.025097547 -0.0151134515 -0.22990714 -0.14840677
0.069566436 0.037251696 -0.02732007 0.04159223 -0.29245496 0.0017759261 0.11975329 -0.106411695
0.1621786 -0.048051175 -0.3536616 0.05977704 0.15217215 0.023166742 -0.014715696 0.01946259
-0.006968295 -0.07488517 0.04761313 -0.12254492 0.098374695 -0.07917215 0.23498145 -0.17747506
-0.15412328 -0.046928503 0.06662491 -0.05581522 -0.07565461 -0.089728095 -0.03506777 0.089892514
-0.038773 -0.21709941 0.013962571 -0.12367176 -0.14507109 0.19061609 -0.023231661 0.10015319
-0.04580694 0.06885219 0.006795644 -0.01285703 0.018671589 0.04366861 -0.048612602 0.051039867
0.14536661 -0.066533834 -0.07003554 -0.15751545 -0.10866461 0.15408869 -0.04728859 -0.07733513

baseColour.bias f4 [46]
00000000: 18f4 e33c 7387 9e3e 3c64 fe3d fb09 33be
00000010: 0c4b 1a3e 6b87 263d 09c6 8abe 1d06 f1bd
00000020: cd59 8abd 48b9 9e3c e15c 303d a883 b0bd
00000030: a04b 4bbd 67df 963d 35a3 a2bd bf37 c93b
00000040: 1116 34be 1e16 3b3d cff5 0abe 6f65 04be
00000050: 2f11 6f3d 539f b5bd 6c1a 743d 7f0b 9a3d
00000060: 91cc c9bd 49d6 86bd c765 b73d 44a4 16be
00000070: ed32 c5bd deef d53b 8f15 f43c b22a 013e
00000080: 5a59 36bd 6676 cab9 2df7 183d 37b4 d7bd
00000090: 7c8a ab3d 8e3b 2ebc b66d e53d 9d30 883d
000000a0: a342 81be 7d6f a63d a704 03be 28e0 7dbd
000000b0: b8db ac3d cd9c b4bd
0.027826354 0.30962715 0.12421462 -0.17484276 0.1506769 0.04065649 -0.27104214 -0.11768744
-0.067554094 0.019375458 0.043057326 -0.086188614 -0.04963267 0.07366829 -0.079412855 0.0061406787
-0.17586543 0.04567539 -0.13570331 -0.12929319 0.058365997 -0.08868279 0.05959551 0.07521724
-0.09853471 -0.065838404 0.08954959 -0.147111 -0.09628854 0.0065288385 0.029795436 0.12613943
-0.044518806 -0.00038616656 0.0373451 -0.1053242 0.08376023 -0.010634316 0.11202566 0.06649897
-0.25246152 0.081267335 -0.12794743 -0.06198135 0.084403455 -0.0881897
