data/models/fashion/smallmodel/1/ds_checkpoint_best.pt (torch, 768191 bytes, 16 tensors)

linear1.weight f4 [256, 512]
0.003994705 0.035600897 0.02623114 0.020361476 -0.003525171 0.029232882 -0.0059173363 0.037333332
0.0034486873 0.005667725 -0.0021240567 -0.006043249 -0.0336278 -0.022114903 0.035753697 0.044816203
0.038615018 0.023445923 0.03560052 -0.018581618 0.02164617 -0.044534076 0.011060091 -0.04654784
-0.0073051346 0.022956988 0.025281109 0.033821337 -0.015542667 -0.04313765 0.030072674 -0.020496791
-0.021353258 0.035927996 0.021420224 -0.021456616 0.035259604 0.013388344 0.014646709 -0.027378105
-0.009187264 -0.013923007 -0.03160095 -0.048083365 -0.026089244 0.01816594 -0.04168203 0.031631142
-0.008824413 -2.0358813e-05 -0.021864673 -0.010839776 0.02512721 0.03444809 -0.043019578 0.0007779845
0.028069664 -0.028792182 -0.011532283 -0.019304935 0.03006677 -0.0045158844 -0.032334592 -0.03393363
0.02838303 -0.04620041 0.0396656 0.029559603 -0.0015292552 0.046234637 -0.022218905 0.024824629
-0.052064482 0.011518472 0.043463953 0.009196942 0.050983235 -0.019122984 -0.03740255 -0.033498377
-0.0004635582 0.022046618 -0.023689367 -0.03492409 -0.0068944064 -0.033996746 -0.02869844 -0.0075522223
0.027388012 0.021150244 -0.04037459 0.009236349 0.008429318 0.018948862 -0.016537985 0.0406151
-0.031631604 0.032237735 0.035460174 0.031738184 -0.04111954 0.03322481 0.015939897 -0.017817162
-0.048709795 -0.006847317 0.023323547 0.027873239 0.03717689 -0.031681325 -0.023455648 0.03450664
0.0386012 0.0046289437 0.033398964 0.033117015 -0.04665064 -0.04689 -0.01492076 0.024312848
-0.011026176 0.052614376 -0.04326826 0.022736762 -0.020387266 0.032335535 -0.039483864 0.038618486
-0.027359182 -0.0335611 -0.021964641 -0.039266232 0.002614003 -0.017067445 0.032041837 -0.025885455
0.02956427 0.035033368 -0.035410013 -0.04845925 -0.03307688 0.031568464 -0.046589952 0.024207026
0.026524998 0.016944107 0.022311714 0.031982776 -0.002097865 -0.049718246 -0.025390748 -0.022246486
-0.030309558 0.015496691 0.019486222 0.025604049 0.019506218 0.029559238 -0.03370413 0.030707683
0.025112806 0.020444306 0.04362695 0.037924588 -0.0047427495 0.00096654956 0.019156897 -0.0032366437
-0.035048433 0.014737931 -0.04176364 0.042004023 0.047231685 -0.015779689 0.039250657 -0.02576864
0.011605921 -0.021381687 0.001469713 -0.048255704 -0.034298714 0.0019847762 0.05089082 -0.03558761
0.015604565 0.04380368 -0.018954221 -0.007978219 0.016873674 0.045359116 0.030660955 0.039819244
-0.029091343 0.023090111 0.00019353442 0.03837757 -0.040232517 0.0072464906 0.03460255 -0.013957317
-0.03766168 -0.05244183 -0.013354456 -0.048896693 -0.03526148 0.023179626 -0.002686208 0.00023627662
0.005990667 0.03647235 -0.04196841 0.008456966 -0.031381954 -0.04168737 0.019621544 -0.01974531
0.023252144 0.03116527 0.040722456 -0.011762711 0.02836412 0.033253215 0.0066107917 -0.002759004
0.005322881 -0.0046427473 0.031222044 -0.01545548 0.016788049 0.041491877 -0.006968775 0.007283855
0.018712422 0.01855231 0.020482082 -0.013515344 0.051903706 0.010281798 0.018814249 0.005797062
0.039816257 0.0156584 -0.03281577 -0.03009915 -0.009872055 -0.008755531 0.013443492 0.035435267
-0.035374876 0.018284341 0.038345102 -0.021113068 0.0076946956 -0.033974566 0.026740002 0.007472895
00000000: 04e6 823b 3fd2 113d b0e2 d63c 1ccd a63c
00000010: 8e06 67bb cc79 ef3c 37e6 c1bb d6ea 183d
00000020: 5f03 623b 53b8 b93b c233 0bbb 7206 c6bb
00000030: 4ebd 09bd 502a b5bc 7872 123d 3291 373d
00000040: c82a 1e3d aa11 c03c dad1 113d 7a38 98bc
00000050: 4f53 b13c 5d69 36bd 6235 353c f3a8 3ebd
00000060: e95f efbb 4b10 bc3c 541a cf3c 3e88 0a3d
00000070: aca6 7ebc 1bb1 30bd f85a f63c e3e8 a7bc
00000080: 07ed aebc 3c29 133d 7779 af3c c9c5 afbc
00000090: 606c 103d c95a 5b3c c0f8 6f3c 0c48 e0bc
000000a0: 2e86 16bc 531d 64bc ff6f 01bd 10f3 44bd
000000b0: 1cb9 d5bc bdd0 943c c7ba 2abd a88f 013d
000000c0: 4594 10bc 38c8 aab7 8b1d b3bc 5199 31bc
000000d0: 94d7 cd3c 7119 0d3d 4c35 30bd a8f1 4b3a
000000e0: 5af2 e53c 95dd ebbc e7f1 3cbc 6225 9ebc
000000f0: 964e f63c fcf9 93bb 4771 04bd fdfd 0abd
00000100: 8783 e83c a43c 3dbd 6578 223d fb26 f23c
00000110: 4a71 c8ba 8860 3d3d 6c04 b6bc 055d cb3c
00000120: 9141 55bd f9b7 3c3c 4207 323d c5ae 163c
00000130: ccd3 503d cea7 9cbc 6b33 19bd 9835 09bd
00000140: ba09 f3b9 1c9b b43c 3410 c2bc 900c 0fbd
00000150: 79ea e1bb 2c40 0bbd fe18 ebbc a278 f7bb
00000160: d35c e03c 4743 ad3c d35f 25bd 0e54 173c
00000170: 1f1b 0a3c a53a 9b3c ab7a 87bc 055c 263d
00000180: 2490 01bd b70b 043d b03e 113d e6ff 013d
00000190: f66c 28bd bd16 083d 6394 823c 4cf5 91bc
000001a0: ec83 47bd 755f e0bb 0611 bf3c 6b56 e43c
000001b0: cb46 183d 47c4 01bd 0f26 c0bc d656 0d3d
000001c0: 4b1c 1e3d 65ae 973b 5acd 083d b5a5 073d
000001d0: be14 3fbd bb0f 40bd 3476 74bc bd2b c73c
000001e0: 22a7 34bc 2c82 573d 0f3a 31bd 7242 ba3c
000001f0: 3203 a7bc 4472 043d d5b9 21bd 6b2e 1e3d
00000200: 5d20 e0bc 5d77 09bd 31ef b3bc a1d5 20bd
00000210: b14f 2b3b 07d1 8bbc 4d3e 033d bc0d d4bc
00000220: c530 f23c 267f 0f3d 170a 11bd 357d 46bd
00000230: 9f7b 07bd ef4d 013d 1bd5 3ebd d04d c63c
00000240: f44a d93c 5ece 8a3c 0ec7 b63c 5f00 033d
00000250: 567c 09bb 5ca5 4bbd 4200 d0bc 433e b6bc
00000260: c04b f8bc d5e5 7d3c 92a1 9f3c 95bf d13c
00000270: 81cb 9f3c 3726 f23c 580d 0abd ae8e fb3c
00000280: 5fb9 cd3c d17a a73c 2cb2 323d d056 1b3d
00000290: 1169 9bbb 0b60 7d3a edee 9c3c df1d 54bb
000002a0: f28e 0fbd 5d77 713c 5a10 2bbd 690c 2c3d
000002b0: 0376 413d 6844 81bc 4cc5 203d c118 d3bc
000002c0: c326 3e3c a628 afbc 63a3 c03a c6a7 45bd
000002d0: cf7c 0cbd 0513 023b e472 503d 50c4 11bd
000002e0: 4aaa 7f3c 7d6b 333d e245 9bbc 13b7 02bc
000002f0: a93a 8a3c 7bca 393d af2c fb3c 8119 233d
00000300: f850 eebc 7927 bd3c 80ef 4a39 cd31 1d3d
00000310: daca 24bd f873 ed3b 67bb 0d3d 3bad 64bc
00000320: 2243 1abd 3fcd 56bd a6cc 5abc e647 48bd
00000330: 576e 10bd 33e3 bd3c 180b 30bb 06c1 7739
00000340: 5b4d c43b 0864 153d 11e7 2bbd 168f 0a3c
00000350: 5d8a 00bd 60c0 2abd 5cbd a03c ebc0 a1bc
00000360: 487b be3c 4f4e ff3c 97cc 263d 63b8 40bc
00000370: df5b e83c 8634 083d 579f d83b 68d0 34bb
00000380: 906b ae3b 3022 98bb 5fc5 ff3c fb38 7dbc
00000390: 1787 893c 63f3 293d 525a e4bb 68ad ee3b
000003a0: cb4a 993c 04fb 973c 0aca a73c 766f 5dbc
000003b0: fb98 543d fd74 283c 5720 9a3c 48f5 bd3b
000003c0: 5f16 233d 0b46 803c d469 06bd 7e92 f6bc
000003d0: 66be 21bc 5c73 0fbc 1842 5c3c 9224 113d
000003e0: 3fe5 10bd 0bc9 953c c10f 1d3d 50f5 acbc
000003f0: c923 fc3b ea28 0bbd d90d db3c 30df f43b

linear2.weight f4 [128, 256]
0.049618725 -0.029312257 0.016491195 -0.014269512 -0.043361332 -0.058680367 -0.025494417 0.000109112276
0.044497397 -0.0018940468 -0.055605583 -0.016873792 0.044514783 -0.047705844 -0.010054823 -0.04130942
-0.031806972 0.047719475 0.055896055 0.039706357 -0.030568525 -0.024491306 -0.06159081 -0.016847659
-0.05899508 -0.04226291 0.021743909 -0.040514514 -0.04203539 0.0029726774 -0.044382457 -0.018212223
0.040842228 -0.05347119 -0.0344028 0.0539985 0.00025313138 0.03680346 0.044138454 -0.026064102
-0.045713972 0.008607737 -0.03799574 0.022957642 -0.06113479 -0.015480952 0.02355881 -0.04083961
-0.0013993917 0.013433757 -0.02118774 -0.038540926 0.024586378 0.026911747 -0.004780233 0.055473357
-0.050054457 -0.0076931254 -0.03401758 0.035636537 -0.0069258437 0.045558847 0.030499984 0.02227862
0.02508782 0.030184876 0.04386883 0.006070731 0.034422975 0.04839755 -0.041067224 -0.05186149
-0.016200282 0.056757726 -0.052980833 -0.029090684 0.04900862 0.038490828 -0.05746828 -0.0015778628
0.044013694 0.035274535 0.005314581 -0.030283544 0.022530623 -0.004846776 -0.028346023 -0.015776524
-0.0020619251 -0.039045326 -0.020987378 -0.06288778 0.031997386 0.014887385 0.054625813 -0.0082199
0.045416974 0.025775187 -0.012306713 -0.018113265 -0.0021365522 0.04404555 0.057334952 0.013427016
-0.016649181 -0.042275675 0.048979484 -0.025278334 -0.040191088 0.04536128 -0.0030889765 0.019777542
0.023341008 0.021409137 -0.048046816 0.060914047 -0.0036121078 -0.016936101 -0.04943028 0.03736514
0.050502464 0.051455684 -0.033345476 -0.052012518 0.041093573 0.00028879268 0.007858478 0.012732448
0.021574289 0.04122682 -0.06305509 -0.030231856 0.028222764 -0.055239093 -0.012727741 -0.044365596
-0.011867353 -0.019550059 0.030796228 -0.03462155 -0.038270287 0.01833312 -0.0095003415 0.016638642
0.012433874 -0.029487861 -0.0051551247 0.038986254 -0.058504906 -0.028058436 0.02533427 0.030321578
0.020642914 0.007499045 -0.05903586 -0.036206782 0.02176861 -0.03321272 -0.010131278 -0.059940204
0.0025057297 0.035707448 0.015469066 0.0026979847 -0.00037259154 -0.03489578 -0.03276519 -0.059607025
-0.032640662 -0.03129168 0.047229763 -0.04696904 0.058407556 0.015759427 0.03298261 -0.028576598
0.01577302 0.053998392 -0.03254046 -0.05827845 0.0367549 0.049258135 0.022398744 -0.05476108
0.009138756 0.059291907 0.004293684 0.039413866 0.040993255 0.041892674 -0.016756494 0.010339005
-0.024924979 0.0075353417 0.055772826 0.050559863 -0.049070362 -0.04254742 -0.026608922 0.03717527
0.040483654 0.028621629 0.04008341 0.022615861 -0.060620856 0.017587047 -0.04831827 0.028189205
0.010087128 0.0049047275 0.033056684 -0.057498705 -0.02266773 -0.033524305 0.0042584985 0.02341646
-0.015738769 -0.060422342 0.015666733 -0.044960815 0.022852672 0.042741172 0.032832086 0.0019958671
0.05818826 0.003648703 0.026239574 -0.018617732 -0.0017781262 0.019400178 0.041182168 0.05517632
0.04446164 0.00985971 0.028207753 0.058071986 -0.057223223 -0.03449378 0.023949321 -0.0071315067
-0.010327963 -0.059363753 -0.010094464 0.02672873 -0.0046633394 0.04468815 0.030985132 -0.009871603
-0.041341443 0.04684777 -0.056946244 -0.044730604 -0.023170093 0.04486044 -0.035077654 0.0005637855
00000000: 013d 4b3d 4220 f0bc 8b18 873c acca 69bc
00000010: a79b 31bd d35a 70bd abd9 d0bc 35d3 e438
00000020: e742 363d aa41 f8ba aec2 63bd e83a 8abc
00000030: 2255 363d 3467 43bd fcbc 24bc 1134 29bd
00000040: 0748 02bd 7f75 433d 43f3 643d 22a3 223d
00000050: d86a fabc fea1 c8bc a546 7cbd 1a04 8abc
00000060: d3a4 71bd e01b 2dbd 4820 b23c 8cf2 25bd
00000070: 4d2d 2cbd 40d1 423b 61ca 35bd cd31 95bc
00000080: 2e4a 273d 9b04 5bbd f3e9 0cbd 882d 5d3d
00000090: b8b6 8439 3abf 163d 86ca 343d 6284 d5bc
000000a0: 933e 3bbd 7707 0d3c 6ca1 1bbd aa11 bc3c
000000b0: 7968 7abd d2a3 7dbc 68fe c03c 6f47 27bd
000000c0: cb6b b7ba 4319 5c3c e991 adbc 17dd 1dbd
000000d0: 5f69 c93c 0676 dc3c 80a3 9cbb 0838 633d
000000e0: e705 4dbd 9d16 fcbb 0556 0bbd 9ef7 113d
000000f0: 30f2 e2bb ea9b 3a3d 1adb f93c a781 b63c
00000100: f984 cd3c 4646 f73c cdaf 333d fcec c63b
00000110: 1bff 0c3d 823c 463d 1b36 28bd b76c 54bd
00000120: 74b6 84bc ca7a 683d 6e02 59bd 964f eebc
00000130: 43bd 483d 8fa8 1d3d dc63 6bbd 4ad0 ceba
00000140: b447 343d 087c 103d f025 ae3b 3215 f8bc
00000150: 2492 b83c b4d1 9ebb eb35 e8bc c53d 81bc
00000160: 5d21 07bb feed 1fbd b9ed abbc 4fcb 80bd
00000170: b10f 033d 38ea 733c 51bf 5f3d c2ac 06bc
00000180: 2607 3a3d 7c26 d33c 18a2 49bc 4562 94bc
00000190: 6605 0cbb 1b69 343d 0ed8 6a3d fdfc 5b3c
000001a0: dd63 88bc 4229 2dbd b69e 483d 8214 cfbc
000001b0: 699f 24bd c0cc 393d 6d70 4abb 8304 a23c
000001c0: a435 bf3c 3762 af3c bdcc 44bd 0281 793d
000001d0: 1db9 6cbb 94bd 8abc 6877 4abd 300c 193d
000001e0: acdb 4e3d 32c3 523d 4495 08bd 140b 55bd
000001f0: bc51 283d 1969 9739 d9c0 003c c29b 503c
00000200: 90bc b03c 74dd 283d 0723 81bd cca8 f7bc
00000210: 6d33 e73c 6342 62bd 0488 50bc b3b8 35bd
00000220: 496f 42bc 7227 a0bc 5f48 fc3c 54cf 0dbd
00000230: 4ec1 1cbd 572f 963c 52a7 1bbc c34d 883c
00000240: 73b7 4b3c 8790 f1bc 52ec a8bb 0db0 1f3d
00000250: d7a2 6fbd ceda e5bc d189 cf3c f564 f83c
00000260: 541b a93c 8dba f53b 96cf 71bd 904d 14bd
00000270: 1654 b23c 100a 08bd a9fd 25bc dc83 75bd
00000280: 2b37 243b f941 123d f771 7d3c acd0 303b
00000290: 6458 c3b9 e1ee 0ebd cb34 06bd 7f26 74bd
000002a0: 37b2 05bd b42b 00bd ff73 413d 9c62 40bd
000002b0: c33c 6f3d ea19 813c c618 073d 7819 eabc
000002c0: 6c36 813c 6b2d 5d3d 2549 05bd 62b5 6ebd
000002d0: 4e8c 163d e6c2 493d 927d b73c 274d 60bd
000002e0: b9ba 153c 12dc 723d 08b2 8c3b 6f70 213d
000002f0: 8be8 273d a797 2b3d ea44 89bc ee64 293c
00000300: 782f ccbc 07eb f63b 0c72 643d dc17 4f3d
00000310: 01fe 48bd 3446 2ebd f4fa d9bc 1945 183d
00000320: 30d2 253d e877 ea3c 802e 243d e644 b93c
00000330: 934d 78bd b612 903c 61e9 45bd 0ced e63c
00000340: 7b44 253c d6b7 a03b 7266 073d c383 6bbd
00000350: adb1 b9bc c850 09bd e08a 8b3b e0d3 bf3c
00000360: 97ee 80bc 6b7d 77bd 8557 803c d528 38bd
00000370: 8735 bb3c 5e11 2f3d f07a 063d 18cd 023b
00000380: d056 6e3d 141f 6f3b 60f4 d63c 3784 98bc
00000390: 0410 e9ba 1fed 9e3c a2ae 283d 9100 623d
000003a0: 691d 363d 9f8a 213c f213 e73c e4dc 6d3d
000003b0: e662 6abd 5a49 0dbd 5e31 c43c 6aaf e9bb
000003c0: 9e36 29bc 6827 73bd 4063 25bc 36f6 da3c
000003d0: edce 98bb ec0a 373d 88d4 fd3c 81bc 21bc
000003e0: a555 29bd 73e3 3f3d 7740 69bd 7037 37bd
000003f0: 35cf bdbc 95bf 373d 96ad 0fbd 01cb 133a

gender.weight f4 [5, 128]
-0.043356612 -0.083176345 0.019426309 -0.066402294 0.0018875482 -0.04195097 -0.03183783 -0.046187926
-0.027838163 -0.102996744 -0.02200015 -0.040697128 0.049707647 0.0419795 0.06434371 0.03721969
-0.022198556 0.03493134 0.061861105 -0.08590498 -0.0055066873 -0.09049 -0.008622126 -0.0944785
0.042799424 -0.024674952 -0.014174736 -0.038177684 -0.0008162154 0.033935055 0.050978392 0.01366265
-0.027162477 -0.08459054 0.05453454 0.015697736 -0.0069936304 -0.0664248 0.013634858 -0.0132145565
-0.08928752 -0.049118727 -0.03949125 0.050374176 0.036978357 -0.048555374 0.03161937 -0.09961452
0.057984997 0.068892464 -0.063882425 -0.069168285 0.042429395 -0.08197606 0.06163927 -0.050357223
0.054747712 0.012613046 -0.04191121 -0.0008146701 0.0036509049 0.027049834 -0.07537896 -0.08147649
-0.03951162 -0.010176067 0.019139344 -0.08600694 0.06722366 0.02468026 -0.060592305 -0.02021113
-0.017159667 -0.048050378 0.040234014 -0.06470772 -0.026626017 -0.04528487 -0.10004787 0.0079117725
0.042628255 0.065305874 0.07264584 0.061155505 -0.06693448 -0.0981538 0.07013144 0.06984208
0.05005239 -0.040558428 -0.09217697 -0.08077495 -0.019964011 0.026303446 0.04510277 0.03310112
0.06862785 -0.06600259 -0.0347039 0.029921923 -0.0056753107 0.024431206 0.06488902 -0.08881531
0.023516182 0.040257078 0.03940587 -0.0380103 -0.06412544 -0.02890676 -0.0020685042 -0.01495763
0.0073101576 -0.005086368 -0.07826903 -0.054219056 -0.08110529 0.023613578 0.067932576 -0.0081419535
-0.061373018 -0.072731964 0.012457549 -0.05599739 -0.040711142 0.037193798 0.03134661 -0.041809093
-0.048001196 0.06524491 0.039918255 -0.051148664 -0.038952656 -0.094339795 0.00897804 0.025647616
-0.09049053 0.012926692 0.018372137 0.03758778 -0.026329247 -0.093690865 0.05541978 -0.046432357
-0.0015309746 0.018130075 -0.077488 -0.05431387 -0.0005527964 0.053534564 0.04943586 -0.06651792
0.071532644 0.035547648 -0.03290634 -0.038598437 0.008681444 0.03485713 0.07250091 0.03773944
0.048937373 -0.055337764 0.00193405 0.044564124 0.016088022 -0.007288869 -0.08094124 -0.06572777
0.017525684 -0.067395605 0.024707261 -0.015670726 0.056879163 0.06753393 0.063595474 0.060971566
-0.038338173 0.033501476 -0.09454549 -0.05624907 -0.075335465 0.061775006 -0.043685496 0.011676498
0.047190454 -0.08266435 -0.102669105 -0.019248206 -0.04888078 -0.014527674 -0.040229667 -0.0022610177
0.038802292 -0.028150998 0.0055828616 0.045745965 -0.0079876995 0.025022415 -0.053697158 0.041896846
-0.06595832 -0.076864205 -0.04787647 -0.08028477 -0.05241328 0.04111672 0.03366124 -0.0053934697
-0.08753624 -0.028283006 0.07207469 -0.09035268 0.021346267 -0.057782672 0.060309015 -0.102575175
-0.08352696 0.030534994 0.0031985936 0.04538266 -0.013310232 0.006381262 -0.03857447 0.021478524
0.038080614 -0.015853563 0.0043357317 -0.040483836 -0.0062625073 -0.015881775 0.065475054 -0.032116577
-0.08535467 0.024937408 -0.07504631 0.06746653 -0.015734438 -0.02541084 -0.060630444 -0.09141919
0.056391794 -0.088559456 0.061922956 -0.04910991 0.006265482 -0.07173985 -0.09915269 0.026909977
-0.010526158 0.022067005 -0.047037378 0.0743449 -0.09635798 -0.04145744 -0.06911766 -0.059894457
00000000: b496 31bd 5c58 aabd ec23 9f3c edfd 87bd
00000010: 9c67 f73a c8d4 2bbd 6268 02bd 8d2f 3dbd
00000020: dc0c e4bc f5ef d2bd a939 b4bc 08b2 26bd
00000030: 3f9a 4b3d b2f2 2b3d a3c6 833d ac73 183d
00000040: bfd9 b5bc 2a14 0f3d 1262 7d3d f3ee afbd
00000050: 7171 b4bb d252 b9bd d143 0dbc f27d c1bd
00000060: 734e 2f3d 2023 cabc 273d 68bc 3460 1cbd
00000070: 4af7 55ba 7cff 0a3d b8ce 503d 4fd9 5f3c
00000080: d883 debc ce3d adbd 9c5f 5f3d 8a98 803c
00000090: d32a e5bb ba09 88bd bd64 5f3c de81 58bc
000000a0: 60dc b6bd b830 49bd 94c1 21bd 2755 4e3d
000000b0: 9e76 173d 00e2 46bd 5083 013d b302 ccbd
000000c0: ad81 6d3d 7e17 8d3d cad4 82bd 1aa8 8dbd
000000d0: 72ca 2d3d 11e3 a7bd 7679 7c3d 6043 4ebd
000000e0: 233f 603d f3a6 4e3c 17ab 2bbd 968f 55ba
000000f0: 0544 6f3b 9d97 dd3c 4960 9abd 25dd a6bd
00000100: f0d6 21bd 85b9 26bc 1dca 9c3c 6824 b0bd
00000110: 8fac 893d 422e ca3c a32f 78bd d091 a5bc
00000120: 6e92 8cbc 79d0 44bd 6ccc 243d 7b85 84bd
00000130: ce1e dabc a17c 39bd e6e5 ccbd 61a0 013c
00000140: f79a 2e3d 16bf 853d 58c7 943d 327e 7a3d
00000150: f214 89bd dc04 c9bd 13a1 8f3d 5d09 8f3d
00000160: bc03 4d3d 9820 26bd 47c7 bcbd 566d a5bd
00000170: 918b a3bc 537a d73c afbd 383d 0a95 073d
00000180: c28c 8c3d 5e2c 87bd ad25 0ebd d21e f53c
00000190: f5f7 b9bb f423 c83c 89e4 843d cde4 b5bd
000001a0: 02a5 c03c 9be4 243d 0d68 213d b0b0 1bbd
000001b0: 3354 83bd dfcd ecbc be8f 07bb d910 75bc
000001c0: 0c8a ef3b 8cab a6bb 834b a0bd cd14 5ebd
000001d0: 881a a6bd 4371 c13c 3c20 8b3d d465 05bc
000001e0: 4662 7bbd 7ff4 94bd bf1a 4c3c 855d 65bd
000001f0: bac0 26bd 8658 183d 4e65 003d 0340 2bbd
00000200: e79c 44bd 209f 853d 5381 233d 4381 51bd
00000210: d28c 1fbd 3935 c1bd a118 133c f31a d23c
00000220: 1953 b9bd 7aca 533c 2a81 963c a5f5 193d
00000230: 6fb0 d7bc ffe0 bfbd daff 623d db2f 3ebd
00000240: fcaa c8ba 8685 943c 07b2 9ebd 3878 5ebd
00000250: 8ae9 10ba 0f47 5b3d 427d 4a3d 8c3a 88bd
00000260: b57f 923d 699a 113d ccc8 06bd 6519 1ebd
00000270: 9e3c 0e3c 5ac6 0e3d 5b7b 943d ac94 1a3d
00000280: 8e72 483d daa9 62bd f37f fd3a df88 363d
00000290: 07cb 833c 77d7 eebb 85c4 a5bd 489c 86bd
000002a0: 0692 8f3c b506 8abd e266 ca3c e55f 80bc
000002b0: 20fa 683d 3b4f 8a3d 583e 823d 52bd 793d
000002c0: 7d08 1dbd d838 093d 11a1 c1bd 6d65 66bd
000002d0: 7b49 9abd ca07 7d3d 90ef 32bd c84e 3f3c
000002e0: c74a 413d ed4b a9bd 2e44 d2bd 6aae 9dbc
000002f0: 3637 48bd 7b05 6ebc ddc7 24bd 952d 14bb
00000300: 27ef 1e3d ec9c e6bc 70f0 b63b 1f60 3b3d
00000310: d7de 02bc cffb cc3c 8df1 5bbd 079c 2b3d
00000320: 2815 87bd fb6a 9dbd 1e1a 44bd 576c a4bd
00000330: 4faf 56bd 016a 283d 5ee0 093d b4bb b0bb
00000340: 3346 b3bd c3b1 e7bc e59b 933d d30a b9bd
00000350: 5ede ae3c 86ad 6cbd 9606 773d ef12 d2bd
00000360: 2f10 abbd 8624 fa3c 7f9f 513b 2be3 393d
00000370: 2913 5abc e819 d13b 4300 1ebd bbf3 af3c
00000380: 6bfa 1b3d 55df 81bc c112 8e3b 61d2 25bd
00000390: b835 cdbb 7f1a 82bc c917 863d ac8c 03bd
000003a0: 6ece aebd 8949 cc3c e1b1 99bd e42b 8a3d
000003b0: 82e5 80bc 652a d0bc a157 78bd fc39 bbbd
000003c0: 15fb 663d a95e b5bd eda2 7d3d 7927 49bd
000003d0: ac4e cd3b 58ec 92bd 9110 cbbd 5072 dc3c
000003e0: e875 2cbc ddc5 b43c 44aa 40bd 2442 983d
000003f0: 5557 c5bd 47cf 29bd 8f8d 8dbd e453 75bd

gender.bias f4 [5]
-0.063656926 -0.08455052 -0.05746461 -0.032825757 0.04714523
00000000: 905e 82bd d328 adbd 0360 6bbd 4d74 06bd
00000010: 5b1b 413d

masterCategory.weight f4 [6, 128]
0.003041523 0.09558155 0.025259454 0.008876772 0.06477956 -0.03561814 0.048317794 -0.062355008
0.046161607 -0.008784206 -0.021603031 0.078619935 0.06822416 0.000656685 0.06256433 -0.036573548
-0.07148045 -0.027630497 -0.054867648 0.030026274 0.02186048 -0.015187062 0.07603871 0.06273311
-0.02650271 0.050977945 0.056022752 0.00833252 -0.047012776 -0.0112759685 -0.003114443 -0.06966447
-0.06601591 0.024830934 0.07400902 -0.07652352 -0.047531903 0.09891584 0.0005371346 0.041018505
0.05795166 0.033386514 0.06334786 0.02102896 -0.08717246 0.03966164 -0.053586245 0.06081033
0.031340163 -0.006784273 -0.00321275 0.033342596 -0.009184473 -0.03439726 -0.04697989 0.07960653
0.09342214 0.02908774 -0.055231195 0.06999621 -0.0334388 0.03171426 0.06690565 -0.054229144
-0.07861008 0.0406576 0.07572143 -0.07607897 -0.04023509 -0.03203586 -0.0324456 0.06490795
-0.07417864 0.023182115 -0.057497315 -0.009933804 -0.082419984 0.06987155 -0.06817256 -0.020107133
-0.0049786586 -0.057223234 0.011226409 -0.028995387 -0.021724457 -0.018807739 -0.07261738 0.054655846
0.020115951 0.016362237 0.004257296 0.009734678 -0.06082879 0.030131452 0.042788554 -0.0172518
-0.05311493 -0.032736987 0.08224012 -0.022325063 0.046772208 0.0432915 0.005527885 0.04265186
-0.005521216 -0.058387417 -0.008815601 -0.068531744 -0.07615203 0.08035825 -0.02147561 -0.05294082
0.07072982 0.06919649 0.018960748 -0.022488672 -0.0794854 -0.081713796 0.098147824 0.032861512
-0.021156482 -0.061093476 -0.05742359 -0.07035657 0.03628892 0.0897494 0.036319725 0.03212173
-0.055894706 0.07291908 0.07909493 0.02474888 -0.080506206 0.03831455 -0.07203418 0.0038167525
0.08302305 -0.054386068 -0.018028617 0.059019808 0.08912362 0.035707533 0.054802872 -0.06712338
0.05338132 0.04809218 0.04541032 -0.06317799 0.042648546 0.026447158 0.06396368 0.06449321
0.05133947 0.062764816 -0.049514703 0.042736698 -0.07105526 -0.07697754 0.052942354 -0.058962427
-0.050875943 0.09068856 0.04094538 -0.045125157 0.067693025 -0.08041551 0.07203687 -0.03642164
0.025549443 0.038418747 0.060456205 -0.013799382 0.0799936 0.025118075 -0.018568275 0.04590605
-0.03629003 -0.0071076206 0.008544262 -0.04022241 0.08555038 0.08893338 0.094986744 0.031784736
0.08639557 -0.01342461 -0.028783176 -0.014492597 -0.01477954 0.0005508149 0.079674035 -0.061483473
0.04446279 -0.047435857 -0.057123743 0.082758486 -0.017960906 0.059162803 -0.009559406 -0.05457798
-0.080441065 -0.07409252 0.09901679 -0.03608232 0.08808486 0.07412305 -0.068043865 0.027375871
0.090560585 0.081017055 0.06463041 -0.026279854 -0.066450335 -0.061437625 -0.05786385 -0.0691796
0.047430497 0.02641975 -0.022482954 -0.03624033 -0.028008172 -0.08604689 -0.03368048 -0.040118918
-0.07946385 -0.06645323 -0.043893393 0.0196505 0.04289026 -0.06858435 0.033530142 -0.023875779
-0.043323006 0.036287088 0.055689525 -0.04752855 0.0365444 0.088728786 0.0016617478 -0.005225831
-0.026216224 0.079941064 -0.0061120824 0.07336897 -0.0848559 0.07721053 -0.040792685 0.060094655
0.070867404 -0.082952194 0.08667921 -0.019999979 0.045724865 -0.028300023 0.07009868 -0.067491114
00000000: 4a54 473b 42c0 c33d eaec ce3c e16f 113c
00000010: 25ab 843d 54e4 11bd e1e8 453d f767 7fbd
00000020: f413 3d3d a1eb 0fbc d7f8 b0bc 7d03 a13d
00000030: 1cb9 8b3d 6225 2c3a ba21 803d 25ce 15bd
00000040: 5864 92bd 5a59 e2bc e6bc 60bd a9f9 f53c
00000050: c014 b33c 28d3 78bc 2fba 9b3d 377a 803d
00000060: 361c d9bc 40ce 503d 1d78 653d 1f85 083c
00000070: 7890 40bd d7be 38bc af1b 4cbb 3fac 8ebd
00000080: 5933 87bd 3e6a cb3c 0b92 973d 5db8 9cbd
00000090: d0b0 42bd 6394 ca3d 7ece 0c3a 0503 283d
000000a0: b85e 6d3d 4cc0 083d 86bc 813d ed44 ac3c
000000b0: 7a87 b2bd 3e74 223d 407d 5bbd 4114 793d
000000c0: 8b5e 003d 9b4e debb 008d 52bb 3f92 083d
000000d0: 797a 16bc 24e4 0cbd fc6d 40bd c008 a33d
000000e0: 1b54 bf3d 6a49 ee3c 1b3a 62bd 2c5a 8f3d
000000f0: 20f7 08bd d0e6 013d d405 893d 611f 5ebd
00000100: 52fe a0bd 9588 263d d613 9b3d 4bcf 9bbd
00000110: 8dcd 24bd 0938 03bd ade5 04bd 76ee 843d
00000120: f9ea 97bd 6be8 bd3c 4e82 6bbd 65c1 22bc
00000130: cfcb a8bd d118 8f3d 0e9e 8bbd b7b7 a4bc
00000140: 0424 a3bb e962 6abd f9ee 373c bc87 edbc
00000150: 7df7 b1bc b012 9abc 6cb8 94bd cfde 5f3d
00000160: 35ca a43c 190a 863c ca80 8b3b 337e 1f3c
00000170: 9c27 79bd 3cd6 f63c 0d43 2f3d a653 8dbc
00000180: 0a8f 59bd 3817 06bd 826d a83d 0de3 b6bc
00000190: 3794 3f3d 6e52 313d 4323 b53b b7b3 2e3d
000001a0: 51eb b4bb a527 6fbd 4f6f 10bc 5f5a 8cbd
000001b0: 98f5 9bbd de92 a43d 9eed afbc 79d8 58bd
000001c0: ccda 903d e4b6 8d3d 9253 9b3c 2a3a b8bc
000001d0: 3ec9 a2bd 9059 a7bd ba01 c93d cb99 063d
000001e0: 5c50 adbc 273d 7abd 0035 6bbd 1b17 90bd
000001f0: b1a3 143d 89ce b73d fec3 143d 1392 033d
00000200: d9f1 64bd 9956 953d 86fc a13d 2abe ca3c
00000210: 70e0 a4bd b8ef 1c3d a886 93bd 7b22 7a3b
00000220: fd07 aa3d edc3 5ebd c0b0 93bc c1be 713d
00000230: 7286 b63d 1042 123d fa78 603d fc77 89bd
00000240: 5fa6 5a3d 4efc 443d 2c00 3a3d 7663 81bd
00000250: 3eb0 2e3d b6a7 d83c 64ff 823d 0415 843d
00000260: 5649 523d d78a 803d eecf 4abd ad0c 2f3d
00000270: 6c85 91bd 67a6 9dbd 15da 583d 9682 71bd
00000280: 4b63 50bd ecba b93d 58b6 273d 28d5 38bd
00000290: a4a2 8a3d e3b0 a4bd 1188 933d dc2e 15bd
000002a0: 114d d13c fa5c 1d3d eda0 773d ce16 62bc
000002b0: afd3 a33d 6cc4 cd3c 7f1c 98bc fb07 3c3d
000002c0: dba4 14bd 0be7 e8bb 3bfd 0b3c 41c0 24bd
000002d0: 0a35 af3d b422 b63d 6988 c23d b630 023d
000002e0: 29f0 b03d e5f2 5bbc b2ca ebbc 5c72 6dbc
000002f0: e225 72bc 9064 103a 242c a33d 18d6 7bbd
00000300: 9d1e 363d 1a4c 42bd 96fa 69bd 487d a93d
00000310: c022 93bc b254 723d 0e9f 1cbc 298d 5fbd
00000320: 49be a4bd d2bd 97bd 51c9 ca3d 0ecb 13bd
00000330: d665 b43d d3cd 973d 955a 8bbd 5d43 e03c
00000340: d477 b93d 45ec a53d f35c 843d d948 d7bc
00000350: 1d17 88bd 05a6 7bbd a502 6dbd 09ae 8dbd
00000360: 7b46 423d 3b6e d83c 2c2e b8bc be70 14bd
00000370: 6571 e5bc 5a39 b0bd 8bf4 09bd bc53 24bd
00000380: f1bd a2bd a218 88bd 8fc9 33bd 16fa a03c
00000390: b3ad 2f3d f475 8cbd e756 093d 2397 c3bc
000003a0: 7773 31bd c5a1 143d b31a 643d 4cad 42bd
000003b0: 95af 153d 70b7 b53d 01cf d93a 733d abbb
000003c0: 68c3 d6bc 24b8 a33d dd47 c8bb 7842 963d
000003d0: eec8 adbd 8e20 9e3d 3b16 27bd d025 763d
000003e0: ee22 913d d7e2 a9bd df84 b13d ffd6 a3bc
000003f0: ff49 3b3d 73d5 e7bc e68f 8f3d c838 8abd

masterCategory.bias f4 [6]
0.003505992 -0.0066771884 0.09140246 0.003955203 0.022652848 0.047227804
00000000: c9c4 653b 51cc dabb 3731 bb3d a69a 813b
00000010: 7792 b93c f171 413d

subCategory.weight f4 [37, 128]
-0.040454924 -0.022850532 -0.0788898 0.06548452 0.069107026 -0.07630875 0.06726706 -0.016437005
-0.089190885 0.011497151 -0.0068844687 -0.05708483 0.014216397 -0.06509009 -0.078467645 0.038429424
-0.026397863 -0.049163375 -0.03375634 0.044734623 0.012771778 -0.030798178 -0.046043668 -0.017822355
-0.0608867 -0.08189849 -0.06389859 0.009740964 -0.088411026 -0.0544242 -0.08836884 0.005679917
0.05589306 -0.05127916 -0.0073705725 -0.036924623 -0.08511445 0.062225707 -0.0034400942 -0.09185887
0.060584668 -0.08003417 -0.025662975 -0.004048468 -0.07478391 0.068397105 0.029391078 -0.09980993
-0.079442225 -0.030183526 -0.02978387 -0.034171965 -0.007132028 0.05596633 0.054586314 -0.04040162
-0.102745056 0.00076890254 -0.028887648 0.066111125 -0.033189327 0.033965457 0.03370075 0.055826366
-0.0027833276 0.026474942 -0.0097726565 0.01796119 -0.08232433 -0.043938093 0.018084114 -0.030417038
0.017415278 -0.016454825 0.04020457 0.06848395 -0.023549573 0.06399666 -0.050481036 -0.009176593
-0.00929258 -0.08720426 -0.021930287 -0.0524033 0.033825144 0.06462285 -0.028011072 -0.044332575
-0.023417536 0.0039580916 0.002652731 0.07418067 -0.0741071 -0.054024722 -0.03921153 -0.004942959
0.0015841848 -0.021182107 0.06160931 0.008531906 -0.01569861 -0.06315894 0.07893127 -0.011480271
-0.04745179 0.019938244 -0.045811743 -0.02601806 0.084865555 -0.023062017 0.051927395 -0.07204124
0.07161065 0.06358816 -0.0031177178 -0.011481724 0.052953094 -0.013710035 -0.07271445 0.005695616
0.022941813 0.032980435 -0.093104035 -0.0058652502 -0.072321594 -0.050373763 -0.07585615 -0.0781105
0.044446357 -0.05894676 0.015013189 0.05244298 0.035333943 0.018361539 -0.07930553 0.06299793
-0.051654316 0.010130423 0.07128919 0.026197618 0.04163687 -0.0914108 -0.058522753 -0.03777148
-0.07385153 0.07269217 -0.0343064 0.045853335 0.0023361577 0.03521533 -0.022250587 0.07200082
0.028934883 0.048019227 0.029058341 -0.03079459 -0.040977973 0.032231193 -0.012503277 0.02657792
0.035817884 -0.021398002 0.053308055 -0.08669327 -0.011927377 0.030433604 -0.002450852 -0.08041976
0.021300256 -0.07601433 -0.07970952 0.0019881786 0.04948018 -0.048998818 0.0031378316 0.046765707
-0.08454763 -0.037201587 -0.087531716 -0.013666966 0.042183097 0.06212579 0.0021400375 -0.053712163
-0.006354902 -0.075059175 -0.08037058 -0.08673292 0.000107651744 -0.020485051 -0.035249066 -0.09204496
-0.014917809 -0.032769904 -0.0015817411 0.021749867 -0.073829025 0.054912597 -0.032537628 0.06529657
-0.07141864 -0.020383552 -0.005370342 -0.08610555 -0.08174332 0.0032914623 -0.021502085 -0.018080046
-0.06013223 -0.023137024 0.03670954 0.007007637 -0.045931146 0.020795269 0.06654883 0.013147986
-0.08737729 -0.07829367 -0.083111696 0.061941784 -0.008676315 0.028410882 -0.06405479 -0.055757742
0.03183289 -0.050855573 -0.04518831 -0.0016938918 0.06037577 0.040254943 -0.03699235 -0.034928046
-0.01846879 0.06621737 -0.07168969 -0.0076964884 0.012114253 0.077153824 0.048010603 -0.085871354
0.026562681 -0.018353764 -0.021980083 -0.03950058 0.0063148974 -0.043137915 0.065903135 0.073382385
0.05599905 0.013140798 0.037777126 -0.041500594 -0.04291817 -0.011414117 0.05076949 -0.04399313
00000000: 10b4 25bd 0a31 bbbc fa90 a1bd bf1c 863d
00000010: fc87 8d3d c347 9cbd 50c3 893d e6a6 86bc
00000020: b6a9 b6bd 8c5e 3c3c 1c97 e1bb c8d1 69bd
00000030: e4eb 683c f44d 85bd a5b3 a0bd 2c68 1d3d
00000040: 5540 d8bc 895f 49bd 1744 0abd a73b 373d
00000050: b840 513c 764c fcbc 4998 3cbd 3000 92bc
00000060: 5564 79bd 65ba a7bd 44dd 82bd 9098 1f3c
00000070: d710 b5bd e9eb 5ebd b9fa b4bd 991e ba3b
00000080: 1ff0 643d 190a 52bd d884 f1bb 463e 17bd
00000090: 7c50 aebd 62e0 7e3d 3473 61bb 8120 bcbd
000000a0: a127 783d f4e8 a3bd 293b d2bc 03a9 84bb
000000b0: 4e28 99bd c813 8c3d 8fc5 f03c 2669 ccbd
000000c0: 9bb2 a2bd 7143 f7bc 4dfd f3bc e7f7 0bbd
000000d0: cab3 e9bb f33c 653d e695 5f3d 2b7c 25bd
000000e0: 006c d2bd 2d90 493a caa5 ecbc 4565 873d
000000f0: 88f1 07bd 5d1f 0b3d cc09 0a3d 30aa 643d
00000100: 7d68 36bb fae1 d83c 7e1d 20bc 5823 933c
00000110: a999 a8bd 6ef8 33bd 2325 943c 272d f9bc
00000120: 7caa 8e3c 45cc 86bc 8cad 243d 5041 8c3d
00000130: 09eb c0bc ae10 833d 34c5 4ebd 6c59 16bc
00000140: e83f 18bc 2698 b2bd 25a7 b3bc d8a4 56bd
00000150: 3c8c 0a3d fc58 843d 7a77 e5bc 1396 35bd
00000160: 22d6 bfbc e1b2 813b 71d9 2d3b 09ec 973d
00000170: 77c5 97bd 0749 5dbd 459c 20bd 8cf8 a1bb
00000180: 6ca4 cf3a 1986 adbc 0b5a 7c3d 68c9 0b3c
00000190: 5f9a 80bc 7959 81bd b8a6 a13d bf17 3cbc
000001a0: cf5c 42bd 8755 a33c 18a5 3bbd d423 d5bc
000001b0: fecd ad3d 8eec bcbc d2b1 543d 5c8a 93bd
000001c0: 9ba8 923d 823a 823d a052 4cbb d71d 3cbc
000001d0: 58e5 583d 0ea0 60bc 50eb 94bd 4aa2 ba3b
000001e0: 78f0 bb3c 7e16 073d 54ad bebd 4931 c0bb
000001f0: 581d 94bd b854 4ebd 785a 9bbd 66f8 9fbd
00000200: 620d 363d 2872 71bd e1f9 753c 73ce 563d
00000210: 53ba 103d f06a 963c f06a a2bd 0f05 813d
00000220: 7a93 53bd 13fa 253c 1100 923d 639c d63c
00000230: 6c8b 2a3d 9635 bbbd 8eb5 6fbd 44b6 1abd
00000240: 793f 97bd a2df 943d de84 0cbd b5d0 3b3d
00000250: 391a 193b f33d 103d dd46 b6bc 2a75 933d
00000260: d908 ed3c cfaf 443d c20b ee3c f044 fcbc
00000270: 85d8 27bd db04 043d 8bda 4cbc f0b9 d93c
00000280: c6b5 123d dd4a afbc 8c59 5a3d 3e8c b1bd
00000290: 0c6b 43bc e54f f93c 799e 20bb 1db3 a4bd
000002a0: e07d ae3c 67ad 9bbd bf3e a3bd 1a4c 023b
000002b0: bbab 4a3d fcb2 48bd 14a4 4d3b 668d 3f3d
000002c0: 4f27 adbd b160 18bd d443 b3bd 69eb 5fbc
000002d0: 2fc8 2c3d 9d77 7e3d df3f 0c3b 4901 5cbd
000002e0: c83c d0bb a0b8 99bd 5599 a4bd 07a1 b1bd
000002f0: 17c3 e138 44d0 a7bc 5361 10bd 1182 bcbd
00000300: d369 74bc bc39 06bd 6d52 cfba c72c b23c
00000310: ac33 97bd 08ec 603d 2d46 05bd 35ba 853d
00000320: f043 92bd 68fb a6bc b2f9 afbb 1b58 b0bd
00000330: 0b69 a7bd 93b5 573b 2425 b0bc 9b1c 94bc
00000340: 374d 76bd db89 bdbc be5c 163d 52a0 e53b
00000350: 4c22 3cbd d75a aa3c c14a 883d a66a 573c
00000360: ddf2 b2bd 6f58 a0bd 7736 aabd abb6 7d3d
00000370: 1a27 0ebc f0bd e83c 282f 83bd 3b62 64bd
00000380: 3463 023d ef4d 50bd 6117 39bd 9405 deba
00000390: 954c 773d 5ee2 243d 4a85 17bd b610 0fbd
000003a0: dc4b 97bc f99c 873d 0bd2 92bd d332 fcbb
000003b0: dc7a 463c d302 9e3d c4a6 443d 52dd afbd
000003c0: fb99 d93c a25a 96bc 930f b4bc 5ccb 21bd
000003d0: 33ed ce3b 62b1 30bd 39f8 863d 8149 963d
000003e0: 435f 653d 804c 573c 30bc 1a3d 87fc 29bd
000003f0: f7ca 2fbd 4702 3bbc abf3 4f3d 2432 34bd

subCategory.bias f4 [37]
0.055895448 0.07107032 0.06714068 0.05105069 -0.020325148 -0.049281076 -0.061326765 -0.07382433
-0.05866497 0.04462597 -0.01850178 0.07164324 0.04491695 0.06800598 0.021666508 0.0037750031
0.08278888 -0.08730907 -0.010143967 0.06697615 0.07422672 -0.06389138 -0.07469559 -0.06918088
-0.056097385 -0.0032062219 0.013367265 0.025652785 -0.02822956 -0.05263012 -0.0012739429 -0.013360489
-0.023138866 0.00780516 -0.056502968 -0.010424135 0.052207146
00000000: a0f2 643d 518d 913d 0e81 893d 871a 513d
00000010: ed80 a6bc f4da 49bd c631 7bbd 3631 97bd
00000020: ae4a 70bd b9c9 363d 0c91 97bc b1b9 923d
00000030: d6fa 373d b846 8b3d f67d b13c 0b66 773b
00000040: 378d a93d 19cf b2bd e232 26bc cb2a 893d
00000050: 2e04 983d 7cd9 82bd 00fa 98bd b5ae 8dbd
00000060: 5fc6 65bd 7a1f 52bb 6002 5b3c ca25 d23c
00000070: ae41 e7bc ae92 57bd 6efa a6ba f4e5 5abc
00000080: b88d bdbc 6dc2 ff3b a86f 67bd fec9 2abc
00000090: 29d7 553d

articleType.weight f4 [103, 128]
0.0092102755 -0.059714366 -0.044549666 -0.0071019186 -0.043044258 -0.08788517 -0.09486964 0.064164855
-0.052496217 -0.028439524 -0.047192 0.027267601 0.009501673 -0.09318761 -0.077175245 -0.07137168
-0.06543753 0.06975154 -0.04828007 -0.08907898 -0.062073514 -0.079444505 -0.07998664 0.06705268
-0.07667713 -0.08065408 -0.009151395 -0.09357267 -0.05213894 -0.062027264 0.05167387 -0.0270286
0.067916185 -0.10368176 -0.074948885 0.021061365 0.036715884 -0.09183039 -0.059746135 0.013821612
0.048898533 -0.07454025 0.010787116 -0.05600262 0.016026862 -0.07070009 0.055364635 0.04716102
-0.08312089 -0.0065118736 -0.004659424 -0.06511126 -0.08740012 -0.099531025 -0.10124735 -0.07977355
-0.004387206 0.043787144 -0.085407466 -0.037901178 -0.06950173 0.015032457 -0.10028442 0.022299081
-0.085945755 0.02562534 0.040877473 -0.07072506 0.03371914 -0.057518195 -0.05174021 -0.03532958
-0.00853009 -0.0041381484 -0.034763012 0.06910955 -0.054466456 0.07696527 -0.09462762 -0.061771706
0.033491354 -0.00012993295 -0.06528527 -0.036794968 0.070560604 -0.101758145 -0.024564683 -0.036289062
-0.093611255 0.04670887 -0.0464878 -0.06562015 0.022418812 -0.008438144 0.06547339 0.06658657
-0.053517517 0.06764296 -0.045064155 0.00044308085 0.06257327 0.04521945 -0.0774243 0.04202715
-0.07591608 0.05555789 -0.043791384 -0.011911159 -0.014514037 0.028476972 -0.07654707 -0.025390036
0.037010826 -0.07619105 0.041499913 -0.0024691287 -0.027041182 -0.09917949 -0.006502516 -0.054410234
-0.052178264 -0.06382191 0.043409046 0.07301914 -0.032644182 -0.02734842 0.0146065485 0.042459495
0.0627847 -0.022509987 0.054337304 0.023138395 0.070018746 -0.062371206 -0.012286543 -0.10433553
-0.07058592 0.044048462 0.024812559 -0.0583593 -0.056303285 -0.066866755 0.038985148 0.012891986
-0.0960295 0.01692527 0.05117234 -0.066990286 -0.053193696 -0.019128622 0.06686992 0.028306525
0.0676219 -0.038945574 0.006697993 0.037665516 -0.088795334 0.012642594 0.014884142 -0.088792264
-0.06520904 0.042448808 0.06823923 -0.0015220994 -0.005892158 -0.031049786 -0.037422642 -0.10013703
-0.08702997 0.06439947 -0.065290965 0.047718003 -0.035404697 0.054929417 -0.08967036 -0.08437115
0.0034360904 0.058885258 -0.03984832 -0.045236353 -0.076085076 0.011590821 -0.05466018 -0.04869969
-0.060552202 0.03211192 0.04922561 -0.050347622 0.083892696 -0.06127901 0.0060664555 -0.06846015
0.010509322 0.05791637 -0.017180206 0.04733364 -0.027547374 -0.070549965 0.003150442 -0.092690654
0.079447344 -0.018825477 -0.04270379 -0.093119875 -0.08506672 -0.0389964 0.004970289 -0.09990481
-0.007621104 -0.049921203 -0.03823087 0.04685344 -0.005635184 0.0150898015 -0.009126446 -0.0063543925
0.03766911 -0.04469894 -0.051114894 0.037644014 -0.021332905 -0.06533517 -0.013701808 -0.044529844
0.004926241 -0.0520893 -0.07972005 -0.008178372 -0.004028587 -0.035926398 0.07033392 0.056510597
0.021450382 0.056156334 -0.013983003 0.073560365 -0.07365322 -0.02900788 -0.10522033 0.013636135
0.08161884 -0.009057789 0.006523772 0.031125296 0.026833573 -0.036063984 -0.055718932 -0.09917819
0.04561067 -0.05972233 -0.066113204 0.008358366 -0.08843252 -0.067019455 0.07485833 -0.027915658
00000000: b2e6 163c 0d97 74bd b679 36bd 36b7 e8bb
00000010: 2d4f 30bd 24fd b3bd 044b c2bd dd68 833d
00000020: 4606 57bd 01fa e8bc 664c 41bd 4e60 df3c
00000030: e8ac 1b3c 25d9 bebd 0e0e 9ebd 512b 92bd
00000040: 1d04 86bd e5d9 8e3d 53c1 45bd 0a6f b6bd
00000050: cc40 7ebd cdb3 a2bd 09d0 a3bd ea52 893d
00000060: e608 9dbd f72d a5bd bcef 15bc 07a3 bfbd
00000070: a48f 55bd 4d10 7ebd fba7 533d 156b ddbc
00000080: a417 8b3d 1a57 d4bd cd7e 99bd e288 ac3c
00000090: 6563 163d 9211 bcbd 5db8 74bd 0b74 623c
000000a0: d449 483d 8fa8 98bd 72bc 303c 0163 65bd
000000b0: c44a 833c 35cb 90bd 07c6 623d ea2b 413d
000000c0: 493b aabd 8e61 d5bb 15ae 98bb 0d59 85bd
000000d0: d6fe b2bd ecd6 cbbd c55a cfbd 5160 a3bd
000000e0: 8dc2 8fbb 265a 333d 1cea aebd 443e 1bbd
000000f0: ec56 8ebd b24a 763c eb61 cdbd 90ac b63c
00000100: 5404 b0bd 3cec d13c 236f 273d 4dd8 90bd
00000110: 151d 0a3d 3398 6bbd 8bed 53bd c0b5 10bd
00000120: cac1 0bbc 4e99 87bb a963 0ebd 4f89 8d3d
00000130: 3818 5fbd f89f 9d3d 20cc c1bd 5404 7dbd
00000140: 3b2e 093d 9c3e 08b9 49b4 85bd 52b6 16bd
00000150: 1482 903d 9366 d0bd e03b c9bc d7a3 14bd
00000160: 42b7 bfbd cd51 3f3d fe69 3ebd db63 86bd
00000170: a8a7 b73c 2440 0abc ea16 863d 8a5e 883d
00000180: 2f35 5bbd 6488 8a3d 3195 38bd 4e4d e839
00000190: 6a26 803d 0838 393d a290 9ebd a924 2c3d
000001a0: e479 9bbd ac90 633d 985e 33bd 0627 43bc
000001b0: 49cc 6dbc 8a48 e93c b6c4 9cbd c4fe cfbc
000001c0: aa98 173d 0e0a 9cbd d0fb 293d 1bd1 21bb
000001d0: 7885 ddbc 9e1e cbbd 0f13 d5bb 44dd 5ebd
000001e0: e0b8 55bd 10b5 82bd afcd 313d 0f8b 953d
000001f0: e8b5 05bd cb09 e0bc 4e50 6f3c 02ea 2d3d
00000200: 4495 803d dd66 b8bc cb90 5e3d bb8c bd3c
00000210: fd65 8f3d f378 7fbd 7f4d 49bc dead d5bd
00000220: 5a8f 90bd 296c 343d b543 cb3c 290a 6fbd
00000230: 469e 66bd 70f1 88bd e4ae 1f3d e938 533c
00000240: 1dab c4bd dda6 8a3c 169a 513d 3432 89bd
00000250: a2e1 59bd a1b3 9cbc 19f3 883d 16e3 e73c
00000260: 5a7d 8a3d 6585 1fbd d67a db3b 2847 1a3d
00000270: 54da b5bd e222 4f3c 9edc 733c b8d8 b5bd
00000280: 518c 85bd cdde 2d3d 02c1 8b3d 2e81 c7ba
00000290: 0113 c1bb 1f5c febc 7c48 19bd a514 cdbd
000002a0: c53c b2bd dfe3 833d 45b7 85bd f473 433d
000002b0: 8404 11bd abfd 603d 18a5 b7bd c8ca acbd
000002c0: 0830 613b ab31 713d fe37 23bd c149 39bd
000002d0: 7ed2 9bbd 6de7 3d3c 5ae3 5fbd 5379 47bd
000002e0: 9605 78bd ca87 033d cba0 493d 4f39 4ebd
000002f0: efcf ab3d b3ff 7abd 1ec9 c63b d634 8cbd
00000300: 4b2f 2c3c b739 6d3d 81bd 8cbc ebe0 413d
00000310: 08ab e1bc 807c 90bd a577 4e3b 99d4 bdbd
00000320: 4ab5 a23d e337 9abc 2bea 2ebd a2b5 bebd
00000330: 7637 aebd b0ba 1fbd cedd a23b e59a ccbd
00000340: 74ba f9bb 2d7a 4cbd f997 1cbd 65e9 3f3d
00000350: 59a7 b8bb 373b 773c 1787 15bc 8238 d0bb
00000360: ed4a 1a3d 3c16 37bd da5d 51bd 9c30 1a3d
00000370: 58c2 aebc 72ce 85bd 8c7d 60bc ed64 36bd
00000380: 4e6c a13b 975b 55bd 4444 a3bd 94fe 05bc
00000390: 3d02 84bb 8f27 13bd 3b0b 903d a877 673d
000003a0: b6b8 af3c 2f04 663d f718 65bc d1a6 963d
000003b0: 80d7 96bd efa1 edbc c27d d7bd 186a 5f3c
000003c0: c727 a73d 1f67 14bc 5ec5 d53b 7afa fe3c
000003d0: 15d2 db3c d4b7 13bd 8939 64bd ef1d cbbd
000003e0: 41d2 3a3d 679f 74bd 5c66 87bd 87f1 083c
000003f0: 1c1c b5bd 7f41 89bd 534f 993d 61af e4bc

articleType.bias f4 [103]
-0.0015887222 -0.08538393 0.047230083 0.07711941 0.074518286 -0.024169784 0.017494585 0.02742309
-0.09251096 0.051416934 0.027081085 -0.074305795 -0.0132554835 -0.048293725 0.016812397 0.045181647
-0.08959093 0.03861234 0.033262283 -0.011280675 0.008203763 0.03276571 -0.050383173 0.0013996868
0.05514023 0.053576477 0.03809902 -0.08345457 0.06657529 0.065918 0.07888584 0.056900576
0.0147545645 0.075863965 0.068241924 -0.05224063 0.05607404 -0.026582971 0.053281356 -0.009615926
0.0274189 0.0121313585 -0.06362778 -0.044967502 -0.017530818 -0.0075565395 0.06919147 0.045193996
-0.037708305 -0.07238233 0.032545384 0.063251756 -0.08686202 -0.031979393 0.05561998 0.0443957
0.003187584 -0.060359046 0.016246658 -0.015352091 -0.092193164 0.07155344 0.0013278379 0.031289298
0.04971538 -0.04646233 0.052023675 -0.07228181 0.04038596 -0.054183103 -0.032623958 0.05164395
-0.005650606 -0.071959235 0.06001377 0.0610614 -0.040974014 0.0167833 0.014384261 -0.0068080043
0.017462203 -0.025024874 0.045148846 0.087583825 -0.017232204 0.010112578 -0.001586178 0.022117963
-0.06506236 -0.08238818 -0.021284597 -0.06625925 0.021232268 -0.016593924 0.012585845 -0.028259277
0.032274522 0.037289366 0.050791208 0.07182596 -0.038451787 -0.07090146 0.05128749
00000000: ac3c d0ba c5dd aebd 5574 413d c8f0 9d3d
00000010: 0b9d 983d b6ff c5bc ce50 8f3c 63a6 e03c
00000020: 6376 bdbd 909a 523d 27d9 dd3c a32d 98bd
00000030: 872d 59bc a4cf 45bd 27ba 893c 6410 393d
00000040: 737b b7bd f927 1e3d 083e 083d 95d2 38bc
00000050: 1369 063c 5635 063d 965e 4ebd b275 b73a
00000060: b9da 613d 0273 5b3d b80d 1c3d 3bea aabd
00000070: a058 883d 0400 873d e68e a13d 9410 693d
00000080: 21bd 713c 915e 9b3d 6cc2 8b3d 45fa 55bd
00000090: e4ad 653d 88c4 d9bc 8d3d 5a3d 1e8c 1dbc
000000a0: 9a9d e03c 9bc2 463c 484f 82bd d82f 38bd
000000b0: ca9c 8fbc d99c f7bb 42b4 8d3d 571d 393d
000000c0: 0674 1abd 303d 94bd 4f4e 053d 238a 813d
000000d0: b7e4 b1bd d3fc 02bd c7d1 633d 44d8 353d
000000e0: c9e6 503b 0c3b 77bd b617 853c 5687 7bbc
000000f0: c5cf bcbd 9c8a 923d d90a ae3a 3529 003d
00000100: 5ba2 4b3d 494f 3ebd c716 553d 7c08 94bd
00000110: c06b 253d 1aef 5dbd b3a0 05bd 9b88 533d
00000120: b828 b9bb 5d5f 93bd 00d1 753d 851b 7a3d
00000130: 5ed4 27bd 227d 893c f7ab 6b3c ae15 dfbb
00000140: e50c 8f3c f700 cdbc ffed 383d 265f b33d
00000150: 8d2a 8dbc 3aaf 253c 4de7 cfba bb30 b53c
00000160: 6a3f 85bd 22bb a8bd 095d aebc eeb2 87bd
00000170: 4bef ad3c fbef 87bc dc34 4e3c 0080 e7bc
00000180: 4a32 043d bcbc 183d 710a 503d 7d19 933d
00000190: 9f7f 1dbd c934 91bd d512 523d

baseColour.weight f4 [46, 128]
0.07464656 -0.00434403 -0.08607523 -0.010058578 -0.01588606 -0.072939105 -0.01910054 -0.096284226
0.01315359 -0.0980586 -0.06342204 -0.035588514 0.038865358 0.024170702 -0.004494528 0.02617311
0.014300831 0.0834923 -0.0841567 -0.03191306 -0.036114417 0.021011317 -0.017184272 -0.058875408
-0.040801745 0.06776046 -0.026412625 0.04540503 -0.06964562 -0.016048603 -0.010180535 0.058830254
-0.054051794 -0.094549276 0.06560643 0.0649985 0.027455842 -0.059523594 0.04027407 -0.062463216
-0.028445676 -0.068558484 -0.066681854 0.0010951693 0.060740013 -0.041666947 0.08544778 -0.06326298
-0.06029533 0.026472602 0.012580831 -0.065103136 -0.012697222 0.021327758 -0.08309917 -0.043888953
-0.07415214 0.033450626 0.014722225 -0.024446087 -0.06086625 0.07327761 0.040127438 -0.027006354
0.026022647 -0.011274059 0.07273513 -0.0016352856 -0.06715389 0.0031177604 0.013629048 -0.08159264
-0.024170807 0.04717667 0.052279446 0.051776923 0.05694268 -0.037493374 -0.09682317 0.06601819
-0.009021349 0.01648051 -0.029332941 0.017392086 -0.043919746 -0.027605709 -0.0794288 0.01085729
-0.028627936 -0.00079381355 -0.094862804 -0.06817779 0.03750943 -0.06124431 0.01743507 -0.024589624
0.015365764 0.066831514 0.060436852 -0.020871833 -0.013379508 0.0033597206 0.06479778 -0.060590077
0.0020995673 -0.03852 0.02196416 0.07457304 -0.042295303 -0.07265913 0.0029523675 0.0724248
-0.01073572 0.03132241 0.010386054 -0.029450394 -0.018944908 0.060983807 0.04827559 -0.06309052
0.027874375 0.020765059 0.07287662 -0.07608322 0.06359284 -0.023723833 -0.023109386 0.010115507
0.034080774 0.03542343 0.032563433 0.013163069 -0.041348014 0.097456686 -0.00513285 0.10225558
0.0184263 0.04075156 -0.017001236 0.036336835 -0.0063475235 0.099128105 -0.056000106 0.022997601
0.0076017505 -0.07320529 0.08854461 -0.076229855 -0.049929243 0.09363172 -0.057348114 0.09316232
0.04511923 -0.06009048 -0.028864792 0.032537863 -0.07357672 0.019838842 0.049271505 0.08180872
0.01760228 -0.04149281 -0.01641156 -0.07294896 -0.035819277 0.086985126 -0.013921965 -0.024976946
-0.018164907 0.0730669 -0.07968686 -0.067313 -0.07888977 0.053175632 0.026487324 -0.036282413
0.008711128 0.088687405 0.08258157 -0.047338467 -0.027332861 0.008265176 0.014302924 0.0010924481
0.020642713 -0.020128723 -0.041508093 0.062296778 -0.026157193 0.090521514 0.0044728816 -0.017701268
-0.05398374 -0.0038459501 0.021700567 0.00010719251 -0.04133981 0.00909921 -0.056860793 0.08637456
0.033677302 -0.012426637 -0.008399392 0.008651776 -0.012685198 -0.05606038 -0.063959956 -0.0006041173
0.0035835882 -0.04960815 -0.05975643 0.0038260415 0.07315586 0.08533367 0.07476202 0.04911448
0.08665166 0.041531593 -0.045912787 -0.04928644 0.059799306 0.03418139 0.04950804 0.0085632745
0.055520236 0.08846645 -0.027302343 0.06612097 0.016067453 -0.035093255 -0.064905845 0.057146974
-0.054366507 -0.0720882 0.04615532 -0.0047182515 -0.08032064 0.08464417 -0.04150165 0.07159782
-0.056524105 0.0071834214 0.07410858 -0.043180607 0.028898263 -0.03122819 0.016103715 0.08899712
0.09946937 -0.07474079 -0.02656389 0.019224944 0.061761126 0.058714997 -0.07500867 0.08356247
00000000: 4ce0 983d 5d58 8ebb 3648 b0bd bccc 24bc
00000010: 7c23 82bc 1961 95bd bc78 9cbc aa30 c5bd
00000020: 2882 573c f3d2 c8bd 6ae3 81bd 43c5 11bd
00000030: 4831 1f3d a301 c63c d546 93bb fd68 d63c
00000040: 084e 6a3c 03fe aa3d 595a acbd 45b7 02bd
00000050: b6ec 13bd ed1f ac3c 08c6 8cbc 5727 71bd
00000060: bb1f 27bd ffc5 8a3d 4a5f d8bc a0fa 393d
00000070: 5da2 8ebd 5c78 83bc 42cc 26bc fef7 703d
00000080: 6a65 5dbd 0da3 c1bd aa5c 863d ef1d 853d
00000090: 13eb e03c 03cf 73bd 6cf6 243d 6ed9 7fbd
000000a0: e806 e9bc 6468 8cbd 7f90 88bd c98b 8f3a
000000b0: 85ca 783d f6aa 2abd 3fff ae3d 0590 81bd
000000c0: 3cf8 76bd 12dd d83c d41f 4e3c cb54 85bd
000000d0: 0208 50bc 8db7 ae3c e62f aabd e7c4 33bd
000000e0: 14dd 97bd 8603 093d 7d35 713c 2943 c8bc
000000f0: e44e 79bd 9212 963d ab5c 243d 6e3c ddbc
00000100: 722d d53c d5b6 38bc 28f6 943d 1457 d6ba
00000110: fb87 89bd 5753 4c3b 5f4c 5f3c 0b1a a7bd
00000120: db01 c6bc 533c 413d f922 563d 0a14 543d
00000130: ba3c 693d a792 19bd 3a4b c6bd 8b34 873d
00000140: 48ce 13bc 2202 873c a34b f0bc d979 8e3c
00000150: 31e5 33bd 5e25 e2bc 91ab a2bd c6e2 313c
00000160: 2285 eabc ed17 50ba 6e47 c2bd cca0 8bbd
00000170: 7da3 193d 50db 7abd fed3 8e3c 2e70 c9bc
00000180: afc0 7b3c f6de 883d a28c 773d 68fb aabc
00000190: b935 5bbc c22e 5c3b b3b4 843d 4d2d 78bd
000001a0: e598 093b 26c7 1dbd 2fee b33c c0b9 983d
000001b0: d73d 2dbd 4fce 94bd 827c 413b 7453 943d
000001c0: e0e4 2fbc ed4b 003d 452a 2a3c f441 f1bc
000001d0: 5a32 9bbc 28ca 793d a0bc 453d 9a35 81bd
000001e0: cd58 e43c 7c1b aa3c 5640 953d 85d1 9bbd
000001f0: f73c 823d 7c58 c2bc e54f bdbc 83bb 253c
00000200: 4898 0b3d 2918 113d 3c61 053d eaa9 573c
00000210: 895c 29bd 5f97 c73d 7731 a8bb 606b d13d
00000220: c0f2 963c 1ceb 263d 2d46 8bbc efd5 143d
00000230: e3fe cfbb ad03 cb3d 5e60 65bd 7765 bc3c
00000240: 1b18 f93b a8ec 95bd e056 b53d 661e 9cbd
00000250: 9b82 4cbd fdc1 bf3d dbe5 6abd e3cb be3d
00000260: f1ce 383d 6f21 76bd db75 ecbc 6c46 053d
00000270: 64af 96bd 1185 a23c ebd0 493d 558b a73d
00000280: a832 903c 5df4 29bd 8971 86bc 4466 95bd
00000290: 3cb7 12bd 4225 b23d f418 64bc 749c ccbc
000002a0: 92ce 94bc 19a4 953d dd32 a3bd 66db 89bd
000002b0: f690 a1bd b1ce 593d f2fb d83c de9c 14bd
000002c0: 1eb9 0e3c bea1 b53d 8720 a93d fbe5 41bd
000002d0: 2ae9 dfbc a96a 073c d056 6a3c 7a30 8f3a
000002e0: e81a a93c fee4 a4bc 6404 2abd e82a 7f3d
000002f0: 9c47 d6bc 5863 b93d 4091 923b 4002 91bc
00000300: 0e1e 5dbd 560c 7cbb 63c5 b13c 8acc e038
00000310: ef53 29bd da14 153c dde6 68bd 25e5 b03d
00000320: 36f1 093d 1899 4bbc 9a9d 09bc 2ec0 0d3c
00000330: 94d5 4fbc 929f 65bd 70fd 82bd a05d 1eba
00000340: a2da 6a3b ea31 4bbd 29c3 74bd 53be 7a3b
00000350: bdd2 953d 6bc3 ae3d d41c 993d 442c 493d
00000360: 6d76 b13d 081d 2a3d 0c0f 3cbd 94e0 49bd
00000370: 1ef0 743d c901 0c3d f1c8 4a3d fa4c 0c3c
00000380: 3069 633d e62d b53d 2aa9 dfbc 6e6a 873d
00000390: e49f 833c f2bd 0fbd 5bed 84bd f212 6a3d
000003a0: 6aaf 5ebd faa2 93bd 5c0d 3d3d 909b 9abb
000003b0: 267f a4bd ec59 ad3d a2fd 29bd e1a1 923d
000003c0: d285 67bd e862 eb3b 3dc6 973d 26de 30bd
000003d0: 0dbc ec3c 43d2 ffbc f0eb 833c 1f44 b63d
000003e0: 99b6 cb3d b311 99bd 849c d9bc a17d 9d3c
000003f0: 3cf9 7c3d 237f 703d 259e 99bd cd22 ab3d

baseColour.bias f4 [46]
-0.09018772 -0.044437286 -0.019511264 -0.097575344 0.07795545 -0.091743715 -0.00761498 -0.0058614803
-0.092043914 0.020017985 -0.07515785 0.0757287 0.0012604907 0.060983468 -0.03764317 0.009817147
-0.07077854 -0.040506087 -0.09351236 0.062451813 -0.040442005 0.014728725 0.001005715 0.022485197
0.037781086 0.043378588 0.006773839 -0.018477483 0.05584351 0.057539575 -0.009795365 0.005674702
0.0059216917 -0.019023936 0.040530056 -0.060741793 -0.086487 -0.015871316 -0.038097575 0.014103983
0.010675266 -0.0047789738 -0.06559511 -0.07743208 -0.05873347 0.060884498
00000000: 57b4 b8bd df03 36bd 16d6 9fbc 95d5 c7bd
00000010: 1ba7 9f3d 21e4 bbbd 1587 f9bb a911 c0bb
00000020: 8581 bcbd c2fc a33c 5cec 99bd a617 9b3d
00000030: 0d37 a53a cdc9 793d ba2f 1abd 19d8 203c
00000040: 57f4 90bd b6e9 25bd 6883 bfbd 79cd 7f3d
00000050: 84a6 25bd c050 713c 32d2 833a e032 b83c
00000060: 57c0 1a3d bfad 313d 14f7 dd3b 175e 97bc
00000070: 2abc 643d 9eae 6b3d bd7c 20bc daf2 b93b
00000080: c00a c23b 16d8 9bbc d802 263d 63cc 78bd
00000090: 1920 b1bd 9004 82bc 340c 1cbd 6414 673c
000000a0: 50e7 2e3c f098 9cbb bb56 86bd b694 9ebd
000000b0: 8292 70bd 0662 793d
